min_as_settings/checkpoint_critic_min_pre.pth (torch_old, 539401 bytes, 17 tensors)

bn0.weight f4 [24]
0.33412677 0.37679866 0.1565472 0.1872563 0.8266063 0.7762953 0.10999467 0.014684501
0.39115003 0.11051297 0.22151974 0.19328402 0.5335114 0.96526575 0.20128779 0.2561803
0.61250407 0.29680052 0.12671085 0.6049976 0.3536043 0.6571468 0.23146108 0.5433157
00000000: aa12 ab3e c1eb c03e e94d 203e 1ec0 3f3e
00000010: 789c 533f 4abb 463f e344 e13d 4397 703c
00000020: d144 c83e a054 e23d 12d6 623e 3fec 453e
00000030: 3494 083f a81b 773f 631e 4e3e 102a 833e
00000040: 11cd 1c3f 3df6 973e 7dc0 013e 1fe1 1a3f
00000050: 9f0b b53e c63a 283f 2204 6d3e bd16 0b3f

bn0.bias f4 [24]
-0.14307395 0.02873723 0.006336838 0.012135603 0.03914786 -0.0017096536 0.02685498 0.01797255
-0.102330975 -0.02158783 0.0021753882 0.045450464 0.024394521 -0.01845735 -0.0047701383 -0.06601003
-0.011662346 -0.003103701 0.006183551 -0.011079465 0.012456736 -0.018563239 -0.094473645 0.020306045
00000000: fa81 12be 576a eb3c 40a5 cf3b 69d4 463c
00000010: 8259 203d 7516 e0ba fafe db3c 2b3b 933c
00000020: e792 d1bd f6d8 b0bc f590 0e3b 442a 3a3d
00000030: 05d7 c73c de33 97bc d24e 9cbb 4430 87bd
00000040: 6d13 3fbc 7667 4bbb 639f ca3b a586 35bc
00000050: 5617 4c3c ef11 98bc 667b c1bd dd58 a63c

bn0.running_mean f4 [24]
-7.8858943 -0.9090533 0.85935473 -0.10385046 -0.014550555 3.1248875 0.85935473 -0.10385046
-8.020705 -0.92591137 0.94531316 -0.102094315 -0.013531022 3.1301677 0.94531316 -0.102094315
-8.133001 -0.9433889 1.2012045 -0.113104664 -0.023021197 3.130213 1.2012045 -0.113104664
00000000: 3f59 fcc0 b8b7 68bf acfe 5b3f 8daf d4bd
00000010: 7365 6ebc 28fe 4740 acfe 5b3f 8daf d4bd
00000020: cf54 00c1 8708 6dbf 0b00 723f d316 d1bd
00000030: 38b1 5dbc ab54 4840 0b00 723f d316 d1bd
00000040: c620 02c1 ef81 71bf 12c1 993f 6ba3 e7bd
00000050: f396 bcbc 6955 4840 12c1 993f 6ba3 e7bd

bn0.running_var f4 [24]
10.50069 1.1169903 305.4623 10.359152 30.922695 3.4796474 305.4623 10.359152
9.76598 1.1250802 311.6171 10.344305 32.053677 3.5230627 311.6171 10.344305
9.076863 1.1274613 314.9782 10.375309 33.37546 3.6246452 314.9782 10.375309
00000000: d402 2841 8af9 8e3f 2dbb 9843 16bf 2541
00000010: ae61 f741 8bb2 5e40 2dbb 9843 16bf 2541
00000020: 7441 1c41 a102 903f fdce 9b43 4682 2541
00000030: f736 0042 dc79 6140 fdce 9b43 4682 2541
00000040: d53a 1141 a750 903f 367d 9d43 4401 2641
00000050: 7980 0542 30fa 6740 367d 9d43 4401 2641

fcs1.weight f4 [400, 24]
-0.03299448 0.034920283 -0.0038415133 0.0031116593 0.09489472 -0.03771144 0.017653769 0.0035176822
-0.005080317 -0.008339944 0.006732992 -0.023791283 0.005489929 0.0029143668 -0.023536744 -0.021181386
0.010931431 -0.0046456433 -0.046823353 0.014304238 -0.20921941 0.07994401 -0.00495069 -0.018519102
-0.018841876 -0.10909158 0.0050223595 -0.0058055604 0.13346401 -0.032112475 0.06385063 -0.018803354
-0.026453935 -0.06768033 0.030089712 -0.06277549 0.13255154 0.0011361103 0.02323392 -0.027072087
0.03602888 -0.08113492 -0.023842428 -0.015437267 0.32569498 0.14298289 -0.040321413 -0.0025913306
0.005910108 0.056712165 -0.007204252 -0.0055203442 -0.04903341 -0.10339669 0.057335686 0.03664729
0.06183342 0.029023234 -0.025664818 0.011020498 -0.046537705 0.0028513188 0.032142118 -0.017324941
0.069804385 0.026302665 5.1880586e-05 -0.049727235 -0.015246277 0.09540428 0.041176468 0.020898134
-0.013977536 -0.029891975 0.0066916994 -0.01197652 0.015862593 -0.023707412 0.013191977 0.030697437
0.03371275 -0.046746526 -0.025296198 0.0009927504 -0.07879711 0.019193985 0.0033787712 -0.03610941
0.071912125 0.008571902 -0.0084682945 0.001092178 -0.2438163 0.097564176 -0.00062183425 -0.06526966
0.005308521 0.03748613 -0.028345771 -0.015491323 0.014827679 0.02791762 0.0014521901 0.03891149
-0.026438436 0.018909702 -0.021496782 -0.044849224 0.010543845 0.012624712 0.027122578 0.018822195
-0.022963407 0.009437219 0.019630725 -0.0264 -0.014243459 -0.0050415886 -0.046061277 0.032820214
-0.018546475 -0.009653452 0.011377104 0.096360445 -0.031514417 -0.06667845 0.009663846 0.08304568
-0.023197459 0.006099164 -0.054483347 0.03799249 -0.038788565 -0.023169413 -0.017163256 0.06179771
-0.019142078 -0.0021599743 -0.02061685 0.0042333268 0.107770294 0.10890036 0.038732298 -0.042737078
-0.054223698 -0.02232818 0.031113148 0.058036525 -0.048506863 -0.078500085 0.011808221 0.027569765
-0.022632735 0.034332383 -0.042423975 0.034217563 -0.07962727 0.045236904 -0.10122061 0.04140297
0.010330193 0.04259096 0.006445694 0.08157983 -0.14543207 0.02437836 -0.038520187 0.027305212
-0.005168695 -0.012513687 0.03699196 -0.016340902 -0.04176337 -0.06792921 -0.022883106 -0.11367891
0.05526411 -0.024823895 0.073561914 -0.00027905966 0.029330216 0.044564206 0.0031410183 -0.015210928
-0.020987302 0.008456934 -0.033740353 -0.051369082 0.103657044 0.0915141 0.061351847 -0.010324695
-0.0087686265 0.020439206 -0.019651264 0.03798407 0.01382927 0.07872995 -0.016283866 0.01740997
0.054702573 -0.0066606924 -0.021810224 0.08575653 0.07271942 -0.09766154 0.053191397 0.060637936
-0.050007317 -0.046906114 -0.004510202 0.011193627 0.06707994 0.017766006 -0.03497175 -0.046574835
0.0321293 -0.0060967193 -0.013405438 0.020427223 0.07025708 -0.01467923 -0.024456136 -0.0071695866
-0.009663717 0.039194543 -0.03399154 -0.014615854 0.10809803 -0.013916978 0.04967425 0.04402644
-0.016716886 -0.004827778 -0.0026014384 -0.017927412 -0.18951765 0.083726384 -0.014199782 -0.0425549
-0.077593945 -0.10039878 -0.047898024 0.07688063 -0.061717443 0.069343455 -0.037760157 0.0541397
-0.028763734 -0.0850695 -0.041066762 0.055758025 -0.021580659 -0.12986653 0.016271375 0.062287383
00000000: 3825 07bd 9208 0f3d e6c1 7bbb fbec 4b3b
00000010: 2a58 c23d 5077 1abd a39e 903c ea88 663b
00000020: ca78 a6bb 43a4 08bc 6ea0 dc3b f0e5 c2bc
00000030: dde4 b33b f6fe 3e3b 21d0 c0bc 9684 adbc
00000040: bf19 333c 7b3a 98bb d8c9 3fbd 535c 6a3c
00000050: 9d3d 56be afb9 a33d 6639 a2bb 5fb5 97bc
00000060: 475a 9abc 686b dfbd 9b92 a43b 923c bebb
00000070: caaa 083e 5f88 03bd 1ec4 823d 7e09 9abc
00000080: ecb5 d8bc fc9b 8abd b37e f63c 7090 80bd
00000090: 97bb 073e 89e9 943a 1055 be3c 48c6 ddbc
000000a0: 0593 133d 112a a6bd 3251 c3bc 97ec 7cbc
000000b0: 7ec1 a63e 1b6a 123e 1128 25bd 50d3 29bb
000000c0: 94a9 c13b 044b 683d a511 ecbb 01e4 b4bb
000000d0: 42d7 48bd a5c1 d3bd d3d8 6a3d 781b 163d
000000e0: 0a45 7d3d 22c2 ed3c 063f d2bc 528f 343c
000000f0: 529e 3ebd 31dd 3a3b 74a7 033d 09ed 8dbc
00000100: 9af5 8e3d b078 d73c 5b9a 5938 c9ae 4bbd
00000110: 85cb 79bc 5263 c33d a8a8 283d 9032 ab3c
00000120: 0902 65bc 04e0 f4bc 0b46 db3b 2a39 44bc
00000130: 45f2 813c 0c36 c2bc 2923 583c 3179 fb3c
00000140: 6116 0a3d 4979 3fbd f939 cfbc 2d1f 823a
00000150: 6160 a1bd b43c 9d3c 606e 5d3b 76e7 13bd
00000160: aa46 933d 2a71 0c3c 9abe 0abc 6a27 8f3a
00000170: fbaa 79be bacf c73d 9702 23ba 19ac 85bd
00000180: 1af3 ad3b 0e8b 193d 6435 e8bc 51cf 7dbc
00000190: cbef 723c 7eb3 e43c 6a57 be3a a861 1f3d
000001a0: 6b95 d8bc 85e8 9a3c 051a b0bc d2b3 37bd
000001b0: 17c0 2c3c e1d7 4e3c 2b30 de3c 0131 9a3c
000001c0: c11d bcbc 919e 1a3c 9dd0 a03c d044 d8bc
000001d0: 665d 69bc e933 a5bb c0aa 3cbd 7d6e 063d
000001e0: c7ee 97bc 8329 1ebc 0867 3a3c a058 c53d
000001f0: 4315 01bd b68e 88bd 1c55 1e3c da13 aa3d
00000200: 9908 bebc 7fdb c73b ee29 5fbd 039e 1b3d
00000210: c2e0 1ebd c8cd bdbc f599 8cbc 981f 7d3d
00000220: d9cf 9cbc 5b8e 0dbb abe4 a8bc b8b7 8a3b
00000230: acb6 dc3d 2707 df3d c2a5 1e3d 130d 2fbd
00000240: ab19 5ebd 96e9 b6bc 00e1 fe3c b5b7 6d3d
00000250: 22af 46bd a7c4 a0bd 4577 413c fdd9 e13c
00000260: 4968 b9bc 1da0 0c3d c3c4 2dbd b727 0c3d
00000270: 9f13 a3bd 554a 393d c04c cfbd 2996 293d
00000280: f83f 293c dc73 2e3d 6636 d33b 5313 a73d
00000290: 25ec 14be 20b5 c73c 58c7 1dbd 2eaf df3c
000002a0: 285e a9bb 3506 4dbc e284 173d 5bdd 85bc
000002b0: 1110 2bbd 781e 8bbd 5a75 bbbc 7dd0 e8bd
000002c0: 9f5c 623d 7b5b cbbc a1a7 963d c14e 92b9
000002d0: ec45 f03c f588 363d 8bd9 4d3b 4237 79bc
000002e0: 90ed abbc f48e 0a3c 5333 0abd 6368 52bd
000002f0: 254a d43d bf6b bb3d 134c 7b3d e928 29bc
00000300: 49aa 0fbc 1f70 a73c b0fb a0bc 2f95 1b3d
00000310: 2a94 623c 2b3d a13d be65 85bc 5a9f 8e3c
00000320: ce0f 603d f041 dabb 5bab b2bc 1fa1 af3d
00000330: ebed 943d c602 c8bd 39df 593d 7c5f 783d
00000340: 79d4 4cbd a020 40bd 51ca 93bb 7965 373c
00000350: 3561 893d 048a 913c 8a3e 0fbd 41c5 3ebd
00000360: 039a 033d fdc6 c7bb 7ba2 5bbc fe56 a73c
00000370: f2e2 8f3d 2781 70bc 3c58 c8bc daee eabb
00000380: 9154 1ebc 758a 203d b73a 0bbd 5677 6fbc
00000390: 8062 dd3d 0904 64bc 3a77 4b3d 1155 343d
000003a0: daf1 88bc 5632 9ebb e57c 2abb 82dc 92bc
000003b0: ea10 42be bd78 ab3d 34a6 68bc 0c4e 2ebd
000003c0: 93e9 9ebd e09d cdbd b830 44bd 9773 9d3d
000003d0: 6ecb 7cbd f103 8e3d 65aa 1abd 97c1 5d3d
000003e0: eca1 ebbc eb38 aebd 9f35 28bd 8762 643d
000003f0: ecc9 b0bc bbfb 04be 8c4b 853c 0e21 7f3d

fcs1.bias f4 [400]
0.039954882 -0.057239667 -0.063128784 -0.008937542 -0.16906235 0.023675894 -0.16308606 0.11962215
0.040131442 0.124897175 -0.11643443 -0.14901772 0.10422632 -0.20463094 0.02472349 -0.17692895
0.07471601 -0.16650002 0.11167206 0.08676517 -0.09483267 -0.100283675 0.11507464 0.09484311
0.13885716 0.12115886 0.12259117 0.1377477 -0.038854145 -0.2420656 0.08732495 0.06074978
-0.16289985 -0.057903063 0.07115124 0.0071110777 0.029647416 -0.21211039 -0.14871414 0.034554593
0.077540554 -0.04297289 0.012646769 0.04523377 -0.123469464 0.0681973 0.083697446 0.123821996
-0.026789036 0.060524948 -0.10606954 -0.12180495 -0.15286244 0.10719197 0.023729052 0.13955246
0.16823897 -0.040267006 -0.039803226 0.082229264 -0.13019478 0.084331855 0.063292556 -0.16021696
-0.13113047 0.055021156 -0.035523802 0.055942014 0.11242786 0.060554016 -0.056463487 0.004336885
0.059937086 0.08582008 0.018442255 -0.23989135 0.07491234 -0.03384898 -0.08122506 -0.18510047
0.10160943 0.022139942 0.061491247 0.15827528 -0.1696873 0.062917225 0.016424945 -0.19095159
-0.15215239 0.06425637 -0.025000481 -0.19409753 -0.022584237 0.048687402 -0.13382836 -0.118609056
0.06685673 -0.017519712 -0.10640648 -0.17940627 -0.07811815 -0.16989796 0.10047685 0.040811162
-0.14471342 -0.13154854 0.08775172 0.061865002 -0.10415646 0.022673104 0.08526007 -0.032137107
0.06156791 -0.06224736 0.03965256 -0.178884 0.0113001615 -0.12708913 -0.06643432 -0.053358465
-0.100823894 0.14568418 -0.17249686 0.04252516 0.05404023 -0.08574517 0.073341615 0.032279834
-0.026273726 -0.22717947 -0.2111106 -0.039411433 0.13594306 0.015483037 0.087855525 -0.080469996
-0.05744839 -0.0031106963 -0.14594083 -0.019204149 0.046513263 0.00021396742 -0.045469362 -0.20567743
0.025595091 0.000947494 -0.12642336 0.023545781 0.12111363 -0.08050207 -0.19751355 -0.13273016
-0.015415683 -0.032442957 -0.2246946 -0.1358869 -0.05257689 -0.11048074 -0.2891841 -0.17954059
0.09325933 0.048615195 -0.1079704 -0.22363988 -0.17726898 -0.030744765 0.06799574 -0.06283528
0.120962635 -0.038269807 -0.11033887 0.06713137 -0.10495639 -0.18741497 -0.12947166 -0.037775435
0.011203809 -0.020158298 0.11617153 0.10597744 0.048237585 -0.12179347 0.07185487 -0.027561437
0.19339699 0.15999825 -0.008415644 -0.09700576 0.09459012 0.100675054 -0.09950803 0.058160935
-0.015511359 0.028540542 -0.0532742 0.07091857 -0.1470815 0.05061876 0.018594906 -0.08830149
0.05578699 0.006045385 -0.06999256 -0.028829018 0.021357138 -0.102371454 -0.11447638 -0.16298518
-0.08804205 0.072402835 0.097351454 0.09664809 0.03197329 -0.20425116 0.12200791 0.031312823
0.1306214 0.0058344807 0.06581975 0.07178169 0.08505684 0.107379034 0.0862366 0.15725634
-0.013586331 -0.17461878 -0.13770536 -0.17073295 -0.16377684 0.15306218 0.091826126 -0.04875096
-0.22250676 -0.04864534 -0.098440275 0.04468683 0.037577145 -0.023092529 0.1163346 0.12701108
0.09008243 -0.15146461 -0.03523034 0.028913256 0.14516327 -0.26120183 -0.0060176323 -0.0066369725
-0.2305361 0.1042948 0.12498313 -0.10505016 -0.068797216 0.050979003 -0.024931973 -0.19009008
00000000: bba7 233d 2474 6abd aa49 81bd c56e 12bc
00000010: ae1e 2dbe f3f3 c13c 0800 27be 75fc f43d
00000020: de60 243d 17ca ff3d 2d75 eebd 1a98 18be
00000030: 9c74 d53d c68a 51be eb88 ca3c dd2c 35be
00000040: b504 993d fb7e 2abe 52b4 e43d f0b1 b13d
00000050: a237 c2bd 8761 cdbd 41ac eb3d 1b3d c23d
00000060: 9230 0e3e 2322 f83d 1411 fb3d bc0d 0d3e
00000070: 8625 1fbd 0be0 77be 6cd7 b23d c3d4 783d
00000080: 38cf 26be c32b 6dbd beb7 913d 0b04 e93b
00000090: 23df f23c 7733 59be 8548 18be 1e89 0d3d
000000a0: 95cd 9e3d 5704 30bd 6534 4f3c 0c47 393d
000000b0: 8fdd fcbd 07ab 8b3d 9169 ab3d 6396 fd3d
000000c0: ae74 dbbc 02e9 773d fd3a d9bd e074 f9bd
000000d0: f987 1cbe 7787 db3d 6e63 c23c d7e6 0e3e
000000e0: d646 2c3e 04ef 24bd b508 23bd d167 a83d
000000f0: c851 05be 2eb6 ac3d 879f 813d ea0f 24be
00000100: 1147 06be dd5d 613d 6881 11bd 7423 653d
00000110: 9440 e63d 7d07 783d 4246 67bd 6e1c 8e3b
00000120: 9780 753d 70c2 af3d 3614 973c 14a6 75be
00000130: a46b 993d 3aa5 0abd 5359 a6bd fa8a 3dbe
00000140: 9b18 d03d d35e b53c 3fde 7b3d ea12 223e
00000150: 82c2 2dbe bfda 803d 9b8d 863c d088 43be
00000160: d6cd 1bbe d898 833d cfcd ccbc 81c1 46be
00000170: 9402 b9bc 716c 473d 4d0a 09be 4ee9 f2bd
00000180: 2eec 883d 8085 8fbc a4eb d9bd 47b6 37be
00000190: 69fc 9fbd bbf9 2dbe cfc6 cd3d 9b29 273d
000001a0: c12f 14be a9b4 06be 2cb7 b33d 2866 7d3d
000001b0: fb4f d5bd f2bc b93c d59c ae3d 33a2 03bd
000001c0: a22e 7c3d 16f7 7ebd b96a 223d 5e2d 37be
000001d0: 5024 393c a723 02be b70e 88bd 688e 5abd
000001e0: c27c cebd 3c2e 153e 04a3 30be dd2e 2e3d
000001f0: 4a59 5d3d 2a9b afbd 2134 963d dc37 043d
00000200: ff3b d7bc bca1 68be 612d 58be e26d 21bd
00000210: a834 0b3e 90ac 7d3c 99ed b33d 74cd a4bd
00000220: 014f 6bbd d3dc 4bbb 8371 15be 0552 9dbc
00000230: b184 3e3d 715c 6039 153e 3abd 1b9d 52be
00000240: ccac d13c 3f61 783a 2075 01be 15e3 c03c
00000250: 6c0a f83d 45de a4bd fe40 4abe 6aea 07be
00000260: 1092 7cbc e8e2 04bd 5716 66be ef25 0bbe
00000270: dd5a 57bd ba43 e2bd f00f 94be 7dd9 37be
00000280: bffe be3d ba20 473d 961f ddbd da01 65be
00000290: 0086 35be 72dc fbbc 5a41 8b3d c9af 80bd
000002a0: 42bb f73d cdc0 1cbd 58f9 e1bd 2c7c 893d
000002b0: 60f3 d6bd b6e9 3fbe 3894 04be 6aba 1abd
000002c0: 2e90 373c 0423 a5bc 57eb ed3d b30a d93d
000002d0: c694 453d db6e f9bd a528 933d 86c8 e1bc
000002e0: dc09 463e 95d6 233e c5e1 09bc f5aa c6bd
000002f0: 77b8 c13d b92e ce3d deca cbbd 293a 6e3d
00000300: 5b23 7ebc dbcd e93c 0c36 5abd c13d 913d
00000310: 889c 16be 9e55 4f3d 5854 983c 69d7 b4bd
00000320: e680 643d 5d18 c63b 4258 8fbd d52a ecbc
00000330: 2af5 ae3c 20a8 d1bd 9872 eabd 96e5 26be
00000340: 644f b4bd f047 943d 3360 c73d 6fef c53d
00000350: 6df6 023d 3727 51be 48df f93d e041 003d
00000360: 9ec1 053e 2c2f bf3b 81cc 863d 4702 933d
00000370: 4832 ae3d 8ae9 db3d d19c b03d ce07 213e
00000380: 3499 5ebc 44cf 32be a202 0dbe 9ed4 2ebe
00000390: 1eb5 27be 55bc 1c3e 560f bc3d 16af 47bd
000003a0: d0d8 63be 5640 47bd 0e9b c9bd 8a09 373d
000003b0: 7eea 193d 8b2c bdbc d640 ee3d 310f 023e
000003c0: 237d b83d 8a19 1bbe b04d 10bd 7edb ec3c
000003d0: aea5 143e 3fbc 85be 8f2f c5bb f67a d9bb
000003e0: a811 6cbe 8398 d53d 28f7 ff3d 8a24 d7bd
000003f0: 8ee5 8cbd 5ccf 503d 233e ccbc f9a6 42be

bn1.weight f4 [400]
0.9575575 0.06640983 0.7639897 0.5367592 0.9127137 0.5284617 0.39946902 0.43783718
0.1321401 0.91116816 0.80308473 0.59208155 0.47998053 0.28676063 0.5245883 0.64014333
0.3194477 0.5322872 0.91625285 0.13997197 0.33262962 0.88766956 0.9574754 0.91511256
0.3663752 0.8054445 0.6272024 0.38583976 0.42413014 0.86347115 0.83514607 0.8171028
0.31646115 8.7320805e-05 0.30048907 0.70855355 0.022037745 0.7815446 0.26324308 0.8382832
0.14111471 0.30353594 0.027377129 0.16053325 0.39008415 0.37568682 0.5002541 0.74801594
0.33413392 0.83595604 0.39628166 0.26657045 0.42477632 0.71224964 0.25378072 0.10058838
0.09437096 0.45595843 0.710505 0.81632525 0.5303332 0.37719005 0.33466434 0.01692909
0.13876766 0.3188603 0.4181788 0.6818854 0.8551702 0.2419545 0.18057919 0.00829953
0.6146345 0.99509156 0.84148365 0.9685913 0.61432457 0.30725062 0.9007155 0.6338995
0.7931819 0.1709814 0.31478655 0.20901084 0.08540696 0.84889674 0.17872024 0.17235112
0.45894903 0.15907145 0.5693188 0.30678254 0.86883116 0.6461664 0.5539618 0.67978406
0.42658848 0.01222837 0.94171286 0.42879194 0.5161225 0.270046 0.85644615 0.39945757
0.34956878 0.60135865 0.40807158 0.358364 0.5914659 0.79541916 0.16109055 0.9188542
0.7719735 0.81589246 0.56732535 0.48718953 0.43565303 0.47482276 0.12970388 0.3855996
0.61306655 0.2288965 0.8502934 0.7776112 0.30741215 0.35592824 0.42731953 0.52851284
0.97349787 0.7173131 0.8315494 0.4683504 0.5116857 0.090718925 0.52619976 0.7413621
0.17395735 0.63527113 0.857337 0.49780816 0.22247028 0.97487307 0.83631486 0.005418062
0.17909402 0.78670555 0.09111291 0.44419408 0.97728705 0.20341676 0.7505313 0.79476595
0.80486727 0.18384665 0.43447965 0.793791 0.3124532 0.96986485 0.22120059 0.31459117
0.577918 0.20591593 0.341896 0.7103994 0.30765224 0.0012100339 0.401725 0.13658917
0.8114227 0.25537372 0.8706965 0.78170514 0.5489642 0.56860167 0.24001205 0.75826645
0.903808 0.18699014 0.3481114 0.5202355 0.76157427 0.9358705 0.6677305 0.5130776
0.51324046 0.8648517 0.8589924 0.027339637 0.28527862 0.1457156 0.103598356 0.43009228
0.9157423 0.14776778 0.010864139 0.6620896 0.4170553 0.60665286 0.48017603 0.7063078
0.048606634 0.031066716 0.327152 0.53457016 0.5632337 0.54864943 0.62420243 0.6677128
0.86901647 0.7867993 0.72877574 0.31762564 0.6613671 0.34174865 0.14926797 0.35749388
0.72232884 0.5870654 0.07943207 0.22569644 0.36990064 0.05071509 0.4550066 0.5094298
0.88934684 0.05449176 0.44438237 0.9802213 0.3539179 0.3862465 0.93363696 0.7570511
0.26172042 0.32946813 0.20896512 0.18726397 0.2645507 0.66113776 0.29234833 0.38350224
0.7486728 0.26673335 0.8227787 0.4846161 0.23811871 0.4273739 0.9739087 0.15730357
0.5372945 0.8733546 0.08643466 0.6246251 0.8360639 0.65308636 0.5628089 0.296561
00000000: 7d22 753f e001 883d d494 433f 0d69 093f
00000010: 9ba7 693f 4449 073f 3487 cc3e 322c e03e
00000020: bc4f 073e 5142 693f f696 4d3f a892 173f
00000030: 02c0 f53e 4ad2 923e 6b4b 063f 6fe0 233f
00000040: a68e a33e f943 083f 8c8f 6a3f d054 0f3e
00000050: 6e4e aa3e 503e 633f 1c1d 753f d144 6a3f
00000060: 8895 bb3e 9c31 4e3f 5690 203f ca8c c53e
00000070: 9627 d93e 720c 5d3f 22cc 553f a62d 513f
00000080: 3207 a23e 0020 b738 b4d9 993e c463 353f
00000090: 8088 b43c 4f13 483f ccc7 863e ba99 563f
000000a0: 6080 103e 1069 9b3e 0046 e03c d462 243e
000000b0: 1cb9 c73e 065a c03e a710 003f f97d 3f3f
000000c0: 9a13 ab3e 3701 563f 6ee5 ca3e ec7b 883e
000000d0: 487c d93e fe55 363f 8cef 813e 4801 ce3d
000000e0: 9045 c13d 6273 e93e a8e3 353f b1fa 503f
000000f0: ebc3 073f 0e1f c13e 2059 ab3e e0ae 8a3c
00000100: 1c19 0e3e a841 a33e 881b d63e 0b90 2e3f
00000110: 6fec 5a3f ecc2 773e c0e9 383e c0fa 073c
00000120: b058 1d3f 52be 7e3f 796b 573f 99f5 773f
00000130: 6044 1d3f f44f 9d3e 4a95 663f 3d47 223f
00000140: f80d 4b3f c015 2f3e b42b a13e f006 563e
00000150: d8e9 ae3d 4c51 593f 7002 373e d07c 303e
00000160: 5efb ea3e a0e3 223e e0be 113f 9a12 9d3e
00000170: b86b 5e3f 296b 253f 71d0 0d3f 5406 2e3f
00000180: ce69 da3e 8059 483c 1814 713f 9e8a db3e
00000190: 9b20 043f 7843 8a3e 0e40 5b3f b485 cc3e
000001a0: aefa b23e a4f2 193f c2ee d03e 7c7b b73e
000001b0: 4f6a 173f 97a0 4b3f ecf4 243e 073a 6b3f
000001c0: 0ea0 453f 54de 503f 3c3c 113f e870 f93e
000001d0: ea0d df3e f81b f33e 18d1 043e 506d c53e
000001e0: eef1 1c3f d863 6a3e d4ac 593f 8711 473f
000001f0: 2065 9d3e 3a3c b63e a0c9 da3e 9e4c 073f
00000200: 2837 793f d5a1 373f 6ce0 543f a0cb ef3e
00000210: d6fd 023f d8ca b93d 07b5 063f e8c9 3d3f
00000220: e021 323e 21a1 223f 707a 5b3f b6e0 fe3e
00000230: 40cf 633e 4891 793f bb18 563f 008a b13b
00000240: 6c64 373e 8965 493f 6899 ba3d 686d e33e
00000250: 7c2f 7a3f 7c4c 503e d222 403f c875 4b3f
00000260: c80b 4e3f 4c42 3c3e 1e74 de3e e335 4b3f
00000270: def9 9f3e 1049 783f 6882 623e 1812 a13e
00000280: 6ff2 133f a0db 523e fe0c af3e bcdc 353f
00000290: 9884 9d3e 009a 9e3a e6ae cd3e 08de 0b3e
000002a0: 66b9 4f3f 58c0 823e f7e5 5e3f d41d 483f
000002b0: eb88 0c3f e18f 113f b8c5 753e c01d 423f
000002c0: f65f 673f 587a 3f3e a83b b23e 272e 053f
000002d0: 88f6 423f 3695 6f3f 63f0 2a3f 0e59 033f
000002e0: ba63 033f ec66 5d3f ede6 5b3f 60f7 df3c
000002f0: 0a10 923e 7836 153e 602b d43d 0e35 dc3e
00000300: 166e 6a3f 7050 173e 80ff 313c b47e 293f
00000310: 4688 d53e 9a4d 1b3f a2d9 f53e 97d0 343f
00000320: c017 473d a07f fe3c 7880 a73e 97d9 083f
00000330: 1530 103f 4a74 0c3f bbcb 1f3f 3aef 2a3f
00000340: dd77 5e3f ae6b 493f 0c91 3a3f d49f a23e
00000350: 5b4f 293f aef9 ae3e b4d9 183e 7009 b73e
00000360: 8bea 383f eb49 163f 48ad a23d f81c 673e
00000370: 9e63 bd3e a0ba 4f3d a0f6 e83e fe69 023f
00000380: 3cac 633f c032 5f3d 1686 e33e c8ef 7a3f
00000390: ba34 b53e 1ac2 c53e d502 6f3f 1ace 413f
000003a0: 3800 863e 0cb0 a83e f4fa 553e 20c2 3f3e
000003b0: 3073 873e 5340 293f aeae 953e 685a c43e
000003c0: 05a9 3f3f 4691 883e a0a1 523f 9a1f f83e
000003d0: 64d5 733e c0d0 da3e 1552 793f 3014 213e
000003e0: 228c 093f 2b94 5f3f a804 b13d 6ee7 1f3f
000003f0: 4908 563f ab30 273f 3e14 103f d8d6 973e

bn1.bias f4 [400]
0.0 0.0 0.0 0.0 0.0 0.0 0.0 0.0
0.0 0.0 0.0 0.0 0.0 0.0 0.0 0.0
0.0 0.0 0.0 0.0 0.0 0.0 0.0 0.0
0.0 0.0 0.0 0.0 0.0 0.0 0.0 0.0
0.0 0.0 0.0 0.0 0.0 0.0 0.0 0.0
0.0 0.0 0.0 0.0 0.0 0.0 0.0 0.0
0.0 0.0 0.0 0.0 0.0 0.0 0.0 0.0
0.0 0.0 0.0 0.0 0.0 0.0 0.0 0.0
0.0 0.0 0.0 0.0 0.0 0.0 0.0 0.0
0.0 0.0 0.0 0.0 0.0 0.0 0.0 0.0
0.0 0.0 0.0 0.0 0.0 0.0 0.0 0.0
0.0 0.0 0.0 0.0 0.0 0.0 0.0 0.0
0.0 0.0 0.0 0.0 0.0 0.0 0.0 0.0
0.0 0.0 0.0 0.0 0.0 0.0 0.0 0.0
0.0 0.0 0.0 0.0 0.0 0.0 0.0 0.0
0.0 0.0 0.0 0.0 0.0 0.0 0.0 0.0
0.0 0.0 0.0 0.0 0.0 0.0 0.0 0.0
0.0 0.0 0.0 0.0 0.0 0.0 0.0 0.0
0.0 0.0 0.0 0.0 0.0 0.0 0.0 0.0
0.0 0.0 0.0 0.0 0.0 0.0 0.0 0.0
0.0 0.0 0.0 0.0 0.0 0.0 0.0 0.0
0.0 0.0 0.0 0.0 0.0 0.0 0.0 0.0
0.0 0.0 0.0 0.0 0.0 0.0 0.0 0.0
0.0 0.0 0.0 0.0 0.0 0.0 0.0 0.0
0.0 0.0 0.0 0.0 0.0 0.0 0.0 0.0
0.0 0.0 0.0 0.0 0.0 0.0 0.0 0.0
0.0 0.0 0.0 0.0 0.0 0.0 0.0 0.0
0.0 0.0 0.0 0.0 0.0 0.0 0.0 0.0
0.0 0.0 0.0 0.0 0.0 0.0 0.0 0.0
0.0 0.0 0.0 0.0 0.0 0.0 0.0 0.0
0.0 0.0 0.0 0.0 0.0 0.0 0.0 0.0
0.0 0.0 0.0 0.0 0.0 0.0 0.0 0.0
00000000: 0000 0000 0000 0000 0000 0000 0000 0000
00000010: 0000 0000 0000 0000 0000 0000 0000 0000
00000020: 0000 0000 0000 0000 0000 0000 0000 0000
00000030: 0000 0000 0000 0000 0000 0000 0000 0000
00000040: 0000 0000 0000 0000 0000 0000 0000 0000
00000050: 0000 0000 0000 0000 0000 0000 0000 0000
00000060: 0000 0000 0000 0000 0000 0000 0000 0000
00000070: 0000 0000 0000 0000 0000 0000 0000 0000
00000080: 0000 0000 0000 0000 0000 0000 0000 0000
00000090: 0000 0000 0000 0000 0000 0000 0000 0000
000000a0: 0000 0000 0000 0000 0000 0000 0000 0000
000000b0: 0000 0000 0000 0000 0000 0000 0000 0000
000000c0: 0000 0000 0000 0000 0000 0000 0000 0000
000000d0: 0000 0000 0000 0000 0000 0000 0000 0000
000000e0: 0000 0000 0000 0000 0000 0000 0000 0000
000000f0: 0000 0000 0000 0000 0000 0000 0000 0000
00000100: 0000 0000 0000 0000 0000 0000 0000 0000
00000110: 0000 0000 0000 0000 0000 0000 0000 0000
00000120: 0000 0000 0000 0000 0000 0000 0000 0000
00000130: 0000 0000 0000 0000 0000 0000 0000 0000
00000140: 0000 0000 0000 0000 0000 0000 0000 0000
00000150: 0000 0000 0000 0000 0000 0000 0000 0000
00000160: 0000 0000 0000 0000 0000 0000 0000 0000
00000170: 0000 0000 0000 0000 0000 0000 0000 0000
00000180: 0000 0000 0000 0000 0000 0000 0000 0000
00000190: 0000 0000 0000 0000 0000 0000 0000 0000
000001a0: 0000 0000 0000 0000 0000 0000 0000 0000
000001b0: 0000 0000 0000 0000 0000 0000 0000 0000
000001c0: 0000 0000 0000 0000 0000 0000 0000 0000
000001d0: 0000 0000 0000 0000 0000 0000 0000 0000
000001e0: 0000 0000 0000 0000 0000 0000 0000 0000
000001f0: 0000 0000 0000 0000 0000 0000 0000 0000
00000200: 0000 0000 0000 0000 0000 0000 0000 0000
00000210: 0000 0000 0000 0000 0000 0000 0000 0000
00000220: 0000 0000 0000 0000 0000 0000 0000 0000
00000230: 0000 0000 0000 0000 0000 0000 0000 0000
00000240: 0000 0000 0000 0000 0000 0000 0000 0000
00000250: 0000 0000 0000 0000 0000 0000 0000 0000
00000260: 0000 0000 0000 0000 0000 0000 0000 0000
00000270: 0000 0000 0000 0000 0000 0000 0000 0000
00000280: 0000 0000 0000 0000 0000 0000 0000 0000
00000290: 0000 0000 0000 0000 0000 0000 0000 0000
000002a0: 0000 0000 0000 0000 0000 0000 0000 0000
000002b0: 0000 0000 0000 0000 0000 0000 0000 0000
000002c0: 0000 0000 0000 0000 0000 0000 0000 0000
000002d0: 0000 0000 0000 0000 0000 0000 0000 0000
000002e0: 0000 0000 0000 0000 0000 0000 0000 0000
000002f0: 0000 0000 0000 0000 0000 0000 0000 0000
00000300: 0000 0000 0000 0000 0000 0000 0000 0000
00000310: 0000 0000 0000 0000 0000 0000 0000 0000
00000320: 0000 0000 0000 0000 0000 0000 0000 0000
00000330: 0000 0000 0000 0000 0000 0000 0000 0000
00000340: 0000 0000 0000 0000 0000 0000 0000 0000
00000350: 0000 0000 0000 0000 0000 0000 0000 0000
00000360: 0000 0000 0000 0000 0000 0000 0000 0000
00000370: 0000 0000 0000 0000 0000 0000 0000 0000
00000380: 0000 0000 0000 0000 0000 0000 0000 0000
00000390: 0000 0000 0000 0000 0000 0000 0000 0000
000003a0: 0000 0000 0000 0000 0000 0000 0000 0000
000003b0: 0000 0000 0000 0000 0000 0000 0000 0000
000003c0: 0000 0000 0000 0000 0000 0000 0000 0000
000003d0: 0000 0000 0000 0000 0000 0000 0000 0000
000003e0: 0000 0000 0000 0000 0000 0000 0000 0000
000003f0: 0000 0000 0000 0000 0000 0000 0000 0000

bn1.running_mean f4 [400]
0.0 0.0 0.0 0.0 0.0 0.0 0.0 0.0
0.0 0.0 0.0 0.0 0.0 0.0 0.0 0.0
0.0 0.0 0.0 0.0 0.0 0.0 0.0 0.0
0.0 0.0 0.0 0.0 0.0 0.0 0.0 0.0
0.0 0.0 0.0 0.0 0.0 0.0 0.0 0.0
0.0 0.0 0.0 0.0 0.0 0.0 0.0 0.0
0.0 0.0 0.0 0.0 0.0 0.0 0.0 0.0
0.0 0.0 0.0 0.0 0.0 0.0 0.0 0.0
0.0 0.0 0.0 0.0 0.0 0.0 0.0 0.0
0.0 0.0 0.0 0.0 0.0 0.0 0.0 0.0
0.0 0.0 0.0 0.0 0.0 0.0 0.0 0.0
0.0 0.0 0.0 0.0 0.0 0.0 0.0 0.0
0.0 0.0 0.0 0.0 0.0 0.0 0.0 0.0
0.0 0.0 0.0 0.0 0.0 0.0 0.0 0.0
0.0 0.0 0.0 0.0 0.0 0.0 0.0 0.0
0.0 0.0 0.0 0.0 0.0 0.0 0.0 0.0
0.0 0.0 0.0 0.0 0.0 0.0 0.0 0.0
0.0 0.0 0.0 0.0 0.0 0.0 0.0 0.0
0.0 0.0 0.0 0.0 0.0 0.0 0.0 0.0
0.0 0.0 0.0 0.0 0.0 0.0 0.0 0.0
0.0 0.0 0.0 0.0 0.0 0.0 0.0 0.0
0.0 0.0 0.0 0.0 0.0 0.0 0.0 0.0
0.0 0.0 0.0 0.0 0.0 0.0 0.0 0.0
0.0 0.0 0.0 0.0 0.0 0.0 0.0 0.0
0.0 0.0 0.0 0.0 0.0 0.0 0.0 0.0
0.0 0.0 0.0 0.0 0.0 0.0 0.0 0.0
0.0 0.0 0.0 0.0 0.0 0.0 0.0 0.0
0.0 0.0 0.0 0.0 0.0 0.0 0.0 0.0
0.0 0.0 0.0 0.0 0.0 0.0 0.0 0.0
0.0 0.0 0.0 0.0 0.0 0.0 0.0 0.0
0.0 0.0 0.0 0.0 0.0 0.0 0.0 0.0
0.0 0.0 0.0 0.0 0.0 0.0 0.0 0.0
00000000: 0000 0000 0000 0000 0000 0000 0000 0000
00000010: 0000 0000 0000 0000 0000 0000 0000 0000
00000020: 0000 0000 0000 0000 0000 0000 0000 0000
00000030: 0000 0000 0000 0000 0000 0000 0000 0000
00000040: 0000 0000 0000 0000 0000 0000 0000 0000
00000050: 0000 0000 0000 0000 0000 0000 0000 0000
00000060: 0000 0000 0000 0000 0000 0000 0000 0000
00000070: 0000 0000 0000 0000 0000 0000 0000 0000
00000080: 0000 0000 0000 0000 0000 0000 0000 0000
00000090: 0000 0000 0000 0000 0000 0000 0000 0000
000000a0: 0000 0000 0000 0000 0000 0000 0000 0000
000000b0: 0000 0000 0000 0000 0000 0000 0000 0000
000000c0: 0000 0000 0000 0000 0000 0000 0000 0000
000000d0: 0000 0000 0000 0000 0000 0000 0000 0000
000000e0: 0000 0000 0000 0000 0000 0000 0000 0000
000000f0: 0000 0000 0000 0000 0000 0000 0000 0000
00000100: 0000 0000 0000 0000 0000 0000 0000 0000
00000110: 0000 0000 0000 0000 0000 0000 0000 0000
00000120: 0000 0000 0000 0000 0000 0000 0000 0000
00000130: 0000 0000 0000 0000 0000 0000 0000 0000
00000140: 0000 0000 0000 0000 0000 0000 0000 0000
00000150: 0000 0000 0000 0000 0000 0000 0000 0000
00000160: 0000 0000 0000 0000 0000 0000 0000 0000
00000170: 0000 0000 0000 0000 0000 0000 0000 0000
00000180: 0000 0000 0000 0000 0000 0000 0000 0000
00000190: 0000 0000 0000 0000 0000 0000 0000 0000
000001a0: 0000 0000 0000 0000 0000 0000 0000 0000
000001b0: 0000 0000 0000 0000 0000 0000 0000 0000
000001c0: 0000 0000 0000 0000 0000 0000 0000 0000
000001d0: 0000 0000 0000 0000 0000 0000 0000 0000
000001e0: 0000 0000 0000 0000 0000 0000 0000 0000
000001f0: 0000 0000 0000 0000 0000 0000 0000 0000
00000200: 0000 0000 0000 0000 0000 0000 0000 0000
00000210: 0000 0000 0000 0000 0000 0000 0000 0000
00000220: 0000 0000 0000 0000 0000 0000 0000 0000
00000230: 0000 0000 0000 0000 0000 0000 0000 0000
00000240: 0000 0000 0000 0000 0000 0000 0000 0000
00000250: 0000 0000 0000 0000 0000 0000 0000 0000
00000260: 0000 0000 0000 0000 0000 0000 0000 0000
00000270: 0000 0000 0000 0000 0000 0000 0000 0000
00000280: 0000 0000 0000 0000 0000 0000 0000 0000
00000290: 0000 0000 0000 0000 0000 0000 0000 0000
000002a0: 0000 0000 0000 0000 0000 0000 0000 0000
000002b0: 0000 0000 0000 0000 0000 0000 0000 0000
000002c0: 0000 0000 0000 0000 0000 0000 0000 0000
000002d0: 0000 0000 0000 0000 0000 0000 0000 0000
000002e0: 0000 0000 0000 0000 0000 0000 0000 0000
000002f0: 0000 0000 0000 0000 0000 0000 0000 0000
00000300: 0000 0000 0000 0000 0000 0000 0000 0000
00000310: 0000 0000 0000 0000 0000 0000 0000 0000
00000320: 0000 0000 0000 0000 0000 0000 0000 0000
00000330: 0000 0000 0000 0000 0000 0000 0000 0000
00000340: 0000 0000 0000 0000 0000 0000 0000 0000
00000350: 0000 0000 0000 0000 0000 0000 0000 0000
00000360: 0000 0000 0000 0000 0000 0000 0000 0000
00000370: 0000 0000 0000 0000 0000 0000 0000 0000
00000380: 0000 0000 0000 0000 0000 0000 0000 0000
00000390: 0000 0000 0000 0000 0000 0000 0000 0000
000003a0: 0000 0000 0000 0000 0000 0000 0000 0000
000003b0: 0000 0000 0000 0000 0000 0000 0000 0000
000003c0: 0000 0000 0000 0000 0000 0000 0000 0000
000003d0: 0000 0000 0000 0000 0000 0000 0000 0000
000003e0: 0000 0000 0000 0000 0000 0000 0000 0000
000003f0: 0000 0000 0000 0000 0000 0000 0000 0000

bn1.running_var f4 [400]
1.0 1.0 1.0 1.0 1.0 1.0 1.0 1.0
1.0 1.0 1.0 1.0 1.0 1.0 1.0 1.0
1.0 1.0 1.0 1.0 1.0 1.0 1.0 1.0
1.0 1.0 1.0 1.0 1.0 1.0 1.0 1.0
1.0 1.0 1.0 1.0 1.0 1.0 1.0 1.0
1.0 1.0 1.0 1.0 1.0 1.0 1.0 1.0
1.0 1.0 1.0 1.0 1.0 1.0 1.0 1.0
1.0 1.0 1.0 1.0 1.0 1.0 1.0 1.0
1.0 1.0 1.0 1.0 1.0 1.0 1.0 1.0
1.0 1.0 1.0 1.0 1.0 1.0 1.0 1.0
1.0 1.0 1.0 1.0 1.0 1.0 1.0 1.0
1.0 1.0 1.0 1.0 1.0 1.0 1.0 1.0
1.0 1.0 1.0 1.0 1.0 1.0 1.0 1.0
1.0 1.0 1.0 1.0 1.0 1.0 1.0 1.0
1.0 1.0 1.0 1.0 1.0 1.0 1.0 1.0
1.0 1.0 1.0 1.0 1.0 1.0 1.0 1.0
1.0 1.0 1.0 1.0 1.0 1.0 1.0 1.0
1.0 1.0 1.0 1.0 1.0 1.0 1.0 1.0
1.0 1.0 1.0 1.0 1.0 1.0 1.0 1.0
1.0 1.0 1.0 1.0 1.0 1.0 1.0 1.0
1.0 1.0 1.0 1.0 1.0 1.0 1.0 1.0
1.0 1.0 1.0 1.0 1.0 1.0 1.0 1.0
1.0 1.0 1.0 1.0 1.0 1.0 1.0 1.0
1.0 1.0 1.0 1.0 1.0 1.0 1.0 1.0
1.0 1.0 1.0 1.0 1.0 1.0 1.0 1.0
1.0 1.0 1.0 1.0 1.0 1.0 1.0 1.0
1.0 1.0 1.0 1.0 1.0 1.0 1.0 1.0
1.0 1.0 1.0 1.0 1.0 1.0 1.0 1.0
1.0 1.0 1.0 1.0 1.0 1.0 1.0 1.0
1.0 1.0 1.0 1.0 1.0 1.0 1.0 1.0
1.0 1.0 1.0 1.0 1.0 1.0 1.0 1.0
1.0 1.0 1.0 1.0 1.0 1.0 1.0 1.0
00000000: 0000 803f 0000 803f 0000 803f 0000 803f
00000010: 0000 803f 0000 803f 0000 803f 0000 803f
00000020: 0000 803f 0000 803f 0000 803f 0000 803f
00000030: 0000 803f 0000 803f 0000 803f 0000 803f
00000040: 0000 803f 0000 803f 0000 803f 0000 803f
00000050: 0000 803f 0000 803f 0000 803f 0000 803f
00000060: 0000 803f 0000 803f 0000 803f 0000 803f
00000070: 0000 803f 0000 803f 0000 803f 0000 803f
00000080: 0000 803f 0000 803f 0000 803f 0000 803f
00000090: 0000 803f 0000 803f 0000 803f 0000 803f
000000a0: 0000 803f 0000 803f 0000 803f 0000 803f
000000b0: 0000 803f 0000 803f 0000 803f 0000 803f
000000c0: 0000 803f 0000 803f 0000 803f 0000 803f
000000d0: 0000 803f 0000 803f 0000 803f 0000 803f
000000e0: 0000 803f 0000 803f 0000 803f 0000 803f
000000f0: 0000 803f 0000 803f 0000 803f 0000 803f
00000100: 0000 803f 0000 803f 0000 803f 0000 803f
00000110: 0000 803f 0000 803f 0000 803f 0000 803f
00000120: 0000 803f 0000 803f 0000 803f 0000 803f
00000130: 0000 803f 0000 803f 0000 803f 0000 803f
00000140: 0000 803f 0000 803f 0000 803f 0000 803f
00000150: 0000 803f 0000 803f 0000 803f 0000 803f
00000160: 0000 803f 0000 803f 0000 803f 0000 803f
00000170: 0000 803f 0000 803f 0000 803f 0000 803f
00000180: 0000 803f 0000 803f 0000 803f 0000 803f
00000190: 0000 803f 0000 803f 0000 803f 0000 803f
000001a0: 0000 803f 0000 803f 0000 803f 0000 803f
000001b0: 0000 803f 0000 803f 0000 803f 0000 803f
000001c0: 0000 803f 0000 803f 0000 803f 0000 803f
000001d0: 0000 803f 0000 803f 0000 803f 0000 803f
000001e0: 0000 803f 0000 803f 0000 803f 0000 803f
000001f0: 0000 803f 0000 803f 0000 803f 0000 803f
00000200: 0000 803f 0000 803f 0000 803f 0000 803f
00000210: 0000 803f 0000 803f 0000 803f 0000 803f
00000220: 0000 803f 0000 803f 0000 803f 0000 803f
00000230: 0000 803f 0000 803f 0000 803f 0000 803f
00000240: 0000 803f 0000 803f 0000 803f 0000 803f
00000250: 0000 803f 0000 803f 0000 803f 0000 803f
00000260: 0000 803f 0000 803f 0000 803f 0000 803f
00000270: 0000 803f 0000 803f 0000 803f 0000 803f
00000280: 0000 803f 0000 803f 0000 803f 0000 803f
00000290: 0000 803f 0000 803f 0000 803f 0000 803f
000002a0: 0000 803f 0000 803f 0000 803f 0000 803f
000002b0: 0000 803f 0000 803f 0000 803f 0000 803f
000002c0: 0000 803f 0000 803f 0000 803f 0000 803f
000002d0: 0000 803f 0000 803f 0000 803f 0000 803f
000002e0: 0000 803f 0000 803f 0000 803f 0000 803f
000002f0: 0000 803f 0000 803f 0000 803f 0000 803f
00000300: 0000 803f 0000 803f 0000 803f 0000 803f
00000310: 0000 803f 0000 803f 0000 803f 0000 803f
00000320: 0000 803f 0000 803f 0000 803f 0000 803f
00000330: 0000 803f 0000 803f 0000 803f 0000 803f
00000340: 0000 803f 0000 803f 0000 803f 0000 803f
00000350: 0000 803f 0000 803f 0000 803f 0000 803f
00000360: 0000 803f 0000 803f 0000 803f 0000 803f
00000370: 0000 803f 0000 803f 0000 803f 0000 803f
00000380: 0000 803f 0000 803f 0000 803f 0000 803f
00000390: 0000 803f 0000 803f 0000 803f 0000 803f
000003a0: 0000 803f 0000 803f 0000 803f 0000 803f
000003b0: 0000 803f 0000 803f 0000 803f 0000 803f
000003c0: 0000 803f 0000 803f 0000 803f 0000 803f
000003d0: 0000 803f 0000 803f 0000 803f 0000 803f
000003e0: 0000 803f 0000 803f 0000 803f 0000 803f
000003f0: 0000 803f 0000 803f 0000 803f 0000 803f

fc2.weight f4 [300, 402]
-0.022107001 -0.25210056 0.028431356 -0.07185507 -0.028687034 0.051936485 0.03472712 0.021592967
0.015573184 0.02340929 0.037767686 0.10484928 -0.0067833057 0.063792296 0.008045085 -0.021892361
0.014485974 0.084506005 0.052109916 0.030405408 -0.2680747 0.06979702 -0.030912297 0.010667232
0.0053246613 0.06880004 -0.051291488 0.021793287 -0.094137095 -0.002786864 0.05399685 -0.026943048
-0.117455654 0.021198478 0.006147884 -0.33324105 0.014725696 -0.11020254 -0.14625178 -0.04185679
0.012651858 -0.098474294 0.09158206 0.04125114 0.086832166 -0.024414599 0.05054469 -0.019254066
-0.066625014 0.0462051 0.11287075 -0.17987162 -0.15749945 -0.00015965103 0.056843854 -0.0048605483
0.030139184 -0.0692245 -0.046663348 0.056504738 0.04499119 -0.014916113 0.018842636 0.05388888
0.029811082 -0.20239538 -0.021778326 0.03964385 0.033554748 -0.04493732 0.14915244 -0.023844732
0.07389303 0.02651267 0.014042399 0.018161498 0.02415189 0.08421442 -0.046068955 -0.044295996
0.024903297 0.037489552 -0.047210675 -0.017528176 -0.13923399 0.049733415 0.047314107 0.053071484
-0.013031268 0.0045651514 -0.11954375 -0.016215533 -0.08751428 0.0071512833 0.031198418 0.074289136
-0.047511987 -0.46105325 -0.0008433378 -0.07508965 -0.003928013 -0.09633444 0.007978608 -0.037922934
-0.0021959872 -0.16632712 0.04938756 0.052488416 0.053203367 0.08702473 -0.037110385 -0.088728525
-0.033809535 -0.028072326 0.057729814 -0.1492848 -0.01909672 -0.01834289 0.087089635 0.005142484
0.07520577 -0.054802332 -0.021360122 0.04315115 -0.016718203 0.013048747 -0.011697708 -0.51984733
0.03545235 -0.064290226 0.06757867 -0.10071298 -0.007379281 0.05871534 0.04946376 0.06882932
-0.019679332 0.06500503 0.021757456 0.058303952 0.046498854 -0.013110949 -0.03098002 -0.09555876
0.012472513 -0.05127494 -0.051030662 -0.045584172 0.029317712 -0.02791878 -0.008259376 -0.043729648
-0.018968297 0.04519827 0.026149312 -0.503406 0.035774536 -0.10371289 -0.68647015 0.03824313
-0.061697923 0.04981859 0.033359908 -0.03613099 -0.09452543 0.021700365 -0.044552684 -0.05935156
-0.022922678 0.059081133 -0.39638638 0.06636399 -0.013307913 -0.033252582 0.0009793435 -0.027159926
-0.34378192 0.08027158 -0.016523324 0.072375044 -0.000577051 0.05519043 0.051649425 -0.084795274
-0.017111419 0.05962911 0.009972416 0.07270169 -0.0030137433 0.024134379 -0.020774681 -0.079406984
0.0021110047 0.021985486 -0.14627548 -0.009107033 0.0016527112 0.032725368 0.033947088 0.08056447
-0.03404998 -0.04561744 0.11460162 0.015955338 -0.026747024 0.10882883 -0.09378214 -0.073489964
0.0617654 0.07697122 -0.008403809 -0.06413158 -0.00013524288 -0.04129343 0.038529027 -0.03999148
-0.008961392 -0.046090998 0.07515909 0.109328456 -0.045512315 0.058218565 -0.033389486 0.0054805335
-0.022653269 0.0022860146 0.10519577 0.037843484 0.03276075 -0.034114763 -0.009481325 -0.079631284
-0.36631247 -0.097186975 -0.02836362 0.01949357 0.015695186 -0.1095387 -0.023911715 -0.062883355
-0.02932501 0.007922524 0.005341961 0.011756459 0.029218975 -0.6774936 -0.11236894 0.060489107
-0.2246009 -0.028930245 -0.047247212 0.017844105 -0.022634491 0.052118268 -0.06636054 0.050329782
00000000: be19 b5bc 5313 81be e0e8 e83c c028 93bd
00000010: 1201 ebbc 5abb 543d 063e 0e3d bce3 b03c
00000020: ab26 7f3c d7c4 bf3c 4ab2 1a3d 38bb d63d
00000030: 7e46 debb 89a5 823d 88cf 033c 9c57 b3bc
00000040: 9456 6d3c 7c11 ad3d 3571 553d c314 f93c
00000050: 1641 89be bdf1 8e3d c93b fdbc 9dc5 2e3c
00000060: 7f7a ae3b 09e7 8c3d 0617 52bd d687 b23c
00000070: f3ca c0bd d2a3 36bb cd2b 5d3d abb7 dcbc
00000080: 978c f0bd 6ea8 ad3c 3074 c93b 929e aabe
00000090: 0c44 713c dfb1 e1bd 07c3 15be 0772 2bbd
000000a0: bd49 4f3c e4ac c9bd 608f bb3d f5f6 283d
000000b0: 10d5 b13d 2001 c8bc f307 4f3d b4ba 9dbc
000000c0: b272 88bd 8f41 3d3d c828 e73d 4430 38be
000000d0: 8947 21be ff67 27b9 1ad5 683d 3c45 9fbb
000000e0: 73e6 f63c 93c5 8dbd 1122 3fbd 8371 673d
000000f0: af48 383d b662 74bc df5b 9a3c 96ba 5c3d
00000100: 5f36 f43c bc40 4fbe 7668 b2bc 9761 223d
00000110: b470 093d 3210 38bd 6bbb 183e 0756 c3bc
00000120: 3b55 973d 1931 d93c 1712 663c 6cc7 943c
00000130: 2fda c53c 9c78 ac3d cdb2 3cbd b86f 35bd
00000140: 0002 cc3c a58e 193d fb5f 41bd 4097 8fbc
00000150: 5b93 0ebe 44b5 4b3d 70cc 413d 7c61 593d
00000160: 1981 55bc 4497 953b 5bd3 f4bd 70d6 84bc
00000170: b03a b3bd 5055 ea3b d393 ff3c e724 983d
00000180: ee9b 42bd 2c0f ecbe 7113 5dba 9ac8 99bd
00000190: 90b6 80bb fe4a c5bd b5b8 023c 1455 1bbd
000001a0: 8dea 0fbb a851 2abe 9c4a 4a3d 18fe 563d
000001b0: c6eb 593d 063a b23d 0f01 18bd 4db7 b5bd
000001c0: de7b 0abd eff7 e5bc 1976 6c3d 1dde 18be
000001d0: b970 9cbc d443 96bc 0d5c b23d 4882 a83b
000001e0: 7c05 9a3d 6978 60bd 6cfb aebc 43bf 303d
000001f0: 9df4 88bc 69ca 553c bea7 3fbc b714 05bf
00000200: 7c36 113d 98aa 83bd b066 8a3d 9b42 cebd
00000210: e5cd f1bb 7f7f 703d 839a 4a3d 63f6 8c3d
00000220: 8d36 a1bc 5b21 853d b13c b23c 20d0 6e3d
00000230: 9575 3e3d 4ecf 56bc d0c9 fdbc 50b4 c3bd
00000240: 8359 4c3c ac05 52bd 8705 51bd 78b6 3abd
00000250: b32b f03c edb5 e4bc 5552 07bc dc1d 33bd
00000260: 6763 9bbc d221 393d 1537 d63c 37df 00bf
00000270: 5288 123d 6c67 d4bd 82bc 2fbf d4a4 1c3d
00000280: f6b6 7cbd 940e 4c3d 66a4 083d 17fe 13bd
00000290: 8c96 c1bd f7c4 b13c e07c 36bd 9f1a 73bd
000002a0: 57c8 bbbc 0fff 713d 28f3 cabe d8e9 873d
000002b0: 6f09 5abc dc33 08bd 515d 803a 7e7e debc
000002c0: 2f04 b0be 6d65 a43d ec5b 87bc 5e39 943d
000002d0: 3d45 17ba 5c0f 623d 598e 533d 25a9 adbd
000002e0: 3f2d 8cbc a73d 743d 5863 233c a0e4 943d
000002f0: 3982 45bb 76b5 c53c aa2f aabc 21a0 a2bd
00000300: c858 0a3b e81a b43c 3dc9 15be aa35 15bc
00000310: c99f d83a 090b 063d 1a0c 0b3d fcfe a43d
00000320: fe77 0bbd 5ad9 3abd 41b4 ea3d c5b4 823c
00000330: 931c dbbc a6e1 de3d da10 c0bd e881 96bd
00000340: b7fd 7c3d 16a3 9d3d 21b0 09bc 6b57 83bd
00000350: fccf 0db9 4d23 29bd 9dd0 1d3d 1bce 23bd
00000360: cdd2 12bc eac9 3cbd 02ed 993d 99e7 df3d
00000370: 1f6b 3abd 9776 6e3d 6ac3 08bd 0c96 b33b
00000380: 5993 b9bc f6d0 153b e170 d73d c501 1b3d
00000390: 2330 063d ecbb 0bbd 8f57 1bbc ba15 a3bd
000003a0: 4f8d bbbe f709 c7bd d35a e8bc fbb0 9f3c
000003b0: 3193 803c d355 e0bd 80e2 c3bc fdc8 80bd
000003c0: 013b f0bc 79cd 013c 9e0b af3b 2a9e 403c
000003d0: a25c ef3c 3870 2dbf b021 e6bd 6dc3 773d
000003e0: c7fd 65be 1fff ecbc 4b86 41bd cd2d 923c
000003f0: f86b b9bc f779 553d 09e8 87bd 9a26 4e3d

fc2.bias f4 [300]
-0.0077017285 0.008898693 0.030074852 0.007507949 -0.018859824 -0.030103663 -0.055457845 -0.044503335
-0.03974305 -0.0034588312 0.04104369 -0.02235467 -0.0060506733 -0.017105008 -0.026666772 0.047565352
-0.043063533 0.041080598 0.0026528065 -0.05479934 -0.060288336 -0.044659454 0.024383524 0.014703152
-0.018648507 0.010875761 0.021474928 0.0008175814 0.050088473 -0.0086789895 -0.02427581 0.017937828
0.043680552 0.0032969993 0.07996785 0.046285708 0.028685093 0.005914571 -0.017859042 -0.0022905008
0.015539936 0.0028146638 0.0371989 -0.00211722 0.048744325 -0.035041694 0.045336094 0.06340436
0.03439427 -0.046270136 0.008035711 -0.0019514795 0.055108067 0.012112566 0.0148501815 -0.0022121728
-0.026438545 -0.02167697 -0.030600043 0.07242059 -0.03296396 0.013552698 -0.048073936 0.006440742
-0.0011355825 -0.0077938954 0.017760307 0.031662118 -0.05814849 -0.042972177 0.06578861 -0.035157457
-0.051722582 0.031021977 -0.014561879 -0.011266578 0.036295224 0.045436718 0.053294163 -0.0187503
0.0065874374 -0.02222606 -0.020852681 0.059724703 0.00069022295 0.012157505 -0.049458973 -0.03315784
-0.0067906976 -0.020910803 0.006398743 -0.043486454 0.003385366 -0.05239048 -0.02869926 -0.03506047
0.07763058 0.011008381 -0.007916372 0.059821267 0.0068495953 0.040583413 0.0040891906 0.0055410923
-0.02010552 0.02416246 -0.0153557835 -0.036668096 0.012782855 0.033161175 -0.04717623 -0.0034890948
-0.018656101 0.01795903 0.022844236 -0.037303146 -0.048882715 0.04003061 0.037928045 0.0041231783
0.0033708657 -0.02780787 -0.027184498 0.013477234 -0.00024056413 -0.027826255 0.0072296024 -0.053532504
0.04142173 -0.013396199 -0.020288095 0.0021253906 -0.010624352 -0.033837724 0.013553987 0.11187555
-0.05432525 0.006423605 0.004515337 0.10415853 0.06436755 -0.028401252 0.033124942 0.00062602025
0.029833047 -0.017348174 -0.021347953 -0.009561943 -0.010317337 -0.00078932795 0.033823308 0.026846334
-0.014134431 -0.030660773 -0.03321807 0.019846387 0.009537517 -0.027659075 -0.031055033 -0.034820653
-0.044403724 0.03428978 -0.0024855963 0.101349525 -0.00015226135 0.015989486 0.017452694 0.047110893
0.013305392 0.00441747 0.017832765 -0.0022284521 0.061664984 -0.042253625 -0.06269985 0.08381674
0.026246432 -0.03473991 0.026962604 0.029466737 -0.044492587 0.021308383 0.00122505 0.012638841
0.016239144 0.057272647 0.00922867 -0.051338803 -0.03088221 0.034776077 0.060796622 -0.018988416
0.017847102 -0.0019532002 -0.012189498 -0.03942827 0.014298563 0.033632543 -0.0041896165 -0.013869694
0.05629482 0.06979724 -0.055828236 0.0048568766 0.01911359 -0.020134252 0.016743239 0.02886849
0.026549915 0.027525151 -0.021587282 0.04449591 -0.0290766 -0.082939945 -0.04237908 -0.032221656
0.029068954 0.02528612 -0.014943143 -0.05941703 0.0874311 -0.0013310057 0.030892396 0.015987374
0.050177384 -0.05137776 0.057073496 0.048885 -0.022775557 -0.035403665 0.0017509483 0.0016175115
0.003773254 -0.044251747 0.0070740953 0.09657049 0.026473157 0.024524886 0.05594591 -0.03415076
0.029204013 0.00773895 0.04225849 -0.011109635 0.0011070843 -0.047063507 -0.03254117 -0.02949704
-0.019003073 0.03836575 0.03723904 -0.07541451 0.04285297 -0.05347025 0.024132082 0.044316098
00000000: c85e fcbb d3cb 113c 895f f63c 3e05 f63b
00000010: eb7f 9abc f59b f6bc c427 63bd 2149 36bd
00000020: 9cc9 22bd 8fad 62bb 6e1d 283d 2421 b7bc
00000030: ba44 c6bb cd1f 8cbc 4674 dabc e3d3 423d
00000040: 6363 30bd 2144 283d b5da 2d3b 4675 60bd
00000050: e7f0 76bd d5ec 36bd f5bf c73c 7de5 703c
00000060: c1c4 98bc 3f30 323c 30ec af3c f552 563a
00000070: 9229 4d3d 5232 0ebc 10de c6bc 5af2 923c
00000080: 61ea 323d 7812 583b 2fc6 a33d 1596 3d3d
00000090: 00fd ea3c 05cf c13b 204d 92bc 3a1c 16bb
000000a0: 379b 7e3c 3976 383b e05d 183d 0fc1 0abb
000000b0: 21a8 473d e187 0fbd 57b2 393d 25da 813d
000000c0: 02e1 0c3d c185 3dbd 37a8 033c c9c8 ffba
000000d0: ffb8 613d c973 463c 2d4e 733c 1afa 10bb
000000e0: a695 d8bc e793 b1bc f1ac fabc 3f51 943d
000000f0: 3805 07bd 230c 5e3c 2de9 44bd dc0c d33b
00000100: d3d7 94ba ef63 ffbb 107e 913c 23b0 013d
00000110: 1c2d 6ebd 9803 30bd 2ebc 863d 4401 10bd
00000120: 0fdb 53bd cd21 fe3c f394 6ebc 7497 38bc
00000130: 4daa 143d da1b 3a3d fb4a 5a3d 3b9a 99bc
00000140: 6edb d73b 6d13 b6bc 3ed3 aabc e4a1 743d
00000150: 14f0 343a 4630 473c 7e95 4abd 84d0 07bd
00000160: 8084 debb 224d abbc 8cac d13b da1e 32bd
00000170: 04dd 5d3b 6697 56bd b61a ebbc 919b 0fbd
00000180: c8fc 9e3d 7f5c 343c acb3 01bc 2507 753d
00000190: 9272 e03b cb3a 263d 9efe 853b 0d92 b53b
000001a0: 55b4 a4bc 5af0 c53c d396 7bbc 4931 16bd
000001b0: 2e6f 513c 03d4 073d dd3b 41bd 4ca9 64bb
000001c0: aed4 98bc d11e 933c d623 bb3c 2fcb 18bd
000001d0: 3e39 48bd 23f7 233d 705a 1b3d ba1b 873b
000001e0: bee9 5c3b 55cd e3bc 06b2 debc 9ecf 5c3c
000001f0: f13f 7cb9 e3f3 e3bc 4de6 ec3b e644 5bbd
00000200: d5a9 293d bb7b 5bbc 3833 a6bc 234a 0b3b
00000210: c311 2ebc 6d99 0abd 8b11 5e3c 021f e53d
00000220: 2784 5ebd 1b7d d23b 64f5 933b 1151 d53d
00000230: 22d3 833d bea9 e8bc 05ae 073d 821b 243a
00000240: 6f64 f43c c21d 8ebc e7e1 aebc b2a9 1cbc
00000250: 0c0a 29bc e7ea 4eba 4f8a 0a3d d8ec db3c
00000260: 1a94 67bc 4d2c fbbc ac0f 08bd e494 a23c
00000270: 3f43 1c3c 4995 e2bc 2067 febc 1aa0 0ebd
00000280: aee0 35bd 7173 0c3d 63e5 22bb 5790 cf3d
00000290: 58a8 1fb9 62fc 823c f4f8 8e3c 5af7 403d
000002a0: dcfe 593c 6dc0 903b 0516 923c 390b 12bb
000002b0: 6c94 7c3d 2312 2dbd c768 80bd 1ca8 ab3d
000002c0: c202 d73c 704b 0ebd aee0 dc3c 3a64 f13c
000002d0: dc3d 36bd eb8e ae3c db91 a03a 2413 4f3c
000002e0: f407 853c b996 6a3d d933 173c a348 52bd
000002f0: b0fc fcbc 5c71 0e3d e105 793d 988d 9bbc
00000300: 1634 923c 4301 00bb 76b6 47bc 8a7f 21bd
00000310: 8544 6a3c 47c2 093d 0d49 89bb b73d 63bc
00000320: 6695 663d dbf1 8e3d 26ac 64bd 6f26 9f3b
00000330: 1a94 9c3c 96f0 a4bc 1e29 893c 9d7d ec3c
00000340: 357f d93c 6d7c e13c d0d7 b0bc 5841 363d
00000350: 0d32 eebc 6bdc a9bd b095 2dbd dbfa 03bd
00000360: 0422 ee3c d624 cf3c 16d4 74bc 465f 73bd
00000370: 140f b33d 2475 aeba 0d12 fd3c f4f7 823c
00000380: cd86 4d3d 7c71 52bd e6c5 693d a33b 483d
00000390: ce93 babc 6f03 11bd 1380 e53a ae02 d43a
000003a0: b348 773b 5241 35bd d0cd e73b c0c6 c53d
000003b0: 3cde d83c 6ae8 c83c 8a27 653d abe1 0bbd
000003c0: 413d ef3c 0597 fd3b 3d17 2d3d 3005 36bc
000003d0: 961b 913a aac5 40bd e449 05bd c7a3 f1bc
000003e0: 55ac 9bbc 6825 1d3d f787 183d ec72 9abd
000003f0: 9986 2f3d 9f03 5bbd a5b0 c53c cc84 353d
