min_as_settings/checkpoint_actorA_min_pre.pth (torch_old, 538202 bytes, 18 tensors)

bn0.weight f4 [24]
000000 a8 5c 1d 3f 1e 14 c3 3e ea 19 23 3f 8f ec f2 3e
       0.6146951 0.38101286 0.63711417 0.47446105
000010 16 ae 36 3f 2b 79 1e 3f a3 93 e2 3e 58 22 c4 3d
       0.71359384 0.6190364 0.44253263 0.09576863
000020 68 39 1d 3f 6d d0 6a 3d a2 d2 10 3f b1 81 08 3f
       0.6141572 0.057327677 0.565714 0.53322893
000030 bb b4 c7 3e 4b aa 68 3f d5 8a 08 3f 2e 14 35 3f
       0.39005074 0.90884846 0.5333684 0.70733917
000040 3e 2b 36 3f 7b f4 51 3e b4 95 9d 3e 91 19 7b 3f
       0.7115973 0.20503418 0.30778277 0.98085886
000050 fe 1e 28 3c e8 9c ee 3e 4a b6 eb 3e a7 ca 5a 3f
       0.010261295 0.46604085 0.46037513 0.8546547

bn0.bias f4 [24]
000000 00 00 00 00 00 00 00 00 00 00 00 00 00 00 00 00
       0.0 0.0 0.0 0.0
000010 00 00 00 00 00 00 00 00 00 00 00 00 00 00 00 00
       0.0 0.0 0.0 0.0
000020 00 00 00 00 00 00 00 00 00 00 00 00 00 00 00 00
       0.0 0.0 0.0 0.0
000030 00 00 00 00 00 00 00 00 00 00 00 00 00 00 00 00
       0.0 0.0 0.0 0.0
000040 00 00 00 00 00 00 00 00 00 00 00 00 00 00 00 00
       0.0 0.0 0.0 0.0
000050 00 00 00 00 00 00 00 00 00 00 00 00 00 00 00 00
       0.0 0.0 0.0 0.0

bn0.running_mean f4 [24]
000000 00 00 00 00 00 00 00 00 00 00 00 00 00 00 00 00
       0.0 0.0 0.0 0.0
000010 00 00 00 00 00 00 00 00 00 00 00 00 00 00 00 00
       0.0 0.0 0.0 0.0
000020 00 00 00 00 00 00 00 00 00 00 00 00 00 00 00 00
       0.0 0.0 0.0 0.0
000030 00 00 00 00 00 00 00 00 00 00 00 00 00 00 00 00
       0.0 0.0 0.0 0.0
000040 00 00 00 00 00 00 00 00 00 00 00 00 00 00 00 00
       0.0 0.0 0.0 0.0
000050 00 00 00 00 00 00 00 00 00 00 00 00 00 00 00 00
       0.0 0.0 0.0 0.0

bn0.running_var f4 [24]
000000 00 00 80 3f 00 00 80 3f 00 00 80 3f 00 00 80 3f
       1.0 1.0 1.0 1.0
000010 00 00 80 3f 00 00 80 3f 00 00 80 3f 00 00 80 3f
       1.0 1.0 1.0 1.0
000020 00 00 80 3f 00 00 80 3f 00 00 80 3f 00 00 80 3f
       1.0 1.0 1.0 1.0
000030 00 00 80 3f 00 00 80 3f 00 00 80 3f 00 00 80 3f
       1.0 1.0 1.0 1.0
000040 00 00 80 3f 00 00 80 3f 00 00 80 3f 00 00 80 3f
       1.0 1.0 1.0 1.0
000050 00 00 80 3f 00 00 80 3f 00 00 80 3f 00 00 80 3f
       1.0 1.0 1.0 1.0

fc1.weight f4 [400, 24]
000000 a6 4f aa bd cd d4 a3 bc 97 45 d7 3c 41 c9 cc bd
       -0.08315973 -0.019998932 0.0262783 -0.09999324
000010 15 52 ac 3d a3 26 9d bc 21 fb 1b bc 1e 6e 0a be
       0.084140934 -0.019183462 -0.009520323 -0.13518569
000020 3c 3f 35 bd 65 30 2e 3b 86 ed 89 3c 93 f6 9c bd
       -0.044249758 0.0026579138 0.016836893 -0.07664218
000030 25 12 b0 3c 9c 81 81 bd 14 ce e4 3c aa b2 61 bd
       0.021493027 -0.06323549 0.027930297 -0.055102028
000040 b7 5a 48 3c 1c d4 04 bd 17 a0 9d 3c 2b f4 87 3c
       0.012228659 -0.032428846 0.019241376 0.01659592
000050 99 40 80 bd 7d fa 48 be dc 84 88 3b 87 8c 54 3d
       -0.06262321 -0.19626804 0.0041662287 0.05189183
000060 72 e8 df bb b9 cd bb 3c b7 d1 d0 bc 4e c3 8e 3d
       -0.0068331296 0.022925245 -0.025490625 0.06970845
000070 c8 19 1b 3d b3 e7 bf bd a1 a3 ff 3c a0 2a 8f 3d
       0.037866384 -0.09370365 0.031205954 0.06990552
000080 5d 58 02 3d 7c 1a fd 3c e7 2a 79 bc bc 97 ba 3d
       0.03182255 0.030896418 -0.015207983 0.09110972
000090 8b 55 fa bb 11 88 32 bc 01 47 ae 3c da d2 08 3d
       -0.007639592 -0.010896699 0.021274092 0.03340421
0000a0 28 63 8c 3d 11 4f e5 3d 91 60 02 3d 2a f0 af bc
       0.0685485 0.11196721 0.031830374 -0.021476824
0000b0 a8 b6 f3 bd d2 67 73 3d 4b 00 14 3d 3f bf 1b bd
       -0.11900073 0.059425183 0.036133092 -0.038024183
0000c0 84 9b 6d bd 82 95 13 bd fa 76 d4 3c da 2a 55 bc
       -0.05800964 -0.036031254 0.025935639 -0.013010705
0000d0 88 f8 52 3e 88 de 0f bd c7 e6 e5 bc 4c af c9 bc
       0.2060262 -0.03512433 -0.028064145 -0.02461972
0000e0 f4 d2 1a bc 74 7c 9d bd 6a c5 a2 bb a7 e8 d0 bb
       -0.009449709 -0.07689753 -0.0049673812 -0.0063753906
0000f0 e9 d6 d0 3c 10 54 13 bb c7 6b 42 bc 58 26 8c 3c
       0.025493102 -0.0022480525 -0.011866516 0.017108127
000100 0e 4f 96 b9 6a 84 2b bc 59 ab 9e bc 80 40 db 3d
       -0.0002866913 -0.010468582 -0.019368814 0.10705662
000110 4d 65 52 bd 68 be 2d bd 9d 5a f9 3b 5b 51 87 3d
       -0.05136614 -0.042417914 0.007609679 0.06607314
000120 2e 63 83 bd a5 7a 20 bd 5b cb 9c 3c ca df c9 bd
       -0.064154014 -0.039179463 0.019139936 -0.098571375
000130 ec 5c c4 3d 60 4b a1 3d 51 c8 c3 bc 00 a9 88 bd
       0.09588036 0.07875705 -0.02389923 -0.06672859
000140 85 be 0b 3d b2 8a 8c bb 43 ea 49 bc 00 92 92 bc
       0.03411724 -0.0042889947 -0.012323919 -0.017891884
000150 b0 45 da 3b 9e 5e 38 bc 64 44 49 3c 99 56 95 bc
       0.0066611394 -0.011253027 0.012284372 -0.01822977
000160 30 9e c4 bb a3 e2 35 3d db da 61 3c eb 09 8b 3d
       -0.0060003027 0.04440559 0.013785089 0.06789001
000170 87 1c e0 bd 0a ad b6 3d 70 96 9c bc d7 4f fa 3d
       -0.10942941 0.08919723 -0.019114703 0.122222595
000180 6a fa ee 3d 55 00 97 3d 93 48 a9 bb b9 33 2b 3c
       0.116688564 0.0737311 -0.005166122 0.010449343
000190 f2 fb 98 3d e0 ed 08 be 5e 3c f7 3c 2d 7c a6 3a
       0.0746993 -0.13371992 0.030180153 0.0012701802
0001a0 13 6e 7d 3d 63 04 6c bd 54 18 d7 38 9c d2 46 3c
       0.061872553 -0.05762137 0.000102565304 0.012135174
0001b0 a8 f6 05 3d 33 4d 7f 3d 84 f2 80 3c 77 76 99 bd
       0.032705933 0.062329482 0.01574064 -0.074932985
0001c0 76 4e 8c 3c 74 e5 25 3d 3f 32 23 bd 4a f8 1b be
       0.017127257 0.040502027 -0.03984284 -0.15231434
0001d0 c7 bd b4 3d 87 ee 67 3d df b0 36 bd 4c c9 11 be
       0.0882526 0.05662396 -0.04460227 -0.14236945
0001e0 97 b0 e1 3d db 24 83 3d 3c 08 1d 3b f2 6f eb 3d
       0.1102001 0.06403514 0.0023961207 0.11495961
0001f0 6f 7f 2a be 67 e2 a7 bd 4e 0a cd 39 30 49 de 3d
       -0.16650175 -0.0819748 0.00039108325 0.10853803
000200 18 26 88 3d a7 58 f6 3b aa 86 22 bc f0 3a 95 bc
       0.06647891 0.0075178924 -0.009919802 -0.01821658
000210 a1 80 a9 bd 1d 52 40 3d 2f 87 b5 3b 82 5f 43 3d
       -0.08276487 0.04695331 0.005539797 0.047698505
000220 a4 2c a6 3c 9f fb ee bc 74 af 98 3a c7 9e 06 be
       0.020284958 -0.029172717 0.0011648969 -0.13146506
000230 07 8a f2 3b c6 95 1d 3d 8e 71 49 3c 32 8d 3d be
       0.007401708 0.038472913 0.01229514 -0.18510893
000240 f9 80 79 3d 76 c5 5e bd 3f bf ab 3b dc 7a c1 3d
       0.060914014 -0.054387532 0.005241304 0.09447262
000250 e1 21 f5 3d ce 0d 35 bc 53 ed 6b bc 4d b7 15 3e
       0.119693525 -0.011050655 -0.014399844 0.14620705
000260 78 7f 65 3d bc b1 22 3c 1b 4b 38 3d 8c 33 9e 3c
       0.056029767 0.0099300705 0.0449935 0.019311689
000270 2f 8b ca bc fd 5f ce bd 19 05 35 3d c1 e3 92 3d
       -0.024724571 -0.10076902 0.044194315 0.07172347
000280 72 bc 90 3d 3f af 45 bd ed b5 a7 3c 86 48 48 bd
       0.07067193 -0.04826283 0.020472491 -0.04889729
000290 20 76 07 be 0b 57 06 be 79 b4 d0 bc 17 b3 9e ba
       -0.13228655 -0.13119142 -0.025476681 -0.0012107816
0002a0 e0 49 e1 ba a1 a9 27 3e 36 b9 62 bb 9a 66 b5 bd
       -0.0017188154 0.16373302 -0.0034595258 -0.0885746
0002b0 4d f3 10 3d 36 61 c1 3d 53 e9 0e bc 61 76 8c bd
       0.03538828 0.0944237 -0.008722621 -0.068585165
0002c0 84 5c 3a bb 1c 4c 46 3e dd fd 56 3d cf 0c db bd
       -0.0028436491 0.19364971 0.052488197 -0.106958024
0002d0 19 69 66 3d 1d 90 58 3d 63 d6 c0 bc 87 ed c4 bd
       0.056252573 0.052871812 -0.023539728 -0.09615617
0002e0 06 75 99 3c b4 32 09 3e 96 87 a0 b7 8b df 1f 39
       0.018732559 0.13398248 -1.9136623e-05 0.00015246698
0002f0 f7 e4 82 3c 79 5b 53 bc 5e 49 29 b9 48 af 19 3d
       0.01597832 -0.012900227 -0.00016144427 0.037520677
000300 08 a6 39 bd cf 09 24 3e de b8 82 ba bc 64 57 bd
       -0.045324355 0.16019367 -0.0009973308 -0.052586302
000310 09 8b 07 3d 9d a3 e5 3d 02 b8 13 bb 27 21 e6 bd
       0.03309158 0.112128474 -0.0022540097 -0.11236792
000320 ad 46 dc 3a 6c 6b 27 3e f2 82 f5 ba 4f 7c a6 bc
       0.0016805731 0.16349572 -0.0018731041 -0.020322947
000330 82 ed 77 3d 18 fd dd 3d d2 3c 89 bb c4 b0 5c bc
       0.06052924 0.108392894 -0.0041881585 -0.013469879
000340 52 21 e0 3c 0a c0 20 3e 18 52 6c 3b 08 e6 a1 3c
       0.027359638 0.15698257 0.0036059674 0.019763008
000350 b8 f2 d1 3c 5a 23 a6 3d d5 de 7c bb 1b cf 23 3d
       0.025628433 0.081122115 -0.0038584967 0.039992433
000360 11 4f 84 3c df 5d 19 be cd 06 06 bd 93 05 b2 bc
       0.016150983 -0.14977215 -0.03272133 -0.021731174
000370 c2 42 ce bc f2 36 ae bd d6 77 00 3d 7f 85 00 3c
       -0.025178317 -0.08506574 0.031364284 0.007844328
000380 fd 22 06 bd cc 40 0c be 58 a5 14 bd c8 f1 83 bb
       -0.03274821 -0.13696593 -0.036290497 -0.0040266253
000390 14 10 97 bd fe 20 ac 3c fa c0 53 3d 29 51 ec 3b
       -0.073761135 0.021011826 0.05169771 0.0072118235
0003a0 3b 1d 18 3c 9b fe c5 bd 81 64 02 3d 60 ef 57 3d
       0.009284313 -0.09667703 0.03183413 0.05271852
0003b0 16 26 42 3b 4e d4 e9 3d b6 e1 c6 bc 59 ce b4 3b
       0.0029624752 0.11417447 -0.02427755 0.0055177626
0003c0 a4 6e 81 bd f2 91 a1 3d 18 67 76 bb 59 24 29 bd
       -0.06319931 0.07889165 -0.003759807 -0.04129443
0003d0 a7 9d 96 bd f4 ab 14 3e c5 b9 44 3c 37 77 39 bd
       -0.073542885 0.1451872 0.0120071815 -0.045279708
0003e0 b1 09 3c bb 96 11 58 3d dc a1 17 3c ab cd 93 bc
       -0.00286923 0.052751146 0.009254899 -0.018042406
0003f0 5b 33 06 3c b3 21 99 3c 52 88 09 3c ae 7a 63 3d
       0.008190955 0.018692827 0.008394318 0.05553692

fc1.bias f4 [400]
000000 56 5b ad 3c 5a 05 0b be 27 fe d0 bd a6 8e 48 be
       0.021161716 -0.1357626 -0.10204726 -0.19585666
000010 4b 74 f5 bd 3f 06 a2 3d ce 0b 46 be 42 2f c1 3d
       -0.11985072 0.079113476 -0.1934044 0.09432842
000020 2f 78 aa bd 00 65 2a 3e f4 07 37 be 64 aa 3c be
       -0.083237045 0.16640091 -0.17874128 -0.18424374
000030 0d a1 ef 3d 65 d5 4b be d0 c3 84 3d 2b bb d4 bd
       0.1170064 -0.19905622 0.06482661 -0.10387262
000040 a0 fe f6 3d d7 85 53 be d6 0c 6c 3e 59 02 3b 3e
       0.120602846 -0.20656525 0.23051772 0.18262614
000050 a4 d1 6e 3b d2 74 c1 bd 91 0e c2 3c 36 07 9c bd
       0.0036440874 -0.0944611 0.023688586 -0.07618563
000060 98 de 2e bc 35 80 4f 3e 7a 18 39 3e 5c 90 d1 3d
       -0.010673188 0.20263751 0.18075743 0.102326125
000070 04 8f b4 bd a2 9b 38 bd 9d 83 2c 3e 02 63 a4 bc
       -0.088163406 -0.045070298 0.16847081 -0.020066742
000080 38 72 22 be 4f f8 4b be 5b c3 f8 3c de 80 9a bd
       -0.15863883 -0.19918941 0.03036659 -0.07544111
000090 cb 6d a6 3d 7a d9 a6 be 84 38 d3 bd 1c 5a 37 3d
       0.0812641 -0.32587796 -0.10313514 0.04476367
0000a0 6a c4 e0 bc 46 a2 60 bc 82 95 1f 3e f5 44 2c 3d
       -0.027437408 -0.013710564 0.15584376 0.04205795
0000b0 35 02 40 be d6 07 63 3e 53 4f 7f 3d 8c ff 10 3e
       -0.18750842 0.22170958 0.06233151 0.14159983
0000c0 e5 94 ce 3a b7 f5 10 3e 74 2c cf bd c9 ce ee bd
       0.0015760927 0.14156233 -0.10115901 -0.11660535
0000d0 f2 34 0f be 8d ea 1d 3e 02 55 30 3c 88 31 9e 3e
       -0.13985041 0.15421505 0.010762455 0.30897164
0000e0 93 1a 05 3e 2a 62 4a be 68 3c 92 3d bf ac 5e 3d
       0.12998419 -0.19764009 0.07140428 0.054363962
0000f0 63 66 5b be 5f 66 d3 3d 97 7d da 3d 07 a4 82 be
       -0.21425776 0.1032226 0.106684856 -0.25515768
000100 81 eb 81 be d0 4c dd 3d a3 40 38 bd 92 b4 5c 3e
       -0.25374988 0.108056664 -0.044983517 0.21553257
000110 db 44 9b 3d 06 ea fc 3d 9e 26 45 3c 5a c2 f0 3c
       0.075814925 0.12349324 0.012033133 0.029389549
000120 c4 43 7b 3d 5e 84 a4 3d 2a ad 35 3e 9d d4 89 be
       0.061343923 0.080330595 0.17741838 -0.26920024
000130 80 b5 cd bd bc 3e 8d 3d f8 78 ad 3d 86 ed 68 bd
       -0.10044384 0.06896731 0.084703386 -0.056867145
000140 75 0b 21 3e 7c 70 8c bb 81 fd 6b 3d 1f 00 8b 3e
       0.15727027 -0.00428587 0.057614807 0.2714853
000150 56 fe 09 be 22 40 69 3e 3e ca 06 3e be fa 45 be
       -0.13475928 0.22778371 0.13163087 -0.19333932
000160 d2 18 26 bd 9c 9e e8 bd 92 dd 0f be 17 93 97 be
       -0.040551014 -0.11358377 -0.14049366 -0.29604408
000170 fd f2 6b 3d 22 54 77 bd 1a 9b 98 be d4 96 18 be
       0.05760478 -0.06038297 -0.29805833 -0.14901286
000180 9c 70 77 3d 9b ac 71 bd 9e 48 5c be eb b0 a4 be
       0.060410127 -0.0590025 -0.21512076 -0.32166228
000190 28 41 6f bd 74 bc 14 be 7e 00 0f 3e 57 27 bd 3d
       -0.058411747 -0.14525014 0.13965032 0.09236019
0001a0 93 fe 91 bd c6 48 c2 bd 05 c9 03 3e f6 50 93 bd
       -0.07128634 -0.09486537 0.12869652 -0.071931764
0001b0 bf 61 dc bd 39 9d 84 3d e4 f4 e3 3d ce 47 f5 bc
       -0.10760831 0.064753 0.111306936 -0.029941466
0001c0 67 95 bb 3d c9 0e 04 be 0a b5 3e 3d b7 da 32 be
       0.091593556 -0.12896265 0.04655937 -0.17466246
0001d0 4e 9a bd bc 7f 7c 0b be 21 92 8a bd d2 f5 5a be
       -0.023144867 -0.1362171 -0.06766153 -0.21382836
0001e0 ee 72 9b bd 94 e4 69 3e 72 46 44 be 0d ea 58 bc
       -0.075902805 0.22841102 -0.19167498 -0.013239396
0001f0 ac 91 07 3e 4d 9b fc bd 24 3b be 3d 05 cc e1 3d
       0.13239163 -0.12334309 0.09288624 0.11025242
000200 12 28 9b bd 10 5b 81 be d1 ee 6f be d3 f9 87 bd
       -0.07576002 -0.25264788 -0.23430945 -0.06639447
000210 54 0b 2e 3e 1c 00 ee bc 66 06 04 3e cf 87 06 be
       0.16996509 -0.029052787 0.12893066 -0.13137744
000220 d8 ca 1f 3d a5 f1 86 bd 11 0a 77 be 36 7d c4 3c
       0.039011806 -0.06589059 -0.24124934 0.023985486
000230 2c 9c 18 3d 51 36 29 3d ca 58 aa bd 13 e6 3e be
       0.037258312 0.041311566 -0.083177164 -0.18642454
000240 3e 76 78 bd 76 c4 97 bc d2 06 c2 bd 63 c0 ad 3d
       -0.06065964 -0.018526297 -0.09473957 0.084839605
000250 d9 3e 69 3e 47 d3 3a be 22 f3 96 be 8e cf 43 bd
       0.2277788 -0.18244658 -0.2948237 -0.04780536
000260 9a 15 c9 3d 1a 68 18 bd 0d a2 02 be 1a 31 65 be
       0.09818573 -0.037208654 -0.1275713 -0.22382012
000270 18 03 4a bd 60 9a 6f be b1 ee 9a be eb 2d 6a be
       -0.049319357 -0.23398733 -0.30260232 -0.22869079
000280 3a d2 9e 3d c4 5c 80 3d 5a 77 2c be 43 77 47 be
       0.07754941 0.06267694 -0.16842404 -0.19479088
000290 ac 39 22 be 0c 61 34 bd a2 87 af 3d fd 96 48 bd
       -0.15842313 -0.044037864 0.08570792 -0.04897212
0002a0 92 e7 d7 3d a0 e5 c5 bc 72 9a 73 be 96 a3 52 3d
       0.105422154 -0.024157345 -0.23789385 0.05142554
0002b0 f6 40 0e be e2 86 25 be 0b dc 2f be db d6 55 bb
       -0.13891968 -0.16164735 -0.17173783 -0.0032629285
0002c0 72 8f 7e bc 1c 71 d2 3b 7b 58 40 3e 80 03 3e 3e
       -0.01553713 0.006422175 0.18783753 0.18556023
0002d0 a2 89 40 3d 34 60 4d be 0f 88 71 3d b6 fd c9 bd
       0.047006257 -0.2005623 0.058967646 -0.09862845
0002e0 6f cb b9 3e c7 4b 0b 3e b1 d6 f2 3d ba 3d 21 be
       0.3628802 0.13603126 0.118573554 -0.15746203
0002f0 3f 1c c3 3d 08 cd 1e 3e 26 e1 df bd e3 1a ae 3c
       0.09526872 0.155079 -0.109316155 0.021253055
000300 f7 2b 89 3c ec 77 88 3d ac 3f 87 be ba 60 35 3e
       0.016744597 0.06663498 -0.26415765 0.1771268
000310 f7 bf 1d be 57 f1 ab 3d b3 1b 96 bc 6b 45 dd 3b
       -0.1540526 0.08395641 -0.018323755 0.00675266
000320 e8 da c6 3d 4e f9 f7 bd 3e 19 c0 ba eb 5f 5e 3c
       0.09709722 -0.12108098 -0.001465596 0.013572673
000330 c4 c0 27 3d 58 0e 04 be ad 05 9a bd bf d7 f8 bd
       0.04095532 -0.12896097 -0.07520614 -0.12150525
000340 a6 a6 45 bc 18 ca 56 3e c4 4e 9c 3d ee d6 d2 3d
       -0.012063658 0.2097553 0.07632211 0.10294901
000350 03 d0 ef 3d 5c 99 8a be b0 ec 54 3e 5c 4c 14 3e
       0.11709597 -0.2707013 0.20793414 0.14482254
000360 91 cd 48 3e e5 6f 30 3d b4 fe 0f 3d 5d b5 8d 3d
       0.19609667 0.04307546 0.035155013 0.06919358
000370 d3 05 f3 3d 59 15 c1 3d 74 05 1f 3e 72 b4 46 3d
       0.11866345 0.094279 0.15529424 0.04851193
000380 4b 7c 7d bd 7c 2c 58 be 94 5c 3e be 1e f2 23 be
       -0.061886113 -0.2111072 -0.18590003 -0.16010329
000390 16 08 55 be ef 9a 61 3e 84 c9 09 3e af 1b 98 bd
       -0.20803866 0.22031759 0.13455778 -0.07427155
0003a0 c6 61 2a be ed 72 9d 3d a7 16 35 be 90 e7 bb 3d
       -0.1663886 0.07687936 -0.17684422 0.091750264
0003b0 82 d6 02 3e 82 62 28 3d d4 ce 5a 3e ba 64 09 3d
       0.1277714 0.04110957 0.21367961 0.033543326
0003c0 ea 40 06 3e e7 cf b6 bd 2d da ec bc 01 68 b6 bb
       0.131107 -0.08926373 -0.028912628 -0.0055665975
0003d0 e1 38 49 3e 2c 00 4f be 91 22 16 be 5c bb be 3d
       0.19650604 -0.2021491 -0.14661624 0.0931308
0003e0 9b a4 30 be 63 46 1a 3e 81 24 89 3e 61 80 6f be
       -0.17250292 0.15065913 0.26785663 -0.23388816
0003f0 ee fa 72 bc 1a 65 ed bc 55 0b a8 3d 86 e3 64 be
       -0.014830334 -0.028978873 0.082052864 -0.22352418

bn1.weight f4 [400]
000000 7d 22 75 3f e0 01 88 3d d4 94 43 3f 0d 69 09 3f
       0.9575575 0.06640983 0.7639897 0.5367592
000010 97 a7 69 3f 44 49 07 3f 34 87 cc 3e 32 2c e0 3e
       0.91271347 0.5284617 0.39946902 0.43783718
000020 bc 4f 07 3e 4d 42 69 3f f6 96 4d 3f a8 92 17 3f
       0.1321401 0.9111679 0.80308473 0.59208155
000030 ff bf f5 3e 4a d2 92 3e 6b 4b 06 3f 6e e0 23 3f
       0.47998044 0.28676063 0.5245883 0.6401433
000040 a6 8e a3 3e f9 43 08 3f 8b 8f 6a 3f d0 54 0f 3e
       0.3194477 0.5322872 0.9162528 0.13997197
000050 6e 4e aa 3e 4d 3e 63 3f 1b 1d 75 3f d1 44 6a 3f
       0.33262962 0.8876694 0.95747536 0.91511256
000060 88 95 bb 3e 9c 31 4e 3f 56 90 20 3f c7 8c c5 3e
       0.3663752 0.8054445 0.6272024 0.38583967
000070 96 27 d9 3e 71 0c 5d 3f 22 cc 55 3f a6 2d 51 3f
       0.42413014 0.8634711 0.83514607 0.8171028
000080 30 07 a2 3e 00 20 b7 38 b4 d9 99 3e c4 63 35 3f
       0.3164611 8.7320805e-05 0.30048907 0.70855355
000090 7e 88 b4 3c 4d 13 48 3f cc c7 86 3e ba 99 56 3f
       0.02203774 0.7815445 0.26324308 0.8382832
0000a0 60 80 10 3e 10 69 9b 3e fd 45 e0 3c d2 62 24 3e
       0.14111471 0.30353594 0.027377123 0.16053322
0000b0 1b b9 c7 3e 06 5a c0 3e a7 10 00 3f f6 7d 3f 3f
       0.39008412 0.37568682 0.5002541 0.74801576
0000c0 98 13 ab 3e 33 01 56 3f 6e e5 ca 3e ec 7b 88 3e
       0.33413386 0.8359558 0.39628166 0.26657045
0000d0 48 7c d9 3e fe 55 36 3f 8c ef 81 3e 45 01 ce 3d
       0.42477632 0.71224964 0.25378072 0.10058836
0000e0 90 45 c1 3d 62 73 e9 3e a8 e3 35 3f ad fa 50 3f
       0.09437096 0.45595843 0.710505 0.816325
0000f0 eb c3 07 3f 0e 1f c1 3e 20 59 ab 3e e0 ae 8a 3c
       0.5303332 0.37719005 0.33466434 0.01692909
000100 1c 19 0e 3e a8 41 a3 3e 87 1b d6 3e 0b 90 2e 3f
       0.13876766 0.3188603 0.41817877 0.6818854
000110 6b ec 5a 3f eb c2 77 3e be e9 38 3e c0 fa 07 3c
       0.85516995 0.24195449 0.18057916 0.00829953
000120 b0 58 1d 3f 52 be 7e 3f 77 6b 57 3f 95 f5 77 3f
       0.6146345 0.99509156 0.84148353 0.96859103
000130 60 44 1d 3f f4 4f 9d 3e 4a 95 66 3f 3d 47 22 3f
       0.61432457 0.30725062 0.9007155 0.6338995
000140 f5 0d 4b 3f c0 15 2f 3e b2 2b a1 3e f0 06 56 3e
       0.7931817 0.1709814 0.3147865 0.20901084
000150 d8 e9 ae 3d 49 51 59 3f 70 02 37 3e d0 7c 30 3e
       0.08540696 0.84889656 0.17872024 0.17235112
000160 5b fb ea 3e 9e e3 22 3e de be 11 3f 98 12 9d 3e
       0.45894894 0.15907142 0.56931865 0.30678248
000170 b8 6b 5e 3f 28 6b 25 3f 71 d0 0d 3f 52 06 2e 3f
       0.86883116 0.6461663 0.5539618 0.67978394
000180 cb 69 da 3e 7f 59 48 3c 18 14 71 3f 9e 8a db 3e
       0.4265884 0.012228369 0.94171286 0.42879194
000190 9b 20 04 3f 78 43 8a 3e 0d 40 5b 3f b3 85 cc 3e
       0.5161225 0.270046 0.8564461 0.39945754
0001a0 ae fa b2 3e a2 f2 19 3f c2 ee d0 3e 7c 7b b7 3e
       0.34956878 0.60135853 0.40807158 0.358364
0001b0 4f 6a 17 3f 97 a0 4b 3f ea f4 24 3e 03 3a 6b 3f
       0.5914659 0.79541916 0.16109052 0.91885394
0001c0 0e a0 45 3f 51 de 50 3f 3c 3c 11 3f e8 70 f9 3e
       0.7719735 0.8158923 0.56732535 0.48718953
0001d0 ea 0d df 3e f8 1b f3 3e 18 d1 04 3e 50 6d c5 3e
       0.43565303 0.47482276 0.12970388 0.3855996
0001e0 ee f1 1c 3f d5 63 6a 3e d4 ac 59 3f 87 11 47 3f
       0.61306655 0.22889645 0.8502934 0.7776112
0001f0 20 65 9d 3e 3a 3c b6 3e 9d c9 da 3e 9e 4c 07 3f
       0.30741215 0.35592824 0.42731944 0.52851284
000200 25 37 79 3f d5 a1 37 3f 69 e0 54 3f 9f cb ef 3e
       0.9734977 0.7173131 0.8315492 0.46835038
000210 d6 fd 02 3f d8 ca b9 3d 07 b5 06 3f e8 c9 3d 3f
       0.5116857 0.090718925 0.52619976 0.7413621
000220 e0 21 32 3e 21 a1 22 3f 70 7a 5b 3f b6 e0 fe 3e
       0.17395735 0.63527113 0.857337 0.49780816
000230 40 cf 63 3e 48 91 79 3f b7 18 56 3f 00 8a b1 3b
       0.22247028 0.97487307 0.8363146 0.005418062
000240 6c 64 37 3e 89 65 49 3f 68 99 ba 3d 68 6d e3 3e
       0.17909402 0.78670555 0.09111291 0.44419408
000250 7c 2f 7a 3f 7c 4c 50 3e d2 22 40 3f c8 75 4b 3f
       0.97728705 0.20341676 0.7505313 0.79476595
000260 c7 0b 4e 3f 4c 42 3c 3e 1e 74 de 3e e1 35 4b 3f
       0.8048672 0.18384665 0.43447965 0.7937909
000270 de f9 9f 3e 0f 49 78 3f 68 82 62 3e 18 12 a1 3e
       0.3124532 0.9698648 0.22120059 0.31459117
000280 6c f2 13 3f 9d db 52 3e fe 0c af 3e ba dc 35 3f
       0.5779178 0.20591588 0.341896 0.71039927
000290 98 84 9d 3e 00 9a 9e 3a e3 ae cd 3e 08 de 0b 3e
       0.30765224 0.0012100339 0.4017249 0.13658917
0002a0 63 b9 4f 3f 58 c0 82 3e f5 e5 5e 3f d4 1d 48 3f
       0.8114225 0.25537372 0.87069637 0.78170514
0002b0 eb 88 0c 3f e0 8f 11 3f b8 c5 75 3e c0 1d 42 3f
       0.5489642 0.5686016 0.24001205 0.75826645
0002c0 f5 5f 67 3f 58 7a 3f 3e a8 3b b2 3e 27 2e 05 3f
       0.90380794 0.18699014 0.3481114 0.5202355
0002d0 88 f6 42 3f 35 95 6f 3f 63 f0 2a 3f 0e 59 03 3f
       0.76157427 0.93587047 0.6677305 0.5130776
0002e0 ba 63 03 3f e9 66 5d 3f ed e6 5b 3f 60 f7 df 3c
       0.51324046 0.86485153 0.8589924 0.027339637
0002f0 0a 10 92 3e 78 36 15 3e 60 2b d4 3d 0d 35 dc 3e
       0.28527862 0.1457156 0.103598356 0.43009225
000300 16 6e 6a 3f 70 50 17 3e 80 ff 31 3c b4 7e 29 3f
       0.9157423 0.14776778 0.010864139 0.6620896
000310 43 88 d5 3e 9a 4d 1b 3f 9f d9 f5 3e 97 d0 34 3f
       0.41705522 0.60665286 0.48017594 0.7063078
000320 bd 17 47 3d a0 7f fe 3c 78 80 a7 3e 97 d9 08 3f
       0.048606623 0.031066716 0.327152 0.53457016
000330 14 30 10 3f 4a 74 0c 3f bb cb 1f 3f 3a ef 2a 3f
       0.5632336 0.54864943 0.62420243 0.6677128
000340 dd 77 5e 3f ad 6b 49 3f 0c 91 3a 3f d4 9f a2 3e
       0.86901647 0.78679925 0.72877574 0.31762564
000350 5b 4f 29 3f ae f9 ae 3e b2 d9 18 3e 6e 09 b7 3e
       0.6613671 0.34174865 0.14926794 0.35749382
000360 8b ea 38 3f ea 49 16 3f 48 ad a2 3d f7 1c 67 3e
       0.72232884 0.58706534 0.07943207 0.22569643
000370 9e 63 bd 3e a0 ba 4f 3d a0 f6 e8 3e fe 69 02 3f
       0.36990064 0.05071509 0.4550066 0.5094298
000380 39 ac 63 3f c0 32 5f 3d 16 86 e3 3e c5 ef 7a 3f
       0.88934666 0.05449176 0.44438237 0.9802211
000390 b8 34 b5 3e 19 c2 c5 3e d5 02 6f 3f 1a ce 41 3f
       0.35391784 0.38624647 0.93363696 0.7570511
0003a0 38 00 86 3e 0c b0 a8 3e f3 fa 55 3e 20 c2 3f 3e
       0.26172042 0.32946813 0.20896511 0.18726397
0003b0 30 73 87 3e 53 40 29 3f ae ae 95 3e 68 5a c4 3e
       0.2645507 0.66113776 0.29234833 0.38350224
0003c0 02 a9 3f 3f 46 91 88 3e a0 a1 52 3f 9a 1f f8 3e
       0.7486726 0.26673335 0.8227787 0.4846161
0003d0 64 d5 73 3e c0 d0 da 3e 15 52 79 3f 2e 14 21 3e
       0.23811871 0.4273739 0.9739087 0.15730354
0003e0 22 8c 09 3f 2b 94 5f 3f a6 04 b1 3d 6e e7 1f 3f
       0.5372945 0.8733546 0.08643465 0.6246251
0003f0 45 08 56 3f ab 30 27 3f 3e 14 10 3f d8 d6 97 3e
       0.8360637 0.65308636 0.5628089 0.296561

bn1.bias f4 [400]
000000 00 00 00 00 00 00 00 00 00 00 00 00 00 00 00 00
       0.0 0.0 0.0 0.0
000010 00 00 00 00 00 00 00 00 00 00 00 00 00 00 00 00
       0.0 0.0 0.0 0.0
000020 00 00 00 00 00 00 00 00 00 00 00 00 00 00 00 00
       0.0 0.0 0.0 0.0
000030 00 00 00 00 00 00 00 00 00 00 00 00 00 00 00 00
       0.0 0.0 0.0 0.0
000040 00 00 00 00 00 00 00 00 00 00 00 00 00 00 00 00
       0.0 0.0 0.0 0.0
000050 00 00 00 00 00 00 00 00 00 00 00 00 00 00 00 00
       0.0 0.0 0.0 0.0
000060 00 00 00 00 00 00 00 00 00 00 00 00 00 00 00 00
       0.0 0.0 0.0 0.0
000070 00 00 00 00 00 00 00 00 00 00 00 00 00 00 00 00
       0.0 0.0 0.0 0.0
000080 00 00 00 00 00 00 00 00 00 00 00 00 00 00 00 00
       0.0 0.0 0.0 0.0
000090 00 00 00 00 00 00 00 00 00 00 00 00 00 00 00 00
       0.0 0.0 0.0 0.0
0000a0 00 00 00 00 00 00 00 00 00 00 00 00 00 00 00 00
       0.0 0.0 0.0 0.0
0000b0 00 00 00 00 00 00 00 00 00 00 00 00 00 00 00 00
       0.0 0.0 0.0 0.0
0000c0 00 00 00 00 00 00 00 00 00 00 00 00 00 00 00 00
       0.0 0.0 0.0 0.0
0000d0 00 00 00 00 00 00 00 00 00 00 00 00 00 00 00 00
       0.0 0.0 0.0 0.0
0000e0 00 00 00 00 00 00 00 00 00 00 00 00 00 00 00 00
       0.0 0.0 0.0 0.0
0000f0 00 00 00 00 00 00 00 00 00 00 00 00 00 00 00 00
       0.0 0.0 0.0 0.0
000100 00 00 00 00 00 00 00 00 00 00 00 00 00 00 00 00
       0.0 0.0 0.0 0.0
000110 00 00 00 00 00 00 00 00 00 00 00 00 00 00 00 00
       0.0 0.0 0.0 0.0
000120 00 00 00 00 00 00 00 00 00 00 00 00 00 00 00 00
       0.0 0.0 0.0 0.0
000130 00 00 00 00 00 00 00 00 00 00 00 00 00 00 00 00
       0.0 0.0 0.0 0.0
000140 00 00 00 00 00 00 00 00 00 00 00 00 00 00 00 00
       0.0 0.0 0.0 0.0
000150 00 00 00 00 00 00 00 00 00 00 00 00 00 00 00 00
       0.0 0.0 0.0 0.0
000160 00 00 00 00 00 00 00 00 00 00 00 00 00 00 00 00
       0.0 0.0 0.0 0.0
000170 00 00 00 00 00 00 00 00 00 00 00 00 00 00 00 00
       0.0 0.0 0.0 0.0
000180 00 00 00 00 00 00 00 00 00 00 00 00 00 00 00 00
       0.0 0.0 0.0 0.0
000190 00 00 00 00 00 00 00 00 00 00 00 00 00 00 00 00
       0.0 0.0 0.0 0.0
0001a0 00 00 00 00 00 00 00 00 00 00 00 00 00 00 00 00
       0.0 0.0 0.0 0.0
0001b0 00 00 00 00 00 00 00 00 00 00 00 00 00 00 00 00
       0.0 0.0 0.0 0.0
0001c0 00 00 00 00 00 00 00 00 00 00 00 00 00 00 00 00
       0.0 0.0 0.0 0.0
0001d0 00 00 00 00 00 00 00 00 00 00 00 00 00 00 00 00
       0.0 0.0 0.0 0.0
0001e0 00 00 00 00 00 00 00 00 00 00 00 00 00 00 00 00
       0.0 0.0 0.0 0.0
0001f0 00 00 00 00 00 00 00 00 00 00 00 00 00 00 00 00
       0.0 0.0 0.0 0.0
000200 00 00 00 00 00 00 00 00 00 00 00 00 00 00 00 00
       0.0 0.0 0.0 0.0
000210 00 00 00 00 00 00 00 00 00 00 00 00 00 00 00 00
       0.0 0.0 0.0 0.0
000220 00 00 00 00 00 00 00 00 00 00 00 00 00 00 00 00
       0.0 0.0 0.0 0.0
000230 00 00 00 00 00 00 00 00 00 00 00 00 00 00 00 00
       0.0 0.0 0.0 0.0
000240 00 00 00 00 00 00 00 00 00 00 00 00 00 00 00 00
       0.0 0.0 0.0 0.0
000250 00 00 00 00 00 00 00 00 00 00 00 00 00 00 00 00
       0.0 0.0 0.0 0.0
000260 00 00 00 00 00 00 00 00 00 00 00 00 00 00 00 00
       0.0 0.0 0.0 0.0
000270 00 00 00 00 00 00 00 00 00 00 00 00 00 00 00 00
       0.0 0.0 0.0 0.0
000280 00 00 00 00 00 00 00 00 00 00 00 00 00 00 00 00
       0.0 0.0 0.0 0.0
000290 00 00 00 00 00 00 00 00 00 00 00 00 00 00 00 00
       0.0 0.0 0.0 0.0
0002a0 00 00 00 00 00 00 00 00 00 00 00 00 00 00 00 00
       0.0 0.0 0.0 0.0
0002b0 00 00 00 00 00 00 00 00 00 00 00 00 00 00 00 00
       0.0 0.0 0.0 0.0
0002c0 00 00 00 00 00 00 00 00 00 00 00 00 00 00 00 00
       0.0 0.0 0.0 0.0
0002d0 00 00 00 00 00 00 00 00 00 00 00 00 00 00 00 00
       0.0 0.0 0.0 0.0
0002e0 00 00 00 00 00 00 00 00 00 00 00 00 00 00 00 00
       0.0 0.0 0.0 0.0
0002f0 00 00 00 00 00 00 00 00 00 00 00 00 00 00 00 00
       0.0 0.0 0.0 0.0
000300 00 00 00 00 00 00 00 00 00 00 00 00 00 00 00 00
       0.0 0.0 0.0 0.0
000310 00 00 00 00 00 00 00 00 00 00 00 00 00 00 00 00
       0.0 0.0 0.0 0.0
000320 00 00 00 00 00 00 00 00 00 00 00 00 00 00 00 00
       0.0 0.0 0.0 0.0
000330 00 00 00 00 00 00 00 00 00 00 00 00 00 00 00 00
       0.0 0.0 0.0 0.0
000340 00 00 00 00 00 00 00 00 00 00 00 00 00 00 00 00
       0.0 0.0 0.0 0.0
000350 00 00 00 00 00 00 00 00 00 00 00 00 00 00 00 00
       0.0 0.0 0.0 0.0
000360 00 00 00 00 00 00 00 00 00 00 00 00 00 00 00 00
       0.0 0.0 0.0 0.0
000370 00 00 00 00 00 00 00 00 00 00 00 00 00 00 00 00
       0.0 0.0 0.0 0.0
000380 00 00 00 00 00 00 00 00 00 00 00 00 00 00 00 00
       0.0 0.0 0.0 0.0
000390 00 00 00 00 00 00 00 00 00 00 00 00 00 00 00 00
       0.0 0.0 0.0 0.0
0003a0 00 00 00 00 00 00 00 00 00 00 00 00 00 00 00 00
       0.0 0.0 0.0 0.0
0003b0 00 00 00 00 00 00 00 00 00 00 00 00 00 00 00 00
       0.0 0.0 0.0 0.0
0003c0 00 00 00 00 00 00 00 00 00 00 00 00 00 00 00 00
       0.0 0.0 0.0 0.0
0003d0 00 00 00 00 00 00 00 00 00 00 00 00 00 00 00 00
       0.0 0.0 0.0 0.0
0003e0 00 00 00 00 00 00 00 00 00 00 00 00 00 00 00 00
       0.0 0.0 0.0 0.0
0003f0 00 00 00 00 00 00 00 00 00 00 00 00 00 00 00 00
       0.0 0.0 0.0 0.0

bn1.running_mean f4 [400]
000000 00 00 00 00 00 00 00 00 00 00 00 00 00 00 00 00
       0.0 0.0 0.0 0.0
000010 00 00 00 00 00 00 00 00 00 00 00 00 00 00 00 00
       0.0 0.0 0.0 0.0
000020 00 00 00 00 00 00 00 00 00 00 00 00 00 00 00 00
       0.0 0.0 0.0 0.0
000030 00 00 00 00 00 00 00 00 00 00 00 00 00 00 00 00
       0.0 0.0 0.0 0.0
000040 00 00 00 00 00 00 00 00 00 00 00 00 00 00 00 00
       0.0 0.0 0.0 0.0
000050 00 00 00 00 00 00 00 00 00 00 00 00 00 00 00 00
       0.0 0.0 0.0 0.0
000060 00 00 00 00 00 00 00 00 00 00 00 00 00 00 00 00
       0.0 0.0 0.0 0.0
000070 00 00 00 00 00 00 00 00 00 00 00 00 00 00 00 00
       0.0 0.0 0.0 0.0
000080 00 00 00 00 00 00 00 00 00 00 00 00 00 00 00 00
       0.0 0.0 0.0 0.0
000090 00 00 00 00 00 00 00 00 00 00 00 00 00 00 00 00
       0.0 0.0 0.0 0.0
0000a0 00 00 00 00 00 00 00 00 00 00 00 00 00 00 00 00
       0.0 0.0 0.0 0.0
0000b0 00 00 00 00 00 00 00 00 00 00 00 00 00 00 00 00
       0.0 0.0 0.0 0.0
0000c0 00 00 00 00 00 00 00 00 00 00 00 00 00 00 00 00
       0.0 0.0 0.0 0.0
0000d0 00 00 00 00 00 00 00 00 00 00 00 00 00 00 00 00
       0.0 0.0 0.0 0.0
0000e0 00 00 00 00 00 00 00 00 00 00 00 00 00 00 00 00
       0.0 0.0 0.0 0.0
0000f0 00 00 00 00 00 00 00 00 00 00 00 00 00 00 00 00
       0.0 0.0 0.0 0.0
000100 00 00 00 00 00 00 00 00 00 00 00 00 00 00 00 00
       0.0 0.0 0.0 0.0
000110 00 00 00 00 00 00 00 00 00 00 00 00 00 00 00 00
       0.0 0.0 0.0 0.0
000120 00 00 00 00 00 00 00 00 00 00 00 00 00 00 00 00
       0.0 0.0 0.0 0.0
000130 00 00 00 00 00 00 00 00 00 00 00 00 00 00 00 00
       0.0 0.0 0.0 0.0
000140 00 00 00 00 00 00 00 00 00 00 00 00 00 00 00 00
       0.0 0.0 0.0 0.0
000150 00 00 00 00 00 00 00 00 00 00 00 00 00 00 00 00
       0.0 0.0 0.0 0.0
000160 00 00 00 00 00 00 00 00 00 00 00 00 00 00 00 00
       0.0 0.0 0.0 0.0
000170 00 00 00 00 00 00 00 00 00 00 00 00 00 00 00 00
       0.0 0.0 0.0 0.0
000180 00 00 00 00 00 00 00 00 00 00 00 00 00 00 00 00
       0.0 0.0 0.0 0.0
000190 00 00 00 00 00 00 00 00 00 00 00 00 00 00 00 00
       0.0 0.0 0.0 0.0
0001a0 00 00 00 00 00 00 00 00 00 00 00 00 00 00 00 00
       0.0 0.0 0.0 0.0
0001b0 00 00 00 00 00 00 00 00 00 00 00 00 00 00 00 00
       0.0 0.0 0.0 0.0
0001c0 00 00 00 00 00 00 00 00 00 00 00 00 00 00 00 00
       0.0 0.0 0.0 0.0
0001d0 00 00 00 00 00 00 00 00 00 00 00 00 00 00 00 00
       0.0 0.0 0.0 0.0
0001e0 00 00 00 00 00 00 00 00 00 00 00 00 00 00 00 00
       0.0 0.0 0.0 0.0
0001f0 00 00 00 00 00 00 00 00 00 00 00 00 00 00 00 00
       0.0 0.0 0.0 0.0
000200 00 00 00 00 00 00 00 00 00 00 00 00 00 00 00 00
       0.0 0.0 0.0 0.0
000210 00 00 00 00 00 00 00 00 00 00 00 00 00 00 00 00
       0.0 0.0 0.0 0.0
000220 00 00 00 00 00 00 00 00 00 00 00 00 00 00 00 00
       0.0 0.0 0.0 0.0
000230 00 00 00 00 00 00 00 00 00 00 00 00 00 00 00 00
       0.0 0.0 0.0 0.0
000240 00 00 00 00 00 00 00 00 00 00 00 00 00 00 00 00
       0.0 0.0 0.0 0.0
000250 00 00 00 00 00 00 00 00 00 00 00 00 00 00 00 00
       0.0 0.0 0.0 0.0
000260 00 00 00 00 00 00 00 00 00 00 00 00 00 00 00 00
       0.0 0.0 0.0 0.0
000270 00 00 00 00 00 00 00 00 00 00 00 00 00 00 00 00
       0.0 0.0 0.0 0.0
000280 00 00 00 00 00 00 00 00 00 00 00 00 00 00 00 00
       0.0 0.0 0.0 0.0
000290 00 00 00 00 00 00 00 00 00 00 00 00 00 00 00 00
       0.0 0.0 0.0 0.0
0002a0 00 00 00 00 00 00 00 00 00 00 00 00 00 00 00 00
       0.0 0.0 0.0 0.0
0002b0 00 00 00 00 00 00 00 00 00 00 00 00 00 00 00 00
       0.0 0.0 0.0 0.0
0002c0 00 00 00 00 00 00 00 00 00 00 00 00 00 00 00 00
       0.0 0.0 0.0 0.0
0002d0 00 00 00 00 00 00 00 00 00 00 00 00 00 00 00 00
       0.0 0.0 0.0 0.0
0002e0 00 00 00 00 00 00 00 00 00 00 00 00 00 00 00 00
       0.0 0.0 0.0 0.0
0002f0 00 00 00 00 00 00 00 00 00 00 00 00 00 00 00 00
       0.0 0.0 0.0 0.0
000300 00 00 00 00 00 00 00 00 00 00 00 00 00 00 00 00
       0.0 0.0 0.0 0.0
000310 00 00 00 00 00 00 00 00 00 00 00 00 00 00 00 00
       0.0 0.0 0.0 0.0
000320 00 00 00 00 00 00 00 00 00 00 00 00 00 00 00 00
       0.0 0.0 0.0 0.0
000330 00 00 00 00 00 00 00 00 00 00 00 00 00 00 00 00
       0.0 0.0 0.0 0.0
000340 00 00 00 00 00 00 00 00 00 00 00 00 00 00 00 00
       0.0 0.0 0.0 0.0
000350 00 00 00 00 00 00 00 00 00 00 00 00 00 00 00 00
       0.0 0.0 0.0 0.0
000360 00 00 00 00 00 00 00 00 00 00 00 00 00 00 00 00
       0.0 0.0 0.0 0.0
000370 00 00 00 00 00 00 00 00 00 00 00 00 00 00 00 00
       0.0 0.0 0.0 0.0
000380 00 00 00 00 00 00 00 00 00 00 00 00 00 00 00 00
       0.0 0.0 0.0 0.0
000390 00 00 00 00 00 00 00 00 00 00 00 00 00 00 00 00
       0.0 0.0 0.0 0.0
0003a0 00 00 00 00 00 00 00 00 00 00 00 00 00 00 00 00
       0.0 0.0 0.0 0.0
0003b0 00 00 00 00 00 00 00 00 00 00 00 00 00 00 00 00
       0.0 0.0 0.0 0.0
0003c0 00 00 00 00 00 00 00 00 00 00 00 00 00 00 00 00
       0.0 0.0 0.0 0.0
0003d0 00 00 00 00 00 00 00 00 00 00 00 00 00 00 00 00
       0.0 0.0 0.0 0.0
0003e0 00 00 00 00 00 00 00 00 00 00 00 00 00 00 00 00
       0.0 0.0 0.0 0.0
0003f0 00 00 00 00 00 00 00 00 00 00 00 00 00 00 00 00
       0.0 0.0 0.0 0.0

bn1.running_var f4 [400]
000000 00 00 80 3f 00 00 80 3f 00 00 80 3f 00 00 80 3f
       1.0 1.0 1.0 1.0
000010 00 00 80 3f 00 00 80 3f 00 00 80 3f 00 00 80 3f
       1.0 1.0 1.0 1.0
000020 00 00 80 3f 00 00 80 3f 00 00 80 3f 00 00 80 3f
       1.0 1.0 1.0 1.0
000030 00 00 80 3f 00 00 80 3f 00 00 80 3f 00 00 80 3f
       1.0 1.0 1.0 1.0
000040 00 00 80 3f 00 00 80 3f 00 00 80 3f 00 00 80 3f
       1.0 1.0 1.0 1.0
000050 00 00 80 3f 00 00 80 3f 00 00 80 3f 00 00 80 3f
       1.0 1.0 1.0 1.0
000060 00 00 80 3f 00 00 80 3f 00 00 80 3f 00 00 80 3f
       1.0 1.0 1.0 1.0
000070 00 00 80 3f 00 00 80 3f 00 00 80 3f 00 00 80 3f
       1.0 1.0 1.0 1.0
000080 00 00 80 3f 00 00 80 3f 00 00 80 3f 00 00 80 3f
       1.0 1.0 1.0 1.0
000090 00 00 80 3f 00 00 80 3f 00 00 80 3f 00 00 80 3f
       1.0 1.0 1.0 1.0
0000a0 00 00 80 3f 00 00 80 3f 00 00 80 3f 00 00 80 3f
       1.0 1.0 1.0 1.0
0000b0 00 00 80 3f 00 00 80 3f 00 00 80 3f 00 00 80 3f
       1.0 1.0 1.0 1.0
0000c0 00 00 80 3f 00 00 80 3f 00 00 80 3f 00 00 80 3f
       1.0 1.0 1.0 1.0
0000d0 00 00 80 3f 00 00 80 3f 00 00 80 3f 00 00 80 3f
       1.0 1.0 1.0 1.0
0000e0 00 00 80 3f 00 00 80 3f 00 00 80 3f 00 00 80 3f
       1.0 1.0 1.0 1.0
0000f0 00 00 80 3f 00 00 80 3f 00 00 80 3f 00 00 80 3f
       1.0 1.0 1.0 1.0
000100 00 00 80 3f 00 00 80 3f 00 00 80 3f 00 00 80 3f
       1.0 1.0 1.0 1.0
000110 00 00 80 3f 00 00 80 3f 00 00 80 3f 00 00 80 3f
       1.0 1.0 1.0 1.0
000120 00 00 80 3f 00 00 80 3f 00 00 80 3f 00 00 80 3f
       1.0 1.0 1.0 1.0
000130 00 00 80 3f 00 00 80 3f 00 00 80 3f 00 00 80 3f
       1.0 1.0 1.0 1.0
000140 00 00 80 3f 00 00 80 3f 00 00 80 3f 00 00 80 3f
       1.0 1.0 1.0 1.0
000150 00 00 80 3f 00 00 80 3f 00 00 80 3f 00 00 80 3f
       1.0 1.0 1.0 1.0
000160 00 00 80 3f 00 00 80 3f 00 00 80 3f 00 00 80 3f
       1.0 1.0 1.0 1.0
000170 00 00 80 3f 00 00 80 3f 00 00 80 3f 00 00 80 3f
       1.0 1.0 1.0 1.0
000180 00 00 80 3f 00 00 80 3f 00 00 80 3f 00 00 80 3f
       1.0 1.0 1.0 1.0
000190 00 00 80 3f 00 00 80 3f 00 00 80 3f 00 00 80 3f
       1.0 1.0 1.0 1.0
0001a0 00 00 80 3f 00 00 80 3f 00 00 80 3f 00 00 80 3f
       1.0 1.0 1.0 1.0
0001b0 00 00 80 3f 00 00 80 3f 00 00 80 3f 00 00 80 3f
       1.0 1.0 1.0 1.0
0001c0 00 00 80 3f 00 00 80 3f 00 00 80 3f 00 00 80 3f
       1.0 1.0 1.0 1.0
0001d0 00 00 80 3f 00 00 80 3f 00 00 80 3f 00 00 80 3f
       1.0 1.0 1.0 1.0
0001e0 00 00 80 3f 00 00 80 3f 00 00 80 3f 00 00 80 3f
       1.0 1.0 1.0 1.0
0001f0 00 00 80 3f 00 00 80 3f 00 00 80 3f 00 00 80 3f
       1.0 1.0 1.0 1.0
000200 00 00 80 3f 00 00 80 3f 00 00 80 3f 00 00 80 3f
       1.0 1.0 1.0 1.0
000210 00 00 80 3f 00 00 80 3f 00 00 80 3f 00 00 80 3f
       1.0 1.0 1.0 1.0
000220 00 00 80 3f 00 00 80 3f 00 00 80 3f 00 00 80 3f
       1.0 1.0 1.0 1.0
000230 00 00 80 3f 00 00 80 3f 00 00 80 3f 00 00 80 3f
       1.0 1.0 1.0 1.0
000240 00 00 80 3f 00 00 80 3f 00 00 80 3f 00 00 80 3f
       1.0 1.0 1.0 1.0
000250 00 00 80 3f 00 00 80 3f 00 00 80 3f 00 00 80 3f
       1.0 1.0 1.0 1.0
000260 00 00 80 3f 00 00 80 3f 00 00 80 3f 00 00 80 3f
       1.0 1.0 1.0 1.0
000270 00 00 80 3f 00 00 80 3f 00 00 80 3f 00 00 80 3f
       1.0 1.0 1.0 1.0
000280 00 00 80 3f 00 00 80 3f 00 00 80 3f 00 00 80 3f
       1.0 1.0 1.0 1.0
000290 00 00 80 3f 00 00 80 3f 00 00 80 3f 00 00 80 3f
       1.0 1.0 1.0 1.0
0002a0 00 00 80 3f 00 00 80 3f 00 00 80 3f 00 00 80 3f
       1.0 1.0 1.0 1.0
0002b0 00 00 80 3f 00 00 80 3f 00 00 80 3f 00 00 80 3f
       1.0 1.0 1.0 1.0
0002c0 00 00 80 3f 00 00 80 3f 00 00 80 3f 00 00 80 3f
       1.0 1.0 1.0 1.0
0002d0 00 00 80 3f 00 00 80 3f 00 00 80 3f 00 00 80 3f
       1.0 1.0 1.0 1.0
0002e0 00 00 80 3f 00 00 80 3f 00 00 80 3f 00 00 80 3f
       1.0 1.0 1.0 1.0
0002f0 00 00 80 3f 00 00 80 3f 00 00 80 3f 00 00 80 3f
       1.0 1.0 1.0 1.0
000300 00 00 80 3f 00 00 80 3f 00 00 80 3f 00 00 80 3f
       1.0 1.0 1.0 1.0
000310 00 00 80 3f 00 00 80 3f 00 00 80 3f 00 00 80 3f
       1.0 1.0 1.0 1.0
000320 00 00 80 3f 00 00 80 3f 00 00 80 3f 00 00 80 3f
       1.0 1.0 1.0 1.0
000330 00 00 80 3f 00 00 80 3f 00 00 80 3f 00 00 80 3f
       1.0 1.0 1.0 1.0
000340 00 00 80 3f 00 00 80 3f 00 00 80 3f 00 00 80 3f
       1.0 1.0 1.0 1.0
000350 00 00 80 3f 00 00 80 3f 00 00 80 3f 00 00 80 3f
       1.0 1.0 1.0 1.0
000360 00 00 80 3f 00 00 80 3f 00 00 80 3f 00 00 80 3f
       1.0 1.0 1.0 1.0
000370 00 00 80 3f 00 00 80 3f 00 00 80 3f 00 00 80 3f
       1.0 1.0 1.0 1.0
000380 00 00 80 3f 00 00 80 3f 00 00 80 3f 00 00 80 3f
       1.0 1.0 1.0 1.0
000390 00 00 80 3f 00 00 80 3f 00 00 80 3f 00 00 80 3f
       1.0 1.0 1.0 1.0
0003a0 00 00 80 3f 00 00 80 3f 00 00 80 3f 00 00 80 3f
       1.0 1.0 1.0 1.0
0003b0 00 00 80 3f 00 00 80 3f 00 00 80 3f 00 00 80 3f
       1.0 1.0 1.0 1.0
0003c0 00 00 80 3f 00 00 80 3f 00 00 80 3f 00 00 80 3f
       1.0 1.0 1.0 1.0
0003d0 00 00 80 3f 00 00 80 3f 00 00 80 3f 00 00 80 3f
       1.0 1.0 1.0 1.0
0003e0 00 00 80 3f 00 00 80 3f 00 00 80 3f 00 00 80 3f
       1.0 1.0 1.0 1.0
0003f0 00 00 80 3f 00 00 80 3f 00 00 80 3f 00 00 80 3f
       1.0 1.0 1.0 1.0

fc2.weight f4 [300, 400]
000000 90 b4 ad 3d 9f 82 7e bb 59 55 92 3d 37 7e 49 bd
       0.08481705 -0.003883518 0.07145185 -0.049192633
000010 ce b1 3f 3d a4 88 e0 3d d4 1f 15 3d b9 74 04 bd
       0.046800427 0.10963562 0.036407307 -0.032337878
000020 36 d0 ea 3a 6b ed b6 bb fe 4d ac bd 1e 7f 1c 3d
       0.0017914835 -0.0055825016 -0.08413313 0.038207166
000030 7e f0 01 bd 03 39 88 3c 32 49 b6 bc 77 d4 5c 3c
       -0.03172349 0.016628748 -0.0222517 0.01347839
000040 bd 1e 91 bc 82 42 29 be 87 94 d9 3d 0c 21 0e 3b
       -0.017714852 -0.16529277 0.106240325 0.0021687178
000050 16 6b 51 3d 68 d4 ea bd f4 46 69 bd 4a 90 43 bd
       0.051127516 -0.114662945 -0.05695243 -0.047745027
000060 90 90 88 3c 56 03 94 bd 05 3e ee 3d aa 6c a7 3c
       0.016670495 -0.07227199 0.11632923 0.020437557
000070 8b 51 9e bc c3 f4 fe 3c bb a9 cb 3d fd fc b0 3b
       -0.019325992 0.03112257 0.09944483 0.0054012523
000080 6e 4f 90 3c fe 32 5f bc 6a 91 9d bd bf ed 75 bb
       0.017616 -0.013622997 -0.07693751 -0.003752574
000090 49 2e 79 3d e5 35 cb bd c0 be 50 bd 28 e0 54 bd
       0.060835157 -0.09922389 -0.050963163 -0.051971585
0000a0 f2 e2 29 3d 18 11 8c 3d f8 a6 3e bd db 44 19 bb
       0.041476198 0.06839198 -0.046545953 -0.0023386988
0000b0 df 94 b0 bd 8d 4b 06 be 28 f9 04 bb 26 2e 8d 3c
       -0.08622145 -0.13114758 -0.002029011 0.01723392
0000c0 9a 11 58 be 33 4b dd bd dd dd 70 bd 7e 73 37 bd
       -0.21100464 -0.10805359 -0.058805335 -0.044787876
0000d0 75 a3 e2 bd e5 81 af 3d df c8 86 bd c8 94 cb 3c
       -0.11066333 0.08569697 -0.06581282 0.024851218
0000e0 aa a6 31 3c 9f 9c e5 bd 17 d3 3f bd 03 c6 ed 3c
       0.010842958 -0.11211514 -0.04683217 0.029025083
0000f0 9e 9c 44 bd da 97 63 3c f2 59 e9 bd 6d 84 a5 3c
       -0.048000924 0.013891185 -0.11394109 0.020204747
000100 78 07 39 3c c7 31 c2 3d 02 e1 c1 3c 2b c3 18 3d
       0.011293285 0.094821505 0.023666862 0.0372955
000110 cd 43 fa 3c fb bc 25 3d e4 7d a3 3d 7c 9e 4e bb
       0.030549908 0.04046343 0.07982996 -0.003152757
000120 c1 5f f9 3c c9 88 28 3d 0e 6f 82 3d 6e 81 7c bc
       0.030441167 0.041146073 0.06368838 -0.015411718
000130 98 cd e0 bc f6 15 9a 3c a6 01 92 3d c0 41 d4 3d
       -0.027441785 0.0188093 0.07129221 0.10364103
000140 5b 2d a3 bd e4 46 10 be 42 58 95 3d 2b f7 cc bc
       -0.07967635 -0.14089543 0.072922245 -0.025020203
000150 df 4e 01 bc b7 c3 82 3c ed 60 a2 bc 52 09 af bc
       -0.0078923395 0.015962465 -0.019821608 -0.021366749
000160 fd 6c b5 3c 8f 36 a4 bc 65 1d 94 bd a2 a3 f9 3b
       0.022146696 -0.020045547 -0.07232169 0.0076183835
000170 5d ce 77 bc d2 f9 1a bd 04 d0 44 bd 0b bf 74 bd
       -0.015124884 -0.037835903 -0.04804994 -0.059752505
000180 7f 0e 38 bd 81 ab 1a 3d fd 35 b2 3c 82 3d 09 3d
       -0.0449357 0.037761215 0.02175426 0.033505924
000190 c3 30 d3 bd 1d 9a 9e 3c 69 81 fc 3c 54 c8 f4 3c
       -0.10312035 0.019360596 0.030823426 0.02988068
0001a0 87 82 eb bd b5 ec 17 3d 23 1a 24 3d 2e a4 a4 bb
       -0.114995055 0.037090976 0.04006399 -0.0050244546
0001b0 e2 6a 4a bc 48 64 ad bd fb 7f 44 3d bb 35 87 bd
       -0.012354584 -0.08466393 0.047973614 -0.06602045
0001c0 41 d7 78 3c f2 da 7e bd de e8 61 bd d4 3a 10 3d
       0.015188039 -0.06222052 -0.05515372 0.035212353
0001d0 33 9d 07 bd 0a 5b 15 3d ba 47 03 bc 52 aa b3 bd
       -0.0331089 0.036463775 -0.008012706 -0.087727204
0001e0 c3 56 dd bb 2c af e7 bc fa 7d 8a bd 9b b6 ec bb
       -0.0067547276 -0.02828177 -0.06762309 -0.0072239167
0001f0 d2 15 57 3d 8b 3a 57 bd 88 9e bb 3b e6 d6 42 3d
       0.052511044 -0.052546065 0.0057256855 0.047568224
000200 ae 15 db bc 9c 01 0f bd 79 73 d8 bd 32 b6 20 bb
       -0.026743736 -0.034913644 -0.105689 -0.002452266
000210 c4 e0 b3 3c 6c 2b 7b 3b fa b5 ac 3d 77 1a ca bc
       0.021957763 0.0038325442 0.08433147 -0.024670823
000220 c0 6b 32 3d 0a 31 71 bb 90 78 13 bd b3 32 2a bd
       0.04355979 -0.0036802911 -0.03600365 -0.041552257
000230 ad ec 4b bc 15 8c b6 bc 4e 6d e0 bc 96 0f 08 be
       -0.012446565 -0.022283593 -0.02739587 -0.13287196
000240 22 f7 a9 bd 2c 42 d3 bd e3 4b 8e 3d e6 fc 8b 3d
       -0.0829909 -0.10315356 0.06948068 0.06835346
000250 ab 7c 56 bb a3 30 2b bc b0 4f 95 bd 18 a2 8e 3d
       -0.0032728116 -0.010448608 -0.0729059 0.06964511
000260 f0 e4 18 bd bc 41 49 3d 86 ef b6 3c 03 5a 70 bb
       -0.037327707 0.049134955 0.02233101 -0.0036674745
000270 d9 da 8c bd 9a dc bb 3d 0d 7a 56 3d 5b ca fb bc
       -0.068776794 0.09172936 0.05236249 -0.030736139
000280 f2 fa 2f bc bf 08 40 b8 3f 07 26 3d f9 7f 5c 3c
       -0.010740982 -4.5784513e-05 0.040534254 0.013458245
000290 47 54 aa 3d 87 2e 1a 3d 37 f4 85 bb 60 a3 dd bd
       0.08316856 0.03764203 -0.0040879506 -0.10822177
0002a0 cb 89 f1 bb 89 d5 41 3b 1b 9f 3e bd 61 a8 8a 3d
       -0.0073711625 0.002957674 -0.046538454 0.06770397
0002b0 96 31 b4 bc 6a 9d e8 bc ea 9b ad bd 22 4e 69 bd
       -0.0219963 -0.028395373 -0.08477004 -0.05695928
0002c0 37 02 21 3d 99 26 02 3d b5 ab a3 bc 40 68 c2 bb
       0.039308753 0.03177509 -0.019979337 -0.0059328377
0002d0 34 b9 8b bd de 2d 91 bd 32 50 f0 bc 7d 91 a4 3d
       -0.06822434 -0.070888266 -0.029335115 0.08035562
0002e0 fc e3 a3 3a bc 86 86 3d 71 10 37 3d f6 9b 10 bc
       0.0012503858 0.06568667 0.044693414 -0.0088262465
0002f0 83 5c ad 3c ec ef 40 3d b8 ee 63 3d 8c 89 b7 bc
       0.021162277 0.047103807 0.05564758 -0.022404455
000300 26 80 61 bd 3a 23 ad 3d 71 0c 12 be f8 1a 9a 3d
       -0.055053852 0.084539846 -0.14262559 0.07524675
000310 54 6d e9 bd a4 05 88 bc 00 02 15 3d cf 66 9d bd
       -0.11397806 -0.016604252 0.03637886 -0.07685625
000320 cb b8 3c 3d dd da b9 3d ff e9 bf bb 6e 83 77 3c
       0.04607467 0.09074948 -0.005856752 0.015107019
000330 29 ea 53 bd e2 63 97 bb ac 15 67 3d eb 80 4a 3d
       -0.051736984 -0.0046200613 0.056417152 0.049439352
000340 59 5d 85 3b a3 56 c7 bd fb e7 e4 bd 40 7d f0 bc
       0.004069966 -0.097333215 -0.11177059 -0.029356599
000350 ab fc 46 bd 08 a0 74 bd 31 09 8a bc c6 98 ca 3d
       -0.048580807 -0.05972293 -0.016850086 0.098924205
000360 af 31 a1 3d 76 7b a6 3d 33 6a 39 bd e4 61 4b 3d
       0.078708045 0.08129017 -0.045267295 0.049653903
000370 d9 9d 4c 3d 76 05 65 bd ec 87 0a bc 84 25 9b 3d
       0.049955223 -0.05591341 -0.008455258 0.07575515
000380 d1 34 cd bd b5 5b 0a bc 2c fc 36 bd 52 4f 05 3e
       -0.100198396 -0.008444716 -0.044674084 0.1301854
000390 aa 69 19 bd 86 0a 21 be a6 82 8e bd 73 26 85 bc
       -0.037454285 -0.1572667 -0.06958513 -0.016253686
0003a0 8d da a7 3d 37 08 a1 3d 58 e2 81 bc 1a 13 e4 3b
       0.08195982 0.07862895 -0.015855 0.006960285
0003b0 66 14 65 3d 7f 81 2e bd 55 d8 06 bd c5 52 8c 3b
       0.055927657 -0.042603966 -0.032921154 0.004282328
0003c0 12 7c 8b bd 9c aa 37 3d db 63 7b 3c 59 86 a5 bd
       -0.06810774 0.04484044 0.015343632 -0.080822654
0003d0 5f c8 d1 3d 04 ac 9c bc d1 eb 2b bd 73 92 62 bd
       0.10243296 -0.019124992 -0.04197294 -0.055315446
0003e0 1f 66 7a bb 3d dd 09 bd fb 24 1b 3d 8d c8 4a bd
       -0.0038207842 -0.033658255 0.037877064 -0.049507666
0003f0 92 c0 92 bd 33 02 ac bd 52 15 09 3d 0b 6e 15 3b
       -0.07165636 -0.08398857 0.0334676 0.0022801186
