min_as_settings/checkpoint_actorB_min_pre.pth (torch_old, 538202 bytes, 18 tensors)

bn0.weight f4 [24]
0.6146951 0.38101286 0.63711417 0.47446105 0.71359384 0.6190364 0.44253263 0.09576863
0.6141572 0.057327677 0.565714 0.53322893 0.39005074 0.90884846 0.5333684 0.70733917
0.7115973 0.20503418 0.30778277 0.98085886 0.010261295 0.46604085 0.46037513 0.8546547
00000000: a85c 1d3f 1e14 c33e ea19 233f 8fec f23e
00000010: 16ae 363f 2b79 1e3f a393 e23e 5822 c43d
00000020: 6839 1d3f 6dd0 6a3d a2d2 103f b181 083f
00000030: bbb4 c73e 4baa 683f d58a 083f 2e14 353f
00000040: 3e2b 363f 7bf4 513e b495 9d3e 9119 7b3f
00000050: fe1e 283c e89c ee3e 4ab6 eb3e a7ca 5a3f

bn0.bias f4 [24]
0.0 0.0 0.0 0.0 0.0 0.0 0.0 0.0
0.0 0.0 0.0 0.0 0.0 0.0 0.0 0.0
0.0 0.0 0.0 0.0 0.0 0.0 0.0 0.0
00000000: 0000 0000 0000 0000 0000 0000 0000 0000
00000010: 0000 0000 0000 0000 0000 0000 0000 0000
00000020: 0000 0000 0000 0000 0000 0000 0000 0000
00000030: 0000 0000 0000 0000 0000 0000 0000 0000
00000040: 0000 0000 0000 0000 0000 0000 0000 0000
00000050: 0000 0000 0000 0000 0000 0000 0000 0000

bn0.running_mean f4 [24]
0.0 0.0 0.0 0.0 0.0 0.0 0.0 0.0
0.0 0.0 0.0 0.0 0.0 0.0 0.0 0.0
0.0 0.0 0.0 0.0 0.0 0.0 0.0 0.0
00000000: 0000 0000 0000 0000 0000 0000 0000 0000
00000010: 0000 0000 0000 0000 0000 0000 0000 0000
00000020: 0000 0000 0000 0000 0000 0000 0000 0000
00000030: 0000 0000 0000 0000 0000 0000 0000 0000
00000040: 0000 0000 0000 0000 0000 0000 0000 0000
00000050: 0000 0000 0000 0000 0000 0000 0000 0000

bn0.running_var f4 [24]
1.0 1.0 1.0 1.0 1.0 1.0 1.0 1.0
1.0 1.0 1.0 1.0 1.0 1.0 1.0 1.0
1.0 1.0 1.0 1.0 1.0 1.0 1.0 1.0
00000000: 0000 803f 0000 803f 0000 803f 0000 803f
00000010: 0000 803f 0000 803f 0000 803f 0000 803f
00000020: 0000 803f 0000 803f 0000 803f 0000 803f
00000030: 0000 803f 0000 803f 0000 803f 0000 803f
00000040: 0000 803f 0000 803f 0000 803f 0000 803f
00000050: 0000 803f 0000 803f 0000 803f 0000 803f

fc1.weight f4 [400, 24]
-0.08314638 -0.019986654 0.026283786 -0.09997213 0.0841485 -0.019189563 -0.009514844 -0.13516459
-0.044232786 0.0026711056 0.016846886 -0.076646134 0.021501403 -0.06323807 0.027940294 -0.05510598
0.01224418 -0.03241561 0.019232258 0.016585762 -0.0626137 -0.19626422 0.0041571073 0.051881682
-0.006831432 0.02292265 -0.025468454 0.06971082 0.037874553 -0.09370442 0.03122814 0.06990789
0.031821396 0.030893806 -0.015227982 0.09111109 -0.0076337582 -0.01089881 0.0212541 0.033405546
0.06854802 0.11196575 0.031837292 -0.021463744 -0.118997075 0.059421513 0.03614001 -0.038011108
-0.058000803 -0.036034048 0.0259053 -0.013029699 0.20601021 -0.035123095 -0.028094498 -0.024638716
-0.009446741 -0.07690281 -0.0049917283 -0.0063843774 0.025476635 -0.002249422 -0.011890867 0.017099146
-0.000286784 -0.010471768 -0.019388342 0.10706406 -0.0513811 -0.04242452 0.0075901533 0.06608057
-0.064161904 -0.039187804 0.019112622 -0.09855854 0.095872775 0.07876541 -0.02392656 -0.06671572
0.03410829 -0.004295956 -0.012341647 -0.017879693 0.0066526565 -0.011245422 0.01226665 -0.018217579
-0.0060080746 0.044400387 0.0137907 0.06790729 -0.10943859 0.089203425 -0.019109104 0.122239895
0.11669304 0.073735714 -0.005138503 0.010445371 0.07470588 -0.13372415 0.030207787 0.0012662048
0.061876137 -0.057617605 0.000102431935 0.01213561 0.032712594 0.06232419 0.015740514 -0.07493255
0.01712947 0.040504932 -0.039849218 -0.15231594 0.08825669 0.05661629 -0.04460865 -0.14237106
0.11021187 0.064017765 0.0024187602 0.11495405 -0.16650094 -0.08197857 0.00041372294 0.108532466
0.06649322 0.007500584 -0.009902507 -0.018210048 -0.08276089 0.046950817 0.005557092 0.04770505
0.02029672 -0.029186994 0.001155808 -0.13144316 0.0074085034 0.038471173 0.012286053 -0.18508703
0.06090067 -0.054403722 0.0052409284 0.09445144 0.1196755 -0.011039933 -0.014400224 0.1461859
0.056016434 0.009913196 0.045007452 0.019294737 -0.0247422 -0.100758135 0.044208266 0.07170652
0.070660785 -0.04828038 0.02047095 -0.04891189 -0.1323038 -0.13117893 -0.025478229 -0.0012253526
-0.0017561365 0.16370489 -0.00343906 -0.08858398 0.035378117 0.09444696 -0.008702154 -0.068594545
-0.0028766445 0.19362126 0.05252675 -0.106970206 0.056240257 0.05289581 -0.023501202 -0.096168354
0.01870428 0.13395017 6.300622e-06 0.00013120397 0.015964344 -0.012875653 -0.00013600707 0.037499424
-0.045320265 0.1601944 -0.000991234 -0.052567907 0.033093978 0.11212945 -0.0022479135 -0.11234957
0.0016834583 0.16349973 -0.0018881452 -0.020295767 0.060532182 0.10839146 -0.0042032003 -0.013442703
0.027364388 0.15699074 0.0036200904 0.019785518 0.02563177 0.081118196 -0.0038443753 0.04001495
0.016155161 -0.14975978 -0.032713868 -0.021728873 -0.025167303 -0.0850774 0.031371754 0.007846636
-0.032743268 -0.13695306 -0.036286347 -0.0040139877 -0.07374983 0.02099874 0.051701877 0.007224463
0.009291783 -0.09666403 0.03185244 0.052734543 0.0029736832 0.114161655 -0.024259252 0.0055337707
-0.063193224 0.078915246 -0.0037568703 -0.041302748 -0.073540464 0.14517973 0.012010125 -0.045288026
-0.0028664675 0.052771986 0.009225987 -0.018059857 0.00819357 0.018687 0.0083654085 0.055519477
00000000: a648 aabd 0dbb a3bc 1851 d73c 30be ccbd
00000010: 0c56 ac3d 6e33 9dbc 26e4 1bbc 9668 0abe
00000020: 702d 35bd b70d 2f3b 7b02 8a3c a6f8 9cbd
00000030: b623 b03c f682 81bd 0be3 e43c cfb6 61bd
00000040: d09b 483c 3bc6 04bd f88c 9d3c ddde 873c
00000050: 9d3b 80bd 7df9 48be 5838 883b e381 543d
00000060: 35da dfbb 48c8 bb3c 38a3 d0bc 8cc4 8e3d
00000070: 5922 1b3d 1ae8 bfbd 28d2 ff3c de2b 8f3d
00000080: 2757 023d 0215 fd3c c97e 79bc 7398 ba3d
00000090: 9b24 fabb ec90 32bc 141d ae3c 41d4 083d
000000a0: e862 8c3d 4d4e e53d d267 023d bcd4 afbc
000000b0: bdb4 f3bd f963 733d 8c07 143d 89b1 1bbd
000000c0: 4092 6dbd 7098 13bd 5a37 d43c 857a 55bc
000000d0: 57f4 523e 3cdd 0fbd 6f26 e6bc 22d7 c9bc
000000e0: 81c6 1abc 387f 9dbd a791 a3bb 0a34 d1bb
000000f0: 60b4 d03c 0a6b 13bb e9d1 42bc 8213 8c3c
00000100: 7f5b 96b9 c791 2bbc 4dd4 9ebc 6744 db3d
00000110: fd74 52bd 55c5 2dbd d2b6 f83b 4055 873d
00000120: 5167 83bd 6483 20bd 1392 9c3c 0fd9 c9bd
00000130: f258 c43d c24f a13d a201 c4bc 40a2 88bd
00000140: 22b5 0b3d 17c5 8cbb 9f34 4abc 6f78 92bc
00000150: 87fe d93b b83e 38bc 0ffa 483c 083d 95bc
00000160: 62df c4bb 2edd 353d 63f2 613c fa12 8b3d
00000170: 5721 e0bd 49b0 b63d b28a 9cbc e958 fa3d
00000180: c3fc ee3d c002 973d e360 a8bb 1023 2b3c
00000190: 65ff 983d fcee 08be 5276 f73c c8f6 a53a
000001a0: d571 7d3d 7000 6cbd bad0 d638 70d4 463c
000001b0: a4fd 053d a647 7f3d 40f2 803c 3d76 99bd
000001c0: 1a53 8c3c 80e8 253d ef38 23bd b6f8 1bbe
000001d0: ecbf b43d 7ce6 673d 8fb7 36bd b8c9 11be
000001e0: c3b6 e13d bf1b 833d 1084 1e3b 076d eb3d
000001f0: 397f 2abe 61e4 a7bd f4e8 d839 4546 de3d
00000200: 992d 883d 75c7 f53b 203e 22bc 3d2d 95bc
00000210: 8b7e a9bd 804f 403d 4418 b63b 5f66 433d
00000220: 4f45 a63c 9019 efbc 7b7e 973a 0999 06be
00000230: 08c3 f23b f393 1d3d 714b 493c 7487 3dbe
00000240: fb72 793d 70d6 5ebd 18bc ab3b c26f c13d
00000250: 6e18 f53d d6e0 34bc ebee 6bbc c2b1 153e
00000260: 7d71 653d f56a 223c bc59 383d ff0f 9e3c
00000270: 27b0 cabc 485a cebd ba13 353d deda 923d
00000280: 9ab6 903d a6c1 45bd b2b2 a73c d557 48bd
00000290: a67a 07be c553 06be b8b7 d0bc 039c a0ba
000002a0: 2a2e e6ba 41a2 273e da61 61bb 856b b5bd
000002b0: a5e8 103d 686d c13d 7b93 0ebc 4c7b 8cbd
000002c0: 1686 3cbb a744 463e 4a26 573d 3213 dbbd
000002d0: 2f5c 663d 47a9 583d 9885 c0bc eaf3 c4bd
000002e0: b839 993c 3c2a 093e ee69 d336 cc93 0939
000002f0: a8c7 823c 67f4 52bc 1f9d 0eb9 ff98 193d
00000300: bea1 39bd 000a 243e 4bec 81ba 7251 57bd
00000310: 8d8d 073d 20a4 e53d bb51 13bb 8817 e6bd
00000320: 7da7 dc3a 796c 273e a47b f7ba 4f43 a6bc
00000330: 98f0 773d 57fc dd3d 00bb 89bb c83e 5cbc
00000340: 482b e03c 2ec2 203e 0a3f 6d3b 3d15 a23c
00000350: b8f9 d13c 4c21 a63d eaf1 7bbb b7e6 233d
00000360: d457 843c a15a 19be fafe 05bd c000 b2bc
00000370: a92b cebc 0f3d aebd ab7f 003d 2d8f 003c
00000380: ce1d 06bd 6c3d 0cbe fea0 14bd c587 83bb
00000390: 270a 97bd 8d05 ac3c 59c5 533d 30bb ec3b
000003a0: 903c 183c caf7 c5bd b477 023d 2d00 583d
000003b0: 20e2 423b 96cd e93d 57bb c6bc a254 b53b
000003c0: 736b 81bd 519e a13d d335 76bb 122d 29bd
000003d0: 629c 96bd ffa9 143e 1ec6 443c f07f 39bd
000003e0: 58db 3bbb 7027 583d 9828 173c 44f2 93bc
000003f0: 533e 063c 7b15 993c 110f 093c 6468 633d

fc1.bias f4 [400]
0.021152241 -0.13576196 -0.1020466 -0.19584954 -0.11985496 0.0791108 -0.19339037 0.09436022
-0.08323938 0.16638969 -0.1787477 -0.184245 0.11701374 -0.19902226 0.06482387 -0.103873335
0.12058661 -0.20657797 0.23052265 0.18262228 0.0036273142 -0.0944794 0.023700235 -0.076193914
-0.010663117 0.20261629 0.1807536 0.10232676 -0.088153034 -0.0450519 0.1684689 -0.0200634
-0.15865707 -0.1991629 0.030370148 -0.07543875 0.08127007 -0.3259073 -0.10316143 0.04477854
-0.027439212 -0.013703027 0.15584673 0.04207247 -0.18753187 0.22170015 0.06234129 0.14159197
0.0015693991 0.1415643 -0.10117031 -0.11660976 -0.1398644 0.15422995 0.010769589 0.30895266
0.12999623 -0.19767556 0.07140739 0.054352697 -0.2142575 0.10324703 0.10668679 -0.25517648
-0.2537743 0.10805196 -0.044980485 0.2155496 0.07579294 0.12350486 0.012028913 0.02936345
0.061348967 0.080331326 0.17743364 -0.26921624 -0.10044371 0.06896138 0.084709875 -0.05686791
0.15727969 -0.00431106 0.05761247 0.27147418 -0.13476172 0.22779025 0.13164158 -0.19334592
-0.04056409 -0.11359549 -0.14052041 -0.2960706 0.057614606 -0.060388714 -0.29808223 -0.14898682
0.060436532 -0.059008706 -0.21508023 -0.32165027 -0.058400225 -0.14523503 0.13964732 0.092381656
-0.07127964 -0.094871946 0.1286957 -0.07193137 -0.10761097 0.064742275 0.11132647 -0.029947838
0.09160712 -0.12896249 0.0465767 -0.17465879 -0.023143707 -0.1362007 -0.06764421 -0.2138207
-0.07588046 0.22841123 -0.1916939 -0.013231864 0.13239159 -0.12334145 0.09288247 0.110235386
-0.07576372 -0.2526376 -0.23430814 -0.066388786 0.16998969 -0.029042788 0.12893958 -0.13139817
0.038997065 -0.06589993 -0.24125557 0.02395353 0.037267018 0.041330583 -0.08319369 -0.18641797
-0.06064125 -0.01852628 -0.09474781 0.08486216 0.22779836 -0.18245429 -0.2948308 -0.04779279
0.09820163 -0.037212875 -0.12758687 -0.22382085 -0.049307223 -0.233991 -0.30258954 -0.22870629
0.077542335 0.062673755 -0.16842313 -0.19479993 -0.158426 -0.044025574 0.08573052 -0.048985966
0.10540609 -0.024183549 -0.2379161 0.051426522 -0.13888879 -0.16163953 -0.17175466 -0.0032777572
-0.015553504 0.006455503 0.18784325 0.18556222 0.047013123 -0.2005542 0.05895508 -0.09862494
0.36287317 0.13603853 0.11859349 -0.1574693 0.095277585 0.15509015 -0.10932524 0.02126084
0.016726522 0.066635534 -0.2641525 0.17713626 -0.15405954 0.083964236 -0.018321209 0.0067330142
0.09710676 -0.12106482 -0.001441812 0.013597614 0.040970594 -0.12896925 -0.07520917 -0.121502236
-0.012054266 0.20975767 0.07630862 0.10292942 0.11709487 -0.27071777 0.20794362 0.14481819
0.19612966 0.043082617 0.035142817 0.06918713 0.11865926 0.09428053 0.1553055 0.048525695
-0.061905656 -0.21109186 -0.18590368 -0.16009383 -0.20802836 0.2203102 0.13456379 -0.0742682
-0.16637675 0.07688321 -0.17686051 0.09175288 0.12777817 0.04108286 0.2137025 0.033551622
0.13113153 -0.0892663 -0.028905544 -0.005565938 0.19651479 -0.20216152 -0.1466077 0.09312258
-0.17248134 0.15065919 0.26785177 -0.23390193 -0.014829457 -0.028996723 0.08207528 -0.22353284
00000000: 7747 ad3c 2f05 0bbe cffd d0bd c88c 48be
00000010: 8476 f5bd d804 a23d 2008 46be ee3f c13d
00000020: 6879 aabd 0f62 2a3e a309 37be b9aa 3cbe
00000030: e6a4 ef3d 7ecc 4bbe 61c2 843d 8bbb d4bd
00000040: 1df6 f63d 2d89 53be 210e 6c3e 5601 3b3e
00000050: 3cb8 6d3b 6a7e c1bd ff26 c23c 8e0b 9cbd
00000060: 5bb4 2ebc a57a 4f3e 7917 393e b190 d13d
00000070: 9489 b4bd 5788 38bd 1c83 2c3e 005c a4bc
00000080: 0077 22be 5cf1 4bbe d1ca f83c a27f 9abd
00000090: ec70 a63d 52dd a6be 4d46 d3bd b469 373d
000000a0: 33c8 e0bc a982 60bc 4996 1f3e 2f54 2c3d
000000b0: 5b08 40be 5d05 633e 9559 7f3d 7cfd 103e
000000c0: 4cb4 cd3a 3bf6 103e 6132 cfbd 19d1 eebd
000000d0: 9d38 0fbe 75ee 1d3e ee72 303c 0b2f 9e3e
000000e0: bb1d 053e 766b 4abe 0a3e 923d efa0 5e3d
000000f0: 5166 5bbe 2e73 d33d 9b7e da3d 7ea6 82be
00000100: b4ee 81be 594a dd3d 753d 38bd 09b9 5c3e
00000110: 5439 9b3d 1ef0 fc3d eb14 453c 9e8b f03c
00000120: 0e49 7b3d c084 a43d 2ab1 353e b6d6 89be
00000130: 6fb5 cdbd a03b 8d3d 5f7c ad3d 53ee 68bd
00000140: ed0d 213e cb43 8dbb 0efb 6b3d aafe 8a3e
00000150: fafe 09be d941 693e 0dcd 063e 79fc 45be
00000160: 8826 26bd c1a4 e8bd 95e4 0fbe 9196 97be
00000170: 4bfd 6b3d 285a 77bd 3c9e 98be 0090 18be
00000180: 4c8c 773d 1db3 71bd fe3d 5cbe 58af a4be
00000190: 1335 6fbd 7eb8 14be b5ff 0e3e 9832 bd3d
000001a0: 0ffb 91bd 394c c2bd cec8 033e c150 93bd
000001b0: 2463 dcbd 9997 843d 22ff e33d 2b55 f5bc
000001c0: 849c bb3d be0e 04be 36c7 3e3d c1d9 32be
000001d0: df97 bdbc 3278 0bbe 0c89 8abd d0f3 5abe
000001e0: 3767 9bbd a2e4 693e 684b 44be 76ca 58bc
000001f0: a991 073e 719a fcbd 2a39 be3d 17c3 e13d
00000200: 022a 9bbd b759 81be 79ee 6fbe d8f6 87bd
00000210: c711 2e3e 24eb edbc bd08 043e 3e8d 06be
00000220: 63bb 1f3d 8bf6 86bd b30b 77be 313a c43c
00000230: 4da5 183d 424a 293d 7461 aabd 5ae4 3ebe
00000240: f662 78bd 6dc4 97bc 240b c2bd 36cc ad3d
00000250: f943 693e 4cd5 3abe 10f4 96be 5fc2 43bd
00000260: f01d c93d 876c 18bd 22a6 02be 4b31 65be
00000270: 5ff6 49bd 569b 6fbe 04ed 9abe fb31 6abe
00000280: 84ce 9e3d 195b 803d 1d77 2cbe a279 47be
00000290: 6d3a 22be 2954 34bd 7c93 af3d 82a5 48bd
000002a0: 26df d73d 941c c6bc 47a0 73be 9ea4 523d
000002b0: dd38 0ebe d584 25be 74e0 2fbe a4cf 56bb
000002c0: 20d4 7ebc af88 d33b fb59 403e 0604 3e3e
000002d0: d590 403d 155e 4dbe e27a 713d dffb c9bd
000002e0: 83ca b93e af4d 0b3e 25e1 f23d a23f 21be
000002f0: e520 c33d f4cf 1e3e e9e5 dfbd 372b ae3c
00000300: 0f06 893c 3678 883d ff3e 87be 3563 353e
00000310: c9c1 1dbe 71f5 ab3d 5c16 96bc 9ea0 dc3b
00000320: e9df c63d d5f0 f7bd 2ffb bcba 87c8 5e3c
00000330: c8d0 273d 8410 04be 4407 9abd 2ad6 f8bd
00000340: 427f 45bc b7ca 563e b247 9c3d a9cc d23d
00000350: 6fcf ef3d 859b 8abe 2cef 543e 384b 143e
00000360: 37d6 483e 6677 303d eaf1 0f3d fbb1 8d3d
00000370: a003 f33d 2716 c13d 6808 1f3e e1c2 463d
00000380: c990 7dbd 7728 58be 895d 3ebe a3ef 23be
00000390: 6305 55be ff98 613e 17cb 093e ed19 98bd
000003a0: ab5e 2abe f274 9d3d ec1a 35be efe8 bb3d
000003b0: 48d8 023e 8046 283d d4d4 5a3e 6d6d 093d
000003c0: 5847 063e 40d1 b6bd 52cb ecbc 7962 b6bb
000003d0: 2c3b 493e 6e03 4fbe 5420 16be 0db7 be3d
000003e0: f39e 30be 6746 1a3e de23 893e fd83 6fbe
000003f0: 40f7 72bc 898a edbc 1617 a83d cbe5 64be

bn1.weight f4 [400]
0.9575575 0.06640983 0.7639897 0.5367592 0.91271347 0.5284617 0.39946902 0.43783718
0.1321401 0.9111679 0.80308473 0.59208155 0.47998044 0.28676063 0.5245883 0.6401433
0.3194477 0.5322872 0.9162528 0.13997197 0.33262962 0.8876694 0.95747536 0.91511256
0.3663752 0.8054445 0.6272024 0.38583967 0.42413014 0.8634711 0.83514607 0.8171028
0.3164611 8.7320805e-05 0.30048907 0.70855355 0.02203774 0.7815445 0.26324308 0.8382832
0.14111471 0.30353594 0.027377123 0.16053322 0.39008412 0.37568682 0.5002541 0.74801576
0.33413386 0.8359558 0.39628166 0.26657045 0.42477632 0.71224964 0.25378072 0.10058836
0.09437096 0.45595843 0.710505 0.816325 0.5303332 0.37719005 0.33466434 0.01692909
0.13876766 0.3188603 0.41817877 0.6818854 0.85516995 0.24195449 0.18057916 0.00829953
0.6146345 0.99509156 0.84148353 0.96859103 0.61432457 0.30725062 0.9007155 0.6338995
0.7931817 0.1709814 0.3147865 0.20901084 0.08540696 0.84889656 0.17872024 0.17235112
0.45894894 0.15907142 0.56931865 0.30678248 0.86883116 0.6461663 0.5539618 0.67978394
0.4265884 0.012228369 0.94171286 0.42879194 0.5161225 0.270046 0.8564461 0.39945754
0.34956878 0.60135853 0.40807158 0.358364 0.5914659 0.79541916 0.16109052 0.91885394
0.7719735 0.8158923 0.56732535 0.48718953 0.43565303 0.47482276 0.12970388 0.3855996
0.61306655 0.22889645 0.8502934 0.7776112 0.30741215 0.35592824 0.42731944 0.52851284
0.9734977 0.7173131 0.8315492 0.46835038 0.5116857 0.090718925 0.52619976 0.7413621
0.17395735 0.63527113 0.857337 0.49780816 0.22247028 0.97487307 0.8363146 0.005418062
0.17909402 0.78670555 0.09111291 0.44419408 0.97728705 0.20341676 0.7505313 0.79476595
0.8048672 0.18384665 0.43447965 0.7937909 0.3124532 0.9698648 0.22120059 0.31459117
0.5779178 0.20591588 0.341896 0.71039927 0.30765224 0.0012100339 0.4017249 0.13658917
0.8114225 0.25537372 0.87069637 0.78170514 0.5489642 0.5686016 0.24001205 0.75826645
0.90380794 0.18699014 0.3481114 0.5202355 0.76157427 0.93587047 0.6677305 0.5130776
0.51324046 0.86485153 0.8589924 0.027339637 0.28527862 0.1457156 0.103598356 0.43009225
0.9157423 0.14776778 0.010864139 0.6620896 0.41705522 0.60665286 0.48017594 0.7063078
0.048606623 0.031066716 0.327152 0.53457016 0.5632336 0.54864943 0.62420243 0.6677128
0.86901647 0.78679925 0.72877574 0.31762564 0.6613671 0.34174865 0.14926794 0.35749382
0.72232884 0.58706534 0.07943207 0.22569643 0.36990064 0.05071509 0.4550066 0.5094298
0.88934666 0.05449176 0.44438237 0.9802211 0.35391784 0.38624647 0.93363696 0.7570511
0.26172042 0.32946813 0.20896511 0.18726397 0.2645507 0.66113776 0.29234833 0.38350224
0.7486726 0.26673335 0.8227787 0.4846161 0.23811871 0.4273739 0.9739087 0.15730354
0.5372945 0.8733546 0.08643465 0.6246251 0.8360637 0.65308636 0.5628089 0.296561
00000000: 7d22 753f e001 883d d494 433f 0d69 093f
00000010: 97a7 693f 4449 073f 3487 cc3e 322c e03e
00000020: bc4f 073e 4d42 693f f696 4d3f a892 173f
00000030: ffbf f53e 4ad2 923e 6b4b 063f 6ee0 233f
00000040: a68e a33e f943 083f 8b8f 6a3f d054 0f3e
00000050: 6e4e aa3e 4d3e 633f 1b1d 753f d144 6a3f
00000060: 8895 bb3e 9c31 4e3f 5690 203f c78c c53e
00000070: 9627 d93e 710c 5d3f 22cc 553f a62d 513f
00000080: 3007 a23e 0020 b738 b4d9 993e c463 353f
00000090: 7e88 b43c 4d13 483f ccc7 863e ba99 563f
000000a0: 6080 103e 1069 9b3e fd45 e03c d262 243e
000000b0: 1bb9 c73e 065a c03e a710 003f f67d 3f3f
000000c0: 9813 ab3e 3301 563f 6ee5 ca3e ec7b 883e
000000d0: 487c d93e fe55 363f 8cef 813e 4501 ce3d
000000e0: 9045 c13d 6273 e93e a8e3 353f adfa 503f
000000f0: ebc3 073f 0e1f c13e 2059 ab3e e0ae 8a3c
00000100: 1c19 0e3e a841 a33e 871b d63e 0b90 2e3f
00000110: 6bec 5a3f ebc2 773e bee9 383e c0fa 073c
00000120: b058 1d3f 52be 7e3f 776b 573f 95f5 773f
00000130: 6044 1d3f f44f 9d3e 4a95 663f 3d47 223f
00000140: f50d 4b3f c015 2f3e b22b a13e f006 563e
00000150: d8e9 ae3d 4951 593f 7002 373e d07c 303e
00000160: 5bfb ea3e 9ee3 223e debe 113f 9812 9d3e
00000170: b86b 5e3f 286b 253f 71d0 0d3f 5206 2e3f
00000180: cb69 da3e 7f59 483c 1814 713f 9e8a db3e
00000190: 9b20 043f 7843 8a3e 0d40 5b3f b385 cc3e
000001a0: aefa b23e a2f2 193f c2ee d03e 7c7b b73e
000001b0: 4f6a 173f 97a0 4b3f eaf4 243e 033a 6b3f
000001c0: 0ea0 453f 51de 503f 3c3c 113f e870 f93e
000001d0: ea0d df3e f81b f33e 18d1 043e 506d c53e
000001e0: eef1 1c3f d563 6a3e d4ac 593f 8711 473f
000001f0: 2065 9d3e 3a3c b63e 9dc9 da3e 9e4c 073f
00000200: 2537 793f d5a1 373f 69e0 543f 9fcb ef3e
00000210: d6fd 023f d8ca b93d 07b5 063f e8c9 3d3f
00000220: e021 323e 21a1 223f 707a 5b3f b6e0 fe3e
00000230: 40cf 633e 4891 793f b718 563f 008a b13b
00000240: 6c64 373e 8965 493f 6899 ba3d 686d e33e
00000250: 7c2f 7a3f 7c4c 503e d222 403f c875 4b3f
00000260: c70b 4e3f 4c42 3c3e 1e74 de3e e135 4b3f
00000270: def9 9f3e 0f49 783f 6882 623e 1812 a13e
00000280: 6cf2 133f 9ddb 523e fe0c af3e badc 353f
00000290: 9884 9d3e 009a 9e3a e3ae cd3e 08de 0b3e
000002a0: 63b9 4f3f 58c0 823e f5e5 5e3f d41d 483f
000002b0: eb88 0c3f e08f 113f b8c5 753e c01d 423f
000002c0: f55f 673f 587a 3f3e a83b b23e 272e 053f
000002d0: 88f6 423f 3595 6f3f 63f0 2a3f 0e59 033f
000002e0: ba63 033f e966 5d3f ede6 5b3f 60f7 df3c
000002f0: 0a10 923e 7836 153e 602b d43d 0d35 dc3e
00000300: 166e 6a3f 7050 173e 80ff 313c b47e 293f
00000310: 4388 d53e 9a4d 1b3f 9fd9 f53e 97d0 343f
00000320: bd17 473d a07f fe3c 7880 a73e 97d9 083f
00000330: 1430 103f 4a74 0c3f bbcb 1f3f 3aef 2a3f
00000340: dd77 5e3f ad6b 493f 0c91 3a3f d49f a23e
00000350: 5b4f 293f aef9 ae3e b2d9 183e 6e09 b73e
00000360: 8bea 383f ea49 163f 48ad a23d f71c 673e
00000370: 9e63 bd3e a0ba 4f3d a0f6 e83e fe69 023f
00000380: 39ac 633f c032 5f3d 1686 e33e c5ef 7a3f
00000390: b834 b53e 19c2 c53e d502 6f3f 1ace 413f
000003a0: 3800 863e 0cb0 a83e f3fa 553e 20c2 3f3e
000003b0: 3073 873e 5340 293f aeae 953e 685a c43e
000003c0: 02a9 3f3f 4691 883e a0a1 523f 9a1f f83e
000003d0: 64d5 733e c0d0 da3e 1552 793f 2e14 213e
000003e0: 228c 093f 2b94 5f3f a604 b13d 6ee7 1f3f
000003f0: 4508 563f ab30 273f 3e14 103f d8d6 973e

bn1.bias f4 [400]
0.0 0.0 0.0 0.0 0.0 0.0 0.0 0.0
0.0 0.0 0.0 0.0 0.0 0.0 0.0 0.0
0.0 0.0 0.0 0.0 0.0 0.0 0.0 0.0
0.0 0.0 0.0 0.0 0.0 0.0 0.0 0.0
0.0 0.0 0.0 0.0 0.0 0.0 0.0 0.0
0.0 0.0 0.0 0.0 0.0 0.0 0.0 0.0
0.0 0.0 0.0 0.0 0.0 0.0 0.0 0.0
0.0 0.0 0.0 0.0 0.0 0.0 0.0 0.0
0.0 0.0 0.0 0.0 0.0 0.0 0.0 0.0
0.0 0.0 0.0 0.0 0.0 0.0 0.0 0.0
0.0 0.0 0.0 0.0 0.0 0.0 0.0 0.0
0.0 0.0 0.0 0.0 0.0 0.0 0.0 0.0
0.0 0.0 0.0 0.0 0.0 0.0 0.0 0.0
0.0 0.0 0.0 0.0 0.0 0.0 0.0 0.0
0.0 0.0 0.0 0.0 0.0 0.0 0.0 0.0
0.0 0.0 0.0 0.0 0.0 0.0 0.0 0.0
0.0 0.0 0.0 0.0 0.0 0.0 0.0 0.0
0.0 0.0 0.0 0.0 0.0 0.0 0.0 0.0
0.0 0.0 0.0 0.0 0.0 0.0 0.0 0.0
0.0 0.0 0.0 0.0 0.0 0.0 0.0 0.0
0.0 0.0 0.0 0.0 0.0 0.0 0.0 0.0
0.0 0.0 0.0 0.0 0.0 0.0 0.0 0.0
0.0 0.0 0.0 0.0 0.0 0.0 0.0 0.0
0.0 0.0 0.0 0.0 0.0 0.0 0.0 0.0
0.0 0.0 0.0 0.0 0.0 0.0 0.0 0.0
0.0 0.0 0.0 0.0 0.0 0.0 0.0 0.0
0.0 0.0 0.0 0.0 0.0 0.0 0.0 0.0
0.0 0.0 0.0 0.0 0.0 0.0 0.0 0.0
0.0 0.0 0.0 0.0 0.0 0.0 0.0 0.0
0.0 0.0 0.0 0.0 0.0 0.0 0.0 0.0
0.0 0.0 0.0 0.0 0.0 0.0 0.0 0.0
0.0 0.0 0.0 0.0 0.0 0.0 0.0 0.0
00000000: 0000 0000 0000 0000 0000 0000 0000 0000
00000010: 0000 0000 0000 0000 0000 0000 0000 0000
00000020: 0000 0000 0000 0000 0000 0000 0000 0000
00000030: 0000 0000 0000 0000 0000 0000 0000 0000
00000040: 0000 0000 0000 0000 0000 0000 0000 0000
00000050: 0000 0000 0000 0000 0000 0000 0000 0000
00000060: 0000 0000 0000 0000 0000 0000 0000 0000
00000070: 0000 0000 0000 0000 0000 0000 0000 0000
00000080: 0000 0000 0000 0000 0000 0000 0000 0000
00000090: 0000 0000 0000 0000 0000 0000 0000 0000
000000a0: 0000 0000 0000 0000 0000 0000 0000 0000
000000b0: 0000 0000 0000 0000 0000 0000 0000 0000
000000c0: 0000 0000 0000 0000 0000 0000 0000 0000
000000d0: 0000 0000 0000 0000 0000 0000 0000 0000
000000e0: 0000 0000 0000 0000 0000 0000 0000 0000
000000f0: 0000 0000 0000 0000 0000 0000 0000 0000
00000100: 0000 0000 0000 0000 0000 0000 0000 0000
00000110: 0000 0000 0000 0000 0000 0000 0000 0000
00000120: 0000 0000 0000 0000 0000 0000 0000 0000
00000130: 0000 0000 0000 0000 0000 0000 0000 0000
00000140: 0000 0000 0000 0000 0000 0000 0000 0000
00000150: 0000 0000 0000 0000 0000 0000 0000 0000
00000160: 0000 0000 0000 0000 0000 0000 0000 0000
00000170: 0000 0000 0000 0000 0000 0000 0000 0000
00000180: 0000 0000 0000 0000 0000 0000 0000 0000
00000190: 0000 0000 0000 0000 0000 0000 0000 0000
000001a0: 0000 0000 0000 0000 0000 0000 0000 0000
000001b0: 0000 0000 0000 0000 0000 0000 0000 0000
000001c0: 0000 0000 0000 0000 0000 0000 0000 0000
000001d0: 0000 0000 0000 0000 0000 0000 0000 0000
000001e0: 0000 0000 0000 0000 0000 0000 0000 0000
000001f0: 0000 0000 0000 0000 0000 0000 0000 0000
00000200: 0000 0000 0000 0000 0000 0000 0000 0000
00000210: 0000 0000 0000 0000 0000 0000 0000 0000
00000220: 0000 0000 0000 0000 0000 0000 0000 0000
00000230: 0000 0000 0000 0000 0000 0000 0000 0000
00000240: 0000 0000 0000 0000 0000 0000 0000 0000
00000250: 0000 0000 0000 0000 0000 0000 0000 0000
00000260: 0000 0000 0000 0000 0000 0000 0000 0000
00000270: 0000 0000 0000 0000 0000 0000 0000 0000
00000280: 0000 0000 0000 0000 0000 0000 0000 0000
00000290: 0000 0000 0000 0000 0000 0000 0000 0000
000002a0: 0000 0000 0000 0000 0000 0000 0000 0000
000002b0: 0000 0000 0000 0000 0000 0000 0000 0000
000002c0: 0000 0000 0000 0000 0000 0000 0000 0000
000002d0: 0000 0000 0000 0000 0000 0000 0000 0000
000002e0: 0000 0000 0000 0000 0000 0000 0000 0000
000002f0: 0000 0000 0000 0000 0000 0000 0000 0000
00000300: 0000 0000 0000 0000 0000 0000 0000 0000
00000310: 0000 0000 0000 0000 0000 0000 0000 0000
00000320: 0000 0000 0000 0000 0000 0000 0000 0000
00000330: 0000 0000 0000 0000 0000 0000 0000 0000
00000340: 0000 0000 0000 0000 0000 0000 0000 0000
00000350: 0000 0000 0000 0000 0000 0000 0000 0000
00000360: 0000 0000 0000 0000 0000 0000 0000 0000
00000370: 0000 0000 0000 0000 0000 0000 0000 0000
00000380: 0000 0000 0000 0000 0000 0000 0000 0000
00000390: 0000 0000 0000 0000 0000 0000 0000 0000
000003a0: 0000 0000 0000 0000 0000 0000 0000 0000
000003b0: 0000 0000 0000 0000 0000 0000 0000 0000
000003c0: 0000 0000 0000 0000 0000 0000 0000 0000
000003d0: 0000 0000 0000 0000 0000 0000 0000 0000
000003e0: 0000 0000 0000 0000 0000 0000 0000 0000
000003f0: 0000 0000 0000 0000 0000 0000 0000 0000

bn1.running_mean f4 [400]
0.0 0.0 0.0 0.0 0.0 0.0 0.0 0.0
0.0 0.0 0.0 0.0 0.0 0.0 0.0 0.0
0.0 0.0 0.0 0.0 0.0 0.0 0.0 0.0
0.0 0.0 0.0 0.0 0.0 0.0 0.0 0.0
0.0 0.0 0.0 0.0 0.0 0.0 0.0 0.0
0.0 0.0 0.0 0.0 0.0 0.0 0.0 0.0
0.0 0.0 0.0 0.0 0.0 0.0 0.0 0.0
0.0 0.0 0.0 0.0 0.0 0.0 0.0 0.0
0.0 0.0 0.0 0.0 0.0 0.0 0.0 0.0
0.0 0.0 0.0 0.0 0.0 0.0 0.0 0.0
0.0 0.0 0.0 0.0 0.0 0.0 0.0 0.0
0.0 0.0 0.0 0.0 0.0 0.0 0.0 0.0
0.0 0.0 0.0 0.0 0.0 0.0 0.0 0.0
0.0 0.0 0.0 0.0 0.0 0.0 0.0 0.0
0.0 0.0 0.0 0.0 0.0 0.0 0.0 0.0
0.0 0.0 0.0 0.0 0.0 0.0 0.0 0.0
0.0 0.0 0.0 0.0 0.0 0.0 0.0 0.0
0.0 0.0 0.0 0.0 0.0 0.0 0.0 0.0
0.0 0.0 0.0 0.0 0.0 0.0 0.0 0.0
0.0 0.0 0.0 0.0 0.0 0.0 0.0 0.0
0.0 0.0 0.0 0.0 0.0 0.0 0.0 0.0
0.0 0.0 0.0 0.0 0.0 0.0 0.0 0.0
0.0 0.0 0.0 0.0 0.0 0.0 0.0 0.0
0.0 0.0 0.0 0.0 0.0 0.0 0.0 0.0
0.0 0.0 0.0 0.0 0.0 0.0 0.0 0.0
0.0 0.0 0.0 0.0 0.0 0.0 0.0 0.0
0.0 0.0 0.0 0.0 0.0 0.0 0.0 0.0
0.0 0.0 0.0 0.0 0.0 0.0 0.0 0.0
0.0 0.0 0.0 0.0 0.0 0.0 0.0 0.0
0.0 0.0 0.0 0.0 0.0 0.0 0.0 0.0
0.0 0.0 0.0 0.0 0.0 0.0 0.0 0.0
0.0 0.0 0.0 0.0 0.0 0.0 0.0 0.0
00000000: 0000 0000 0000 0000 0000 0000 0000 0000
00000010: 0000 0000 0000 0000 0000 0000 0000 0000
00000020: 0000 0000 0000 0000 0000 0000 0000 0000
00000030: 0000 0000 0000 0000 0000 0000 0000 0000
00000040: 0000 0000 0000 0000 0000 0000 0000 0000
00000050: 0000 0000 0000 0000 0000 0000 0000 0000
00000060: 0000 0000 0000 0000 0000 0000 0000 0000
00000070: 0000 0000 0000 0000 0000 0000 0000 0000
00000080: 0000 0000 0000 0000 0000 0000 0000 0000
00000090: 0000 0000 0000 0000 0000 0000 0000 0000
000000a0: 0000 0000 0000 0000 0000 0000 0000 0000
000000b0: 0000 0000 0000 0000 0000 0000 0000 0000
000000c0: 0000 0000 0000 0000 0000 0000 0000 0000
000000d0: 0000 0000 0000 0000 0000 0000 0000 0000
000000e0: 0000 0000 0000 0000 0000 0000 0000 0000
000000f0: 0000 0000 0000 0000 0000 0000 0000 0000
00000100: 0000 0000 0000 0000 0000 0000 0000 0000
00000110: 0000 0000 0000 0000 0000 0000 0000 0000
00000120: 0000 0000 0000 0000 0000 0000 0000 0000
00000130: 0000 0000 0000 0000 0000 0000 0000 0000
00000140: 0000 0000 0000 0000 0000 0000 0000 0000
00000150: 0000 0000 0000 0000 0000 0000 0000 0000
00000160: 0000 0000 0000 0000 0000 0000 0000 0000
00000170: 0000 0000 0000 0000 0000 0000 0000 0000
00000180: 0000 0000 0000 0000 0000 0000 0000 0000
00000190: 0000 0000 0000 0000 0000 0000 0000 0000
000001a0: 0000 0000 0000 0000 0000 0000 0000 0000
000001b0: 0000 0000 0000 0000 0000 0000 0000 0000
000001c0: 0000 0000 0000 0000 0000 0000 0000 0000
000001d0: 0000 0000 0000 0000 0000 0000 0000 0000
000001e0: 0000 0000 0000 0000 0000 0000 0000 0000
000001f0: 0000 0000 0000 0000 0000 0000 0000 0000
00000200: 0000 0000 0000 0000 0000 0000 0000 0000
00000210: 0000 0000 0000 0000 0000 0000 0000 0000
00000220: 0000 0000 0000 0000 0000 0000 0000 0000
00000230: 0000 0000 0000 0000 0000 0000 0000 0000
00000240: 0000 0000 0000 0000 0000 0000 0000 0000
00000250: 0000 0000 0000 0000 0000 0000 0000 0000
00000260: 0000 0000 0000 0000 0000 0000 0000 0000
00000270: 0000 0000 0000 0000 0000 0000 0000 0000
00000280: 0000 0000 0000 0000 0000 0000 0000 0000
00000290: 0000 0000 0000 0000 0000 0000 0000 0000
000002a0: 0000 0000 0000 0000 0000 0000 0000 0000
000002b0: 0000 0000 0000 0000 0000 0000 0000 0000
000002c0: 0000 0000 0000 0000 0000 0000 0000 0000
000002d0: 0000 0000 0000 0000 0000 0000 0000 0000
000002e0: 0000 0000 0000 0000 0000 0000 0000 0000
000002f0: 0000 0000 0000 0000 0000 0000 0000 0000
00000300: 0000 0000 0000 0000 0000 0000 0000 0000
00000310: 0000 0000 0000 0000 0000 0000 0000 0000
00000320: 0000 0000 0000 0000 0000 0000 0000 0000
00000330: 0000 0000 0000 0000 0000 0000 0000 0000
00000340: 0000 0000 0000 0000 0000 0000 0000 0000
00000350: 0000 0000 0000 0000 0000 0000 0000 0000
00000360: 0000 0000 0000 0000 0000 0000 0000 0000
00000370: 0000 0000 0000 0000 0000 0000 0000 0000
00000380: 0000 0000 0000 0000 0000 0000 0000 0000
00000390: 0000 0000 0000 0000 0000 0000 0000 0000
000003a0: 0000 0000 0000 0000 0000 0000 0000 0000
000003b0: 0000 0000 0000 0000 0000 0000 0000 0000
000003c0: 0000 0000 0000 0000 0000 0000 0000 0000
000003d0: 0000 0000 0000 0000 0000 0000 0000 0000
000003e0: 0000 0000 0000 0000 0000 0000 0000 0000
000003f0: 0000 0000 0000 0000 0000 0000 0000 0000

bn1.running_var f4 [400]
1.0 1.0 1.0 1.0 1.0 1.0 1.0 1.0
1.0 1.0 1.0 1.0 1.0 1.0 1.0 1.0
1.0 1.0 1.0 1.0 1.0 1.0 1.0 1.0
1.0 1.0 1.0 1.0 1.0 1.0 1.0 1.0
1.0 1.0 1.0 1.0 1.0 1.0 1.0 1.0
1.0 1.0 1.0 1.0 1.0 1.0 1.0 1.0
1.0 1.0 1.0 1.0 1.0 1.0 1.0 1.0
1.0 1.0 1.0 1.0 1.0 1.0 1.0 1.0
1.0 1.0 1.0 1.0 1.0 1.0 1.0 1.0
1.0 1.0 1.0 1.0 1.0 1.0 1.0 1.0
1.0 1.0 1.0 1.0 1.0 1.0 1.0 1.0
1.0 1.0 1.0 1.0 1.0 1.0 1.0 1.0
1.0 1.0 1.0 1.0 1.0 1.0 1.0 1.0
1.0 1.0 1.0 1.0 1.0 1.0 1.0 1.0
1.0 1.0 1.0 1.0 1.0 1.0 1.0 1.0
1.0 1.0 1.0 1.0 1.0 1.0 1.0 1.0
1.0 1.0 1.0 1.0 1.0 1.0 1.0 1.0
1.0 1.0 1.0 1.0 1.0 1.0 1.0 1.0
1.0 1.0 1.0 1.0 1.0 1.0 1.0 1.0
1.0 1.0 1.0 1.0 1.0 1.0 1.0 1.0
1.0 1.0 1.0 1.0 1.0 1.0 1.0 1.0
1.0 1.0 1.0 1.0 1.0 1.0 1.0 1.0
1.0 1.0 1.0 1.0 1.0 1.0 1.0 1.0
1.0 1.0 1.0 1.0 1.0 1.0 1.0 1.0
1.0 1.0 1.0 1.0 1.0 1.0 1.0 1.0
1.0 1.0 1.0 1.0 1.0 1.0 1.0 1.0
1.0 1.0 1.0 1.0 1.0 1.0 1.0 1.0
1.0 1.0 1.0 1.0 1.0 1.0 1.0 1.0
1.0 1.0 1.0 1.0 1.0 1.0 1.0 1.0
1.0 1.0 1.0 1.0 1.0 1.0 1.0 1.0
1.0 1.0 1.0 1.0 1.0 1.0 1.0 1.0
1.0 1.0 1.0 1.0 1.0 1.0 1.0 1.0
00000000: 0000 803f 0000 803f 0000 803f 0000 803f
00000010: 0000 803f 0000 803f 0000 803f 0000 803f
00000020: 0000 803f 0000 803f 0000 803f 0000 803f
00000030: 0000 803f 0000 803f 0000 803f 0000 803f
00000040: 0000 803f 0000 803f 0000 803f 0000 803f
00000050: 0000 803f 0000 803f 0000 803f 0000 803f
00000060: 0000 803f 0000 803f 0000 803f 0000 803f
00000070: 0000 803f 0000 803f 0000 803f 0000 803f
00000080: 0000 803f 0000 803f 0000 803f 0000 803f
00000090: 0000 803f 0000 803f 0000 803f 0000 803f
000000a0: 0000 803f 0000 803f 0000 803f 0000 803f
000000b0: 0000 803f 0000 803f 0000 803f 0000 803f
000000c0: 0000 803f 0000 803f 0000 803f 0000 803f
000000d0: 0000 803f 0000 803f 0000 803f 0000 803f
000000e0: 0000 803f 0000 803f 0000 803f 0000 803f
000000f0: 0000 803f 0000 803f 0000 803f 0000 803f
00000100: 0000 803f 0000 803f 0000 803f 0000 803f
00000110: 0000 803f 0000 803f 0000 803f 0000 803f
00000120: 0000 803f 0000 803f 0000 803f 0000 803f
00000130: 0000 803f 0000 803f 0000 803f 0000 803f
00000140: 0000 803f 0000 803f 0000 803f 0000 803f
00000150: 0000 803f 0000 803f 0000 803f 0000 803f
00000160: 0000 803f 0000 803f 0000 803f 0000 803f
00000170: 0000 803f 0000 803f 0000 803f 0000 803f
00000180: 0000 803f 0000 803f 0000 803f 0000 803f
00000190: 0000 803f 0000 803f 0000 803f 0000 803f
000001a0: 0000 803f 0000 803f 0000 803f 0000 803f
000001b0: 0000 803f 0000 803f 0000 803f 0000 803f
000001c0: 0000 803f 0000 803f 0000 803f 0000 803f
000001d0: 0000 803f 0000 803f 0000 803f 0000 803f
000001e0: 0000 803f 0000 803f 0000 803f 0000 803f
000001f0: 0000 803f 0000 803f 0000 803f 0000 803f
00000200: 0000 803f 0000 803f 0000 803f 0000 803f
00000210: 0000 803f 0000 803f 0000 803f 0000 803f
00000220: 0000 803f 0000 803f 0000 803f 0000 803f
00000230: 0000 803f 0000 803f 0000 803f 0000 803f
00000240: 0000 803f 0000 803f 0000 803f 0000 803f
00000250: 0000 803f 0000 803f 0000 803f 0000 803f
00000260: 0000 803f 0000 803f 0000 803f 0000 803f
00000270: 0000 803f 0000 803f 0000 803f 0000 803f
00000280: 0000 803f 0000 803f 0000 803f 0000 803f
00000290: 0000 803f 0000 803f 0000 803f 0000 803f
000002a0: 0000 803f 0000 803f 0000 803f 0000 803f
000002b0: 0000 803f 0000 803f 0000 803f 0000 803f
000002c0: 0000 803f 0000 803f 0000 803f 0000 803f
000002d0: 0000 803f 0000 803f 0000 803f 0000 803f
000002e0: 0000 803f 0000 803f 0000 803f 0000 803f
000002f0: 0000 803f 0000 803f 0000 803f 0000 803f
00000300: 0000 803f 0000 803f 0000 803f 0000 803f
00000310: 0000 803f 0000 803f 0000 803f 0000 803f
00000320: 0000 803f 0000 803f 0000 803f 0000 803f
00000330: 0000 803f 0000 803f 0000 803f 0000 803f
00000340: 0000 803f 0000 803f 0000 803f 0000 803f
00000350: 0000 803f 0000 803f 0000 803f 0000 803f
00000360: 0000 803f 0000 803f 0000 803f 0000 803f
00000370: 0000 803f 0000 803f 0000 803f 0000 803f
00000380: 0000 803f 0000 803f 0000 803f 0000 803f
00000390: 0000 803f 0000 803f 0000 803f 0000 803f
000003a0: 0000 803f 0000 803f 0000 803f 0000 803f
000003b0: 0000 803f 0000 803f 0000 803f 0000 803f
000003c0: 0000 803f 0000 803f 0000 803f 0000 803f
000003d0: 0000 803f 0000 803f 0000 803f 0000 803f
000003e0: 0000 803f 0000 803f 0000 803f 0000 803f
000003f0: 0000 803f 0000 803f 0000 803f 0000 803f

fc2.weight f4 [300, 400]
0.08481392 -0.0038942345 0.07144649 -0.049190894 0.04680069 0.109619185 0.036410347 -0.03234
0.0017937493 -0.0055864532 -0.08412931 0.038205888 -0.03174042 0.01662054 -0.022262959 0.013476398
-0.017720724 -0.16529147 0.10624745 0.0021648624 0.05113008 -0.11465878 -0.05696008 -0.04774856
0.016674029 -0.072274156 0.11631825 0.020436376 -0.019339805 0.03111878 0.099447496 0.0053888885
0.017612867 -0.013645121 -0.07694232 -0.003755223 0.06082987 -0.09921729 -0.050983407 -0.05196857
0.041481163 0.06839628 -0.04654675 -0.0023442227 -0.086221635 -0.1311486 -0.00203707 0.01723499
-0.21100155 -0.108051464 -0.058798812 -0.04479407 -0.11065607 0.08569344 -0.06580538 0.02485588
0.01083662 -0.112117335 -0.046870857 0.029006114 -0.048000686 0.013865595 -0.113946155 0.020199727
0.011286356 0.09481576 0.023667466 0.03729779 0.030545522 0.04046501 0.07982751 -0.0031531118
0.030437918 0.0411443 0.06368779 -0.015416286 -0.027443467 0.018816283 0.071288556 0.1036389
-0.07967454 -0.14089398 0.07292266 -0.025009824 -0.007893122 0.015961671 -0.019821892 -0.021377066
0.022155872 -0.020062065 -0.07232256 0.007626133 -0.0151216015 -0.03783447 -0.04804299 -0.059764493
-0.044954047 0.037760336 0.021786189 0.033507712 -0.10312404 0.01932938 0.030822294 0.029885076
-0.11500225 0.03709396 0.040062122 -0.0050181034 -0.012360434 -0.08467145 0.047959656 -0.06601539
0.015189564 -0.06222428 -0.05518483 0.0352141 -0.033107996 0.03646001 -0.008023255 -0.08772449
-0.006752332 -0.028308602 -0.067627214 -0.007221685 0.05251607 -0.052550886 0.0057208296 0.047563177
-0.02674691 -0.034907904 -0.105701245 -0.0024599154 0.021967959 0.0038243681 0.08433338 -0.024658386
0.043558285 -0.0036864348 -0.03600334 -0.04155094 -0.012446115 -0.022293095 -0.027397756 -0.13288702
-0.08299392 -0.10315853 0.069468364 0.068338476 -0.0032716866 -0.010447198 -0.07290785 0.06964506
-0.03732952 0.049125616 0.02232693 -0.0036662114 -0.068769954 0.09172664 0.052377872 -0.030742703
-0.010742797 -5.9429836e-05 0.04053694 0.013459156 0.08316284 0.03763734 -0.0040831515 -0.10823438
-0.0073674517 0.0029607324 -0.04653638 0.06769864 -0.022002392 -0.028391564 -0.08477225 -0.056956314
0.03931738 0.03177039 -0.01998099 -0.005929868 -0.06822941 -0.07087961 -0.029340455 0.08035956
0.0012337274 0.06568685 0.044696447 -0.0088277785 0.02114967 0.047115304 0.055644594 -0.02240974
-0.0550597 0.084539 -0.1426293 0.075253084 -0.11398673 -0.016604066 0.036359448 -0.07684758
0.046060283 0.09075418 -0.0058935005 0.015099937 -0.051736575 -0.0046245973 0.056412775 0.04943973
0.0040754643 -0.09733069 -0.111768164 -0.029356321 -0.04858953 -0.05974208 -0.01685062 0.09891407
0.07869733 0.081284456 -0.045275416 0.04964995 0.04993852 -0.05591481 -0.008454482 0.07576114
-0.100206584 -0.008460097 -0.044684444 0.13019574 -0.037458375 -0.15726559 -0.06958332 -0.016259067
0.081970036 0.07863389 -0.015845928 0.0069584073 0.055931702 -0.042608004 -0.032915503 0.0042822603
-0.06811919 0.04484352 0.015337293 -0.080828905 0.102438785 -0.0191265 -0.041976616 -0.055327587
-0.0038344462 -0.033667263 0.037872434 -0.0495118 -0.07166831 -0.08399141 0.033462416 0.0022770646
00000000: ecb2 ad3d 6a36 7fbb 8a52 923d 647c 49bd
00000010: 15b2 3f3d 0680 e03d 0423 153d f376 04bd
00000020: 3d1c eb3a 910e b7bb fd4b acbd c77d 1c3d
00000030: 3e02 02bd cc27 883c cf60 b6bc 1ccc 5c3c
00000040: 0d2b 91bc 2b42 29be 4398 d93d 5de0 0d3b
00000050: c66d 513d 39d2 eabd f94e 69bd fe93 43bd
00000060: f997 883c 7904 94bd 4338 ee3d 306a a73c
00000070: 836e 9ebc d0ec fe3c 21ab cb3d 4695 b03b
00000080: dc48 903c c98f 5fbc ef93 9dbd 301a 76bb
00000090: be28 793d 6f32 cbbd fad3 50bd ffdc 54bd
000000a0: 27e8 293d 5913 8c3d cea7 3ebd 88a1 19bb
000000b0: f894 b0bd d24b 06be 5d80 05bb 6530 8d3c
000000c0: ca10 58be 164a ddbd 06d7 70bd fd79 37bd
000000d0: a69f e2bd 0b80 af3d f9c4 86bd 8f9e cb3c
000000e0: 148c 313c c69d e5bd a8fb 3fbd 3b9e ed3c
000000f0: 5e9c 44bd 852c 633c 9a5c e9bd e679 a53c
00000100: 68ea 383c c42e c23d 46e2 c13c 91c5 183d
00000110: 9a3a fa3c a3be 253d 9b7c a33d 70a4 4ebb
00000120: f158 f93c ed86 283d be6e 823d 9794 7cbc
00000130: 1fd1 e0bc 9b24 9a3c bcff 913d a240 d43d
00000140: 682c a3bd 8346 10be 7a58 953d 67e1 ccbc
00000150: 2752 01bc 0dc2 823c 8561 a2bc f51e afbc
00000160: 3b80 b53c 3359 a4bc da1d 94bd a4e4 f93b
00000170: 98c0 77bc 51f8 1abd bac8 44bd 9dcb 74bd
00000180: bc21 38bd 95aa 1a3d f378 b23c 623f 093d
00000190: b232 d3bd a658 9e3c 097f fc3c 8cd1 f43c
000001a0: 4d86 ebbd d6ef 173d 2e18 243d e76e a4bb
000001b0: 6b83 4abc 3a68 adbd 5871 443d 1433 87bd
000001c0: a6dd 783c e3de 7ebd 7d09 62bd a93c 103d
000001d0: 409c 07bd 1757 153d f873 03bc e6a8 b3bd
000001e0: ab42 ddbb 71e7 e7bc 2380 8abd e2a3 ecbb
000001f0: 171b 573d 993f 57bd cc75 bb3b 9bd1 423d
00000200: 561c dbbc 97fb 0ebd e579 d8bd 8836 21bb
00000210: 26f6 b33c 40a2 7a3b fbb6 ac3d 6200 cabc
00000220: 2c6a 323d 1d98 71bb 3d78 13bd 5231 2abd
00000230: caea 4bbc 02a0 b6bc 4271 e0bc 8913 08be
00000240: b7f8 a9bd c844 d3bd 6e45 8e3d 0bf5 8b3d
00000250: cb69 56bb b92a 2bbc b650 95bd 12a2 8e3d
00000260: d7e6 18bd f137 493d f7e6 b63c d244 70bb
00000270: 43d7 8cbd 2ddb bb3d 2e8a 563d 1fd8 fbbc
00000280: 8e02 30bc 4d44 79b8 100a 263d cb83 5c3c
00000290: 4751 aa3d 9d29 1a3d f5cb 85bb fda9 ddbd
000002a0: aa6a f1bb d908 423b ee9c 3ebd 96a5 8a3d
000002b0: 5c3e b4bc 6d95 e8bc 139d adbd 064b 69bd
000002c0: 430b 213d ab21 023d 2caf a3bc 574f c2bb
000002d0: dcbb 8bbd 5429 91bd 655b f0bc 8e93 a43d
000002e0: 06b5 a13a d486 863d 9f13 373d 63a2 10bc
000002f0: 1342 ad3c fafb 403d 96eb 633d a294 b7bc
00000300: 4886 61bd c922 ad3d 6a0d 12be 4a1e 9a3d
00000310: e071 e9bd 4005 88bc a5ed 143d 4462 9dbd
00000320: b5a9 3c3d 54dd b93d 441e c1bb ba65 773c
00000330: bbe9 53bd ef89 97bb 1511 673d 5081 4a3d
00000340: 798b 853b 5055 c7bd b5e6 e4bd ab7c f0bc
00000350: d105 47bd 1cb4 74bd 500a 8abc 7693 ca3d
00000360: 112c a13d 7778 a63d b772 39bd bf5d 4b3d
00000370: 558c 4c3d ee06 65bd ab84 0abc a828 9b3d
00000380: 1c39 cdbd 389c 0abc 0907 37bd 0852 053e
00000390: f46d 19bd 3b0a 21be b381 8ebd bc31 85bc
000003a0: e8df a73d ce0a a13d 52cf 81bc 5a03 e43b
000003b0: a418 653d bb85 2ebd 68d2 06bd 3452 8c3b
000003c0: 1382 8bbd d7ad 373d 4549 7b3c a089 a5bd
000003d0: 6dcb d13d 2daf 9cbc acef 2bbd 2e9f 62bd
000003e0: 554b 7bbb afe6 09bd 2020 1b3d e3cc 4abd
000003f0: d6c6 92bd b003 acbd e30f 093d ce3a 153b

fc2.bias f4 [300]
0.078200005 0.041996848 0.10819379 -0.016851667 0.023808235 -0.010624871 0.04492271 -0.012319662
0.027246546 -0.079503365 0.04564885 0.038664274 0.048186593 0.028787607 -0.0036947546 0.004942472
-0.07894299 -0.016906174 -0.0339041 0.04907611 0.067319594 -0.106805235 -0.027458292 0.0040477775
-0.048168182 -0.011078411 -0.010474372 0.03098954 0.076833144 0.03562909 0.06919446 0.019397127
-0.02931581 -0.022148117 0.025231414 0.04582513 0.028391583 -0.0061197164 0.0754435 -0.08296621
0.071467936 0.02459519 0.05460014 0.102050416 -0.022587141 -0.05369565 0.05768333 0.00040770296
0.06386594 0.09818059 0.1117459 -0.044346552 0.056901503 0.04553046 0.021990221 0.03603301
0.019711595 0.06282407 -0.056469586 -0.017095232 -8.2352e-05 -0.05831423 0.046832576 0.062925376
-0.015467035 0.03844986 -0.022236206 0.03636562 0.04918596 0.09745859 0.07620125 0.049596045
0.10186823 0.053740807 -0.008914168 0.015110301 -0.009153257 -0.02555335 0.007258088 -0.07229631
0.053468123 0.011418724 -0.04238622 -0.070302926 -0.029636227 0.0067933444 -0.034464672 0.01848372
0.033240784 -0.041770887 -0.016215723 -0.020477146 0.025836578 0.05084077 0.014905005 -0.0259376
-0.014845761 0.0786714 -0.045047957 0.029787647 0.0018857068 0.02476275 0.0325381 0.03201939
0.009084456 0.07037092 -0.011711989 0.013547796 0.045447905 0.055993833 -0.027948521 0.060932767
0.05550666 0.043433607 -0.007934027 -0.016146677 0.04832591 0.006932926 0.03272744 0.023832442
0.048393425 0.054500688 0.013909954 0.04548482 -0.0009000546 -0.01770303 -0.057075284 0.048943162
0.012076474 0.030010125 0.025273954 -0.024588885 -0.005434418 0.06851016 0.0135222105 0.0051391623
0.035686035 -0.09112144 0.03809358 0.055313412 0.02547864 0.017844994 -0.038385693 0.041270994
-0.03374794 -0.002851568 0.02728572 0.010493988 0.04939571 -0.008931557 0.038428634 -0.008129063
0.044229083 -0.0069752056 0.03289982 -0.0048344815 0.018392393 0.025055198 0.07904471 -0.066165425
0.04361753 -0.014038722 0.0057244236 0.0043406133 0.04169523 0.04809675 -0.007379521 -0.05555019
0.0400799 0.081218295 -0.019231806 -0.021673905 0.03311187 0.09379251 0.05342132 0.07920817
0.055439707 0.067867145 0.083070934 0.04499359 0.011103687 -0.0051625147 0.021539161 0.018056532
-0.023667386 -0.02378138 0.06435717 0.0043539964 -0.11595866 0.0037454553 0.084060505 0.051623587
0.056624483 -0.025001215 0.024502985 0.031515453 0.0016854843 -0.021315299 0.04207984 0.027323965
0.052947737 0.06151796 -0.054243278 0.034729786 -0.084679 0.06303399 0.007187388 -0.0025087025
0.056209914 -0.03912489 0.028893951 0.101661384 -0.07542595 -0.0320652 0.0011621328 0.064066045
0.05749466 -0.036968846 0.08375832 0.066193976 0.0034277425 -0.044902254 0.033297915 0.03706348
-0.015624141 0.08143986 0.014359634 -0.05029025 0.017133834 0.082089566 0.012897468 -0.057127483
-0.040331442 0.015696784 0.02320918 -0.03981896 -0.0516618 -0.025198586 -0.0021096785 0.020587942
0.08374388 -0.010758732 -0.043447915 0.039987497 0.04757213 -0.030163482 -0.050561193 -0.05575268
-0.036867782 0.006060403 0.04323497 -0.07652741 0.029860625 -0.067067385 0.005068336 0.045918666
00000000: 5327 a03d e304 2c3d b594 dd3d 820c 8abc
00000010: 7d09 c33c f013 2ebc e000 383d 68d8 49bc
00000020: 2634 df3c a9d2 a2bd 4afa 3a3d 6e5e 1e3d
00000030: 4e5f 453d fdd3 eb3c b223 72bb 76f4 a13b
00000040: ddac a1bd d17e 8abc 07df 0abd 0804 493d
00000050: dbde 893d b4bc dabd 36f0 e0bc 38a3 843b
00000060: 004c 45bd 3982 35bc b39c 2bbc c7dd fd3c
00000070: b25a 9d3d cfef 113d d3b5 8d3d b9e6 9e3c
00000080: b627 f0bc f86f b5bc 1cb2 ce3c 22b3 3b3d
00000090: 7795 e83c e787 c8bb 1f82 9a3d 30ea a9bd
000000a0: c85d 923d da7b c93c 65a4 5f3d cfff d03d
000000b0: ab08 b9bc f8ef 5bbd 5b45 6c3d f7c0 d539
000000c0: 25cc 823d e812 c93d 09db e43d bba4 35bd
000000d0: 8d11 693d 267e 3a3d d624 b43c 5997 133d
000000e0: 367a a13c e8a9 803d a74c 67bd 4d0b 8cbc
000000f0: 65b4 acb8 e7da 6ebd 84d3 3f3d 05df 803d
00000100: 7269 7dbc 9a7d 1d3d b428 b6bc 1ef4 143d
00000110: 3877 493d 5f98 c73d 670f 9c3d 3925 4b3d
00000120: 4aa0 d03d 521f 5c3d bb0c 12bc 3291 773c
00000130: 8bf7 15bc 4255 d1bc 41d5 ed3b 1610 94bd
00000140: 6401 5b3d 9a15 3b3c 2c9d 2dbd fbfa 8fbd
00000150: acc7 f2bc b49a de3b d42a 0dbd 2c6b 973c
00000160: 7d27 083d f317 2bbd d6d6 84bc b0bf a7bc
00000170: 3ba7 d33c 693e 503d 1f34 743c 177b d4bc
00000180: a23b 73bc 791e a13d 3584 38bd 3905 f43c
00000190: d229 f73a 40db ca3c ac46 053d c426 033d
000001a0: f8d6 143c a11e 903d a4e3 3fbc 93f7 5d3c
000001b0: 9527 3a3d ca59 653d 4cf4 e4bc a394 793d
000001c0: f45a 633d 70e7 313d b9fd 01bc 0946 84bc
000001d0: 64f1 453d 992d e33b 350d 063d 413c c33c
000001e0: 2f38 463d 1d3c 5f3d 93e6 633c 4a4e 3a3d
000001f0: a4f1 6bba f205 91bc c6c7 69bd a078 483d
00000200: 67dc 453c cbd7 f53c 530b cf3c a16e c9bc
00000210: 3413 b2bb 0e4f 8c3d 438c 5d3c 6b66 a83b
00000220: 852b 123d e19d babd 0408 1c3d 5190 623d
00000230: 95b8 d03c aa2f 923c 513a 1dbd c60b 293d
00000240: 483b 0abd 5fe1 3abb 4d86 df3c faee 2b3c
00000250: 2853 4a3d aa55 12bc 5867 1d3d c32f 05bc
00000260: 8e29 353d 4490 e4bb f6c1 063d 926a 9ebb
00000270: a5ab 963c 8f40 cd3c 31e2 a13d bd81 87bd
00000280: 4ca8 323d ab02 66bc f293 bb3b b43b 8e3b
00000290: 9ec8 2a3d 1901 453d e9cf f1bb 9988 63bd
000002a0: d22a 243d c755 a63d 058c 9dbc 798d b1bc
000002b0: 50a0 073d 4a16 c03d 50d0 5a3d e537 a23d
000002c0: bf14 633d eefd 8a3d 1821 aa3d 334b 383d
000002d0: 3dec 353c 502a a9bb e572 b03c 4beb 933c
000002e0: 1be2 c1bc 2bd1 c2bc b1cd 833d f8ab 8e3b
000002f0: bc7b edbd 5076 753b ea27 ac3d 4173 533d
00000300: 13ef 673d 59cf ccbc 7cba c83c 5916 013d
00000310: 78eb dc3a 6c9d aebc e95b 2c3d 82d6 df3c
00000320: badf 583d 42fa 7b3d 332e 5ebd d240 0e3d
00000330: 2f6c adbd f717 813d 2e84 eb3b 0b69 24bb
00000340: 5e3c 663d 6c41 20bd 02b3 ec3c d833 d03d
00000350: ec78 9abd cd56 03bd b552 983a 0f35 833d
00000360: 857f 6b3d a56c 17bd 7b89 ab3d b590 873d
00000370: faa3 603b 6deb 37bd 6563 083d e0cf 173d
00000380: 66fc 7fbc f1c9 a63d ac44 6b3c 26fd 4dbd
00000390: 415c 8c3c 931e a83d e74f 533c 82fe 69bd
000003a0: 9532 25bd 8b96 803c 2e21 be3c 3519 23bd
000003b0: 539b 53bd 446d cebc 8842 0abb 0ba8 a83c
000003c0: e981 ab3d 6545 30bc 71f6 31bd eec9 233d
000003d0: feda 423d 6819 f7bc 4119 4fbd ec5c 64bd
000003e0: ac02 17bd 5896 c63b 2717 313d 67ba 9cbd
000003f0: 459e f43c a05a 89bd 4914 a63b 3615 3c3d
