checkpoint_actorB_min.pth (torch_old, 538202 bytes, 18 tensors)

bn0.weight f4 [24]
00000000: a85c 1d3f 1e14 c33e ea19 233f 8fec f23e
00000010: 16ae 363f 2b79 1e3f a393 e23e 5822 c43d
00000020: 6839 1d3f 6dd0 6a3d a2d2 103f b181 083f
00000030: bbb4 c73e 4baa 683f d58a 083f 2e14 353f
00000040: 3e2b 363f 7bf4 513e b495 9d3e 9119 7b3f
00000050: fe1e 283c e89c ee3e 4ab6 eb3e a7ca 5a3f
0.6146951 0.38101286 0.63711417 0.47446105 0.71359384 0.6190364 0.44253263 0.09576863
0.6141572 0.057327677 0.565714 0.53322893 0.39005074 0.90884846 0.5333684 0.70733917
0.7115973 0.20503418 0.30778277 0.98085886 0.010261295 0.46604085 0.46037513 0.8546547

bn0.bias f4 [24]
00000000: 0000 0000 0000 0000 0000 0000 0000 0000
00000010: 0000 0000 0000 0000 0000 0000 0000 0000
00000020: 0000 0000 0000 0000 0000 0000 0000 0000
00000030: 0000 0000 0000 0000 0000 0000 0000 0000
00000040: 0000 0000 0000 0000 0000 0000 0000 0000
00000050: 0000 0000 0000 0000 0000 0000 0000 0000
0.0 0.0 0.0 0.0 0.0 0.0 0.0 0.0
0.0 0.0 0.0 0.0 0.0 0.0 0.0 0.0
0.0 0.0 0.0 0.0 0.0 0.0 0.0 0.0

bn0.running_mean f4 [24]
00000000: 0000 0000 0000 0000 0000 0000 0000 0000
00000010: 0000 0000 0000 0000 0000 0000 0000 0000
00000020: 0000 0000 0000 0000 0000 0000 0000 0000
00000030: 0000 0000 0000 0000 0000 0000 0000 0000
00000040: 0000 0000 0000 0000 0000 0000 0000 0000
00000050: 0000 0000 0000 0000 0000 0000 0000 0000
0.0 0.0 0.0 0.0 0.0 0.0 0.0 0.0
0.0 0.0 0.0 0.0 0.0 0.0 0.0 0.0
0.0 0.0 0.0 0.0 0.0 0.0 0.0 0.0

bn0.running_var f4 [24]
00000000: 0000 803f 0000 803f 0000 803f 0000 803f
00000010: 0000 803f 0000 803f 0000 803f 0000 803f
00000020: 0000 803f 0000 803f 0000 803f 0000 803f
00000030: 0000 803f 0000 803f 0000 803f 0000 803f
00000040: 0000 803f 0000 803f 0000 803f 0000 803f
00000050: 0000 803f 0000 803f 0000 803f 0000 803f
1.0 1.0 1.0 1.0 1.0 1.0 1.0 1.0
1.0 1.0 1.0 1.0 1.0 1.0 1.0 1.0
1.0 1.0 1.0 1.0 1.0 1.0 1.0 1.0

fc1.weight f4 [400, 24]
00000000: e184 10bd b4ac 36bd d02a 353c a107 bdbc
00000010: 2b03 333d 4b71 1a3e 43a4 cabc c6a3 6ebd
00000020: b812 47bb 00ea c5bc fd30 b1bb 6879 40bd
00000030: 8090 583c a1fe b63d d446 ba3b 4686 d0bc
00000040: d0da 593d f519 48bd c64e 143b 8e20 f1bc
00000050: c7eb 6dbc 13d0 37be c7e3 51bc 0eec bf3b
00000060: f989 81bb 3d4a 02bd a313 eebc 2e45 23bb
00000070: af88 8d3c bf24 9bbd 8b56 e23c 3a5a 16bb
00000080: ef9d 0f3d 6583 e9bc afe0 97bc 0001 933c
00000090: d325 b9bc ccaa 683d b3f2 923c b7d3 22bd
000000a0: ac6d 793d 8dcc 093d ed22 03b8 90f1 beba
000000b0: 6044 22be 6a04 b53d 8ff3 8b3b 1f79 93bc
000000c0: 6b29 58bd 80c9 4e3d ebbf c33c 89d1 bcbd
000000d0: e79f 383d 554e d7bd d294 f6bc 4697 d4bd
000000e0: c2bf 543a e252 5d3c bae9 243c 4246 13bd
000000f0: cdd0 3cbc 4172 52bd 388d 4f3b d95f 4cbc
00000100: d71e 08bc 5376 8a3d 4013 b4bc c55a 413e
00000110: 6621 99bc 5a12 ab3b 92a5 a33b 0761 173e
00000120: ecb0 85bc 3c5e 16bc 6f8f dd3c 637c 09bd
00000130: f104 0cbd 9e9c 08be 1bf9 82bc a4d2 e1ba
00000140: c8aa 9c3d c7a6 8d3c d577 a3bc e3a5 9a3d
00000150: e8bd 2bbd 7015 c2bd 6a6b 983b a9f4 993d
00000160: 8c2b df3b b89e a43c 772f 0e3c ba2d 9bbd
00000170: 9829 dfbd b25c 3c3e ee65 c6bc 06a5 afbc
00000180: f7fc 8a3d d8a5 8f3e 470a a0bc a898 bf3d
00000190: edb3 a8bd 6921 42be e97a 813c 20cf ac3d
000001a0: 67f9 983c 48a0 663e ab77 11bb 54a4 473d
000001b0: db52 1bbe 4941 f4bb 6ad3 5b3c f7f4 1cbd
000001c0: ccc5 02bd 5acc ab3e d3a4 36ba ae5a bcbc
000001d0: 95ce a1bd f145 1f3c 37d3 b2bb bcc3 55bc
000001e0: ff44 323d 5c94 cc3d ffd5 023a c388 e3bb
000001f0: 9f0e e2bd a191 c4bd e165 c5ba b5f5 5abc
00000200: 1a6e 023d 0b15 b63d 6838 163c 519a 49bd
00000210: 414a 153a 1154 6a3d 43bd c93c e6b8 883c
00000220: c828 b8bc 3bcf 4e3d 72d8 e2bc 2f3c da3a
00000230: ca46 9c3d a31c d23d adad 87bc b7db 54bd
00000240: 0ab0 883d 76a5 2abd 5067 173c c556 4dbd
00000250: 0e3f 993b 5300 e43d f45d 2abc ccdd d03a
00000260: 0862 693d eff1 8a3b 34ff 403b fc5a 80bd
00000270: 052f b5bd e3be 2f3e 2d9b 0c3b 0a39 28bc
00000280: b68b b33d 95e5 5bbd 7289 f23c 7b25 54bc
00000290: f87f 1abe 138d a03a bbd8 85bc 3644 0e3d
000002a0: cb43 383c e3b8 263d 0c84 f13b ee70 85bc
000002b0: 90c9 2d3e f228 f8bd 8f27 0a3b 3460 723b
000002c0: 3427 db39 d961 5a3d a75b 2a3d 63c4 c8bc
000002d0: 4a5a 143e 7f4b 00bd 6203 0dbd db8d 60bc
000002e0: d2a0 9d3c 83b1 90bc 1084 2fbb 1515 0fbd
000002f0: 829c c53c fbde ca3d 4cd7 38bb f36a 1f3b
00000300: fad8 1abd 8862 c33e c328 b7bc d405 ef3d
00000310: beca 12bd 6359 89bd 5473 c1bc fb37 693d
00000320: f682 17bc 61f9 bc3e 04e3 febb d003 a83c
00000330: a03a 8e3c 3435 80bc 495f 25bc 3326 e03c
00000340: e6d2 af3c 3737 b23e 7d55 52bc f588 04be
00000350: 9869 64bb 7ef5 a4bc 3e4e a6bc 2fa1 dfbd
00000360: fd1c 483d 4138 6f36 ef50 f6bc b27d 53bc
00000370: 34b0 0abe 959c 2bbd 9b4f 0b3d 7383 883c
00000380: 7863 53bc 6690 3f3c 7053 26bd 12dc cd3b
00000390: 3080 9fbd 42a2 ff3c d60f 423d bd84 8f3c
000003a0: b1f7 2b3c bd8b 503d c464 073d f3ad 533c
000003b0: aa5d d63d 5b98 753d 73d3 bcbc e963 0cbd
000003c0: d59b 59bd 07b4 183d 7fce 18bc 6aa5 e9bc
000003d0: 2d72 ffbd 0014 16bc b2f8 d23b cd26 05bd
000003e0: 111d 7a3a 3ab6 273c 72fc 67ba 6961 32bd
000003f0: 9a80 40bd 65e5 66bd 10c4 e4ba d5ed f53c
-0.035282973 -0.044598296 0.011057571 -0.023074927 0.043704193 0.1508228 -0.02473653 -0.058261655
-0.0030376147 -0.024159431 -0.005407451 -0.046990782 0.013218045 0.08935285 0.005684713 -0.025454652
0.05318719 -0.04885288 0.002262996 -0.029434469 -0.014521546 -0.17950468 -0.012810654 0.0058569973
-0.003953215 -0.03180908 -0.029062098 -0.002491306 0.01727709 -0.07575368 0.027629158 -0.0022941963
0.035062727 -0.028505037 -0.018539755 0.017944813 -0.022601044 0.05680351 0.017937994 -0.03975269
0.060895607 0.03364234 -3.126536e-05 -0.0014567841 -0.15846395 0.088387325 0.004270978 -0.018002091
-0.052773874 0.050485134 0.023895225 -0.09219653 0.04507437 -0.105129875 -0.03010026 -0.103804156
0.00081157323 0.01350853 0.01006549 -0.035955675 -0.011524391 -0.051378492 0.0031669866 -0.012474024
-0.008308134 0.0676085 -0.021981835 0.18882282 -0.018692683 0.0052206935 0.0049941028 0.14783107
-0.016319714 -0.009177741 0.027045934 -0.03356589 -0.0341844 -0.13340995 -0.015987923 -0.0017228913
0.076497614 0.01729144 -0.019954601 0.07551172 -0.041929156 -0.09476745 0.0046514766 0.07517368
0.006810611 0.020095214 0.008678309 -0.07577081 -0.10896605 0.18394735 -0.024218526 -0.021440994
0.067865305 0.28056216 -0.01953615 0.09355289 -0.08237443 -0.18958057 0.015805678 0.084379435
0.018673612 0.2252208 -0.0022196572 0.0487407 -0.15168326 -0.0074540717 0.013417104 -0.038319554
-0.031926915 0.33554345 -0.000696731 -0.022992458 -0.079007305 0.009721265 -0.0054573077 -0.013047155
0.04352283 0.09989235 0.00049909943 -0.0069437935 -0.11037945 -0.09598089 -0.001506027 -0.013364245
0.031843282 0.088907324 0.009168722 -0.049219433 0.00056949636 0.05720908 0.02462638 0.016689729
-0.022480384 0.0504906 -0.0276911 0.0016650016 0.076306894 0.10259368 -0.016562307 -0.05196735
0.06674202 -0.041661702 0.00924094 -0.050131578 0.004676706 0.11132874 -0.010398377 0.0015935241
0.056978256 0.0042402665 0.0029448988 -0.06267354 -0.08846859 0.17162661 0.0021454797 -0.010267505
0.08766882 -0.053685743 0.029606555 -0.012948389 -0.15087879 0.0012249075 -0.016338697 0.03473302
0.011246632 0.040703665 0.0073704775 -0.0162892 0.16971421 -0.12117185 0.0021080708 0.003698361
0.00041800144 0.05331597 0.041591313 -0.024507707 0.14487568 -0.031322 -0.034427054 -0.013705696
0.019241724 -0.01766277 -0.0026781596 -0.034932215 0.02412248 0.099058114 -0.0028204499 0.0024325221
-0.03780458 0.3816111 -0.022358304 0.116710335 -0.03583788 -0.06706502 -0.023614563 0.056938153
-0.009247532 0.3690901 -0.007778527 0.02050963 0.017361939 -0.01565037 -0.0100935185 0.027361965
0.021462869 0.3480775 -0.012837765 -0.1294287 -0.0034852978 -0.020136591 -0.02030098 -0.10919415
0.04885577 3.564652e-06 -0.030067889 -0.012908386 -0.13543779 -0.041897375 0.034011465 0.016664242
-0.012902133 0.011692142 -0.040606916 0.006282338 -0.07788122 0.0312053 0.047378384 0.01751935
0.010496066 0.050914515 0.033055082 0.012919891 0.10467084 0.05995975 -0.023050046 -0.03427497
-0.05312713 0.037281062 -0.009326576 -0.028521258 -0.12472949 -0.009160042 0.006438338 -0.032507706
0.00095410744 0.010236317 -0.0008849568 -0.04354993 -0.046997644 -0.05637111 -0.0017453451 0.030020634

fc1.bias f4 [400]
00000000: 034a 5f3d 78e6 fbbd 1244 16be 5717 48bd
00000010: 3d11 17be 837e 4c3d 20a2 62be 2fdf 163e
00000020: 6721 8fbc 558f 363e 247a 53be a92b 86bd
00000030: e933 083e 50ed 0dbe f601 0a3d 7623 27be
00000040: 2c16 0d3e c62f 28be 6f69 5c3e 5216 4d3e
00000050: 7c2b 58bc 6471 a6bd 176d ec3d 291c 853d
00000060: 7e5e 2a3e fe0c 2e3e fcfb 3c3e 189b 2e3e
00000070: c3b9 cbbd bf78 d8bd 6461 4a3e b3e1 e03d
00000080: 485e 3fbe dca9 ebbd ca36 3c3e b1a6 c2bc
00000090: ed0f c23d 1b2f 8cbe 08f2 0fbe 1381 813d
000000a0: 9263 c73d caf6 50bd e966 b2bc fa7e 5b3d
000000b0: 2c67 51be fbd3 363e a121 ce3d d9df 553e
000000c0: 6150 45bd b245 353e f889 11bd 63bb c2bd
000000d0: 09d5 3abe 05b5 ca3d 74ee 613b 708f 9f3e
000000e0: 4449 6a3e 3139 f2bd 66f5 123e 4c87 013e
000000f0: ee4a 0dbe 1762 4c3e 12b2 aabc faaa 69be
00000100: aac4 4fbe 2fab 0b3e ae0f 0bbe 1f05 0b3e
00000110: d8cd 3a3e eee5 f43d 2df5 45ba ee62 bc3c
00000120: 8ab4 a73d 1d10 833e 04eb c03d 3ec9 80be
00000130: 7378 f23c 6161 94bc 268c a33d 6bb6 6dbd
00000140: 2b64 8c3e 2c00 68bb b69d a43d 84d9 903e
00000150: b8b2 52be a7fd 853e 1be9 7d3c b013 43be
00000160: ddd5 92bd ada3 88bd 5d0c 15be 0b73 5bbe
00000170: 6c81 5bbb fde2 6a3d ddbb 2ebe 61a4 0bbe
00000180: 2c26 283e 4db4 86bd d88a 64be 1544 6fbe
00000190: bde5 e5bd b7b7 61be 4094 933d df26 3c3d
000001a0: a88a 3ebe e2dc e3bd 8133 dd3d d61e dd3d
000001b0: 10d7 efbd a51c 18bd a63a 323e 032d 49bd
000001c0: ab49 793d 8290 b6bd 90ac c7ba 9fde d7bd
000001d0: c491 c83c 660e edbd b051 efbd 5c79 52be
000001e0: ba90 adbd 3fcd 103e de61 39be 4dd8 16bc
000001f0: 333e 8b3d 44a6 56bd b2d0 4b3e 00a5 db3b
00000200: 22e6 c8bd 18c8 8cbe 3a57 4ebe 8105 8dba
00000210: dd67 873e 499c 913d 086b be3d 815f 71bd
00000220: c57f f3bc 2d35 103c 4053 64be cf65 8c3d
00000230: 84a1 05bd 8205 bd3d a2c8 c7bd 07e1 58be
00000240: cc4a 003d 168d 263d 416b 1fbe 868c 0f3e
00000250: 11ff ce3d c92d a5bd ce63 6dbe aefc e2bd
00000260: 6ee7 0e3e ef1f 2a3d fe76 32be 1e99 14be
00000270: b201 0d3c ca87 f0bd 6d14 26be e915 1cbe
00000280: ef46 0c3e 0dd3 1f3e 03be d6bd 5417 24be
00000290: eb7c e6bd db87 d1bd fb4a 7d3d 1ac9 b4bd
000002a0: 37f2 413d fe39 7bbc 2540 71be d036 143e
000002b0: cc54 ddbd d38d 31be e1e6 81bd 24c5 143d
000002c0: cac7 14bd 78a5 e03c 6ff7 3c3e 791c 1e3e
000002d0: ea35 923d c8a8 d13c 933d 2a3e 99c4 41bd
000002e0: 2973 3d3e efdf 413e 711d 213e 322e 2ebe
000002f0: 2077 093e 03ac 253e 8916 1bbe 2474 953c
00000300: 3c4f 94bc b69c 903a 3bf3 7ebe 111d 1d3e
00000310: 7993 02be 4637 ec3d 946d 1ebd 712a 93bd
00000320: 73a5 e43d 1934 45bd a48c acbd a911 0a3e
00000330: d3f1 d03c 9c55 e1bd c4ff cbbd 6a3a 5fbe
00000340: 314f 323c 0ed3 1e3e 1a6e 363e dfc3 1e3e
00000350: fd41 163d 05a9 88be 5a3b 1a3e 2b4d af3d
00000360: 303d 683e f60b b3bc da64 333c 6d97 553d
00000370: af21 1b3e ff87 053e bfba 213e 344d ee3d
00000380: c743 95bd 2bfb 31be 0201 acbd bae9 fdbd
00000390: 1cb7 56be a1df 0d3e 711b e53d 0600 1ebe
000003a0: 2d41 21be ffdf 023e d437 e8bd 22ec e83d
000003b0: c512 073e 2f3f 69bd 8dff 273e 5f58 113e
000003c0: ae66 113e 338a 13be 8788 6a3d abdf 7f3c
000003d0: a2a0 373e 124b eebd 7b35 f3bc 5838 4a3d
000003e0: 25be 3fbe 7509 dd3d abf4 663e 834c cdbd
000003f0: c075 f83b 8bb6 963d 3320 45bb 93c1 31be
0.054513942 -0.12299818 -0.14674404 -0.048850384 -0.1475267 0.04992534 -0.22132158 0.14733575
-0.017471982 0.17828114 -0.20652062 -0.06551296 0.13301052 -0.13860059 0.033693276 -0.16322121
0.13777989 -0.16424474 0.21524595 0.20028046 -0.013193961 -0.08127096 0.11544245 0.06499512
0.16637608 0.16997144 0.184555 0.17051351 -0.099475406 -0.105699055 0.19763714 0.10980549
-0.18688309 -0.115070075 0.18380275 -0.023761125 0.09475694 -0.2737969 -0.14057171 0.06323447
0.097357884 -0.051016606 -0.021777587 0.05358789 -0.20449513 0.17854302 0.10065008 0.20886172
-0.04817236 0.17702368 -0.035531968 -0.095083974 -0.18245329 0.09897808 0.0034474405 0.31164122
0.22879511 -0.11827315 0.14351425 0.12649268 -0.13798115 0.19959293 -0.020836864 -0.22819129
-0.20289865 0.1363952 -0.135802 0.13576172 0.18242586 0.11957918 -0.00075514877 0.022996392
0.08188732 0.2559823 0.09419826 -0.25153536 0.02959845 -0.01811284 0.079857156 -0.058035295
0.27420172 -0.0035400493 0.080378935 0.2829095 -0.20575988 0.26170084 0.015497471 -0.19050479
-0.071696974 -0.06671844 -0.14555497 -0.21430604 -0.003349389 0.05734538 -0.17063852 -0.13636924
0.16420811 -0.065773584 -0.2231859 -0.23365815 -0.1122546 -0.22042738 0.07206011 0.045935508
-0.1860758 -0.111261144 0.10800839 0.10796897 -0.11710942 -0.037136693 0.17405185 -0.049115192
0.06086127 -0.089142814 -0.0015233923 -0.105405085 0.024483569 -0.11575012 -0.116855025 -0.20554107
-0.0847487 0.14140795 -0.1810374 -0.009206844 0.06798973 -0.052404657 0.1990383 0.006703019
-0.09809519 -0.2749641 -0.20150462 -0.0010759087 0.2644643 0.07109887 0.09297758 -0.05892897
-0.029724011 0.008801741 -0.22297382 0.06855356 -0.032624736 0.09229566 -0.097550645 -0.21179591
0.03132133 0.040661894 -0.15568258 0.14018449 0.10107244 -0.080653735 -0.23182604 -0.11083351
0.13955471 0.04153436 -0.17428204 -0.14511535 0.008606361 -0.1174465 -0.1621873 -0.15242733
0.13698934 0.15607853 -0.104854606 -0.16024524 -0.11254295 -0.102309905 0.061839085 -0.088274196
0.047350135 -0.015333651 -0.23559625 0.14474034 -0.10807189 -0.17339258 -0.06342865 0.03632082
-0.036323346 0.027422652 0.18453763 0.15440549 0.071391895 0.025593176 0.16625051 -0.04730663
0.18500961 0.1893308 0.15733887 -0.1700981 0.13424349 0.16178899 -0.15145315 0.018243857
-0.018104188 0.0011033032 -0.24897473 0.15343119 -0.12751569 0.1153398 -0.03867872 -0.071858294
0.111643694 -0.048145387 -0.084252626 0.134833 0.025505936 -0.11002657 -0.09960893 -0.21799627
0.0108831385 0.15510198 0.17815438 0.15504406 0.036684025 -0.26691452 0.15061703 0.085596405
0.22679591 -0.02185629 0.010949338 0.052146364 0.15149568 0.1304016 0.15793894 0.11635819
-0.07288318 -0.17380969 -0.0839863 -0.123980954 -0.20968288 0.13854839 0.11186875 -0.15429696
-0.15747519 0.1278076 -0.11338773 0.11373164 0.13190754 -0.056945022 0.16406079 0.14193867
0.14199325 -0.14408188 0.05725911 0.015617291 0.1793237 -0.11635412 -0.029688587 0.04937014
-0.18724878 0.107928194 0.22554271 -0.10024359 0.0075823963 0.07359036 -0.0030079007 -0.17358999

bn1.weight f4 [400]
00000000: 7d22 753f e001 883d d494 433f 0d69 093f
00000010: 97a7 693f 4449 073f 3487 cc3e 322c e03e
00000020: bc4f 073e 4d42 693f f696 4d3f a892 173f
00000030: ffbf f53e 4ad2 923e 6b4b 063f 6ee0 233f
00000040: a68e a33e f943 083f 8b8f 6a3f d054 0f3e
00000050: 6e4e aa3e 4d3e 633f 1b1d 753f d144 6a3f
00000060: 8895 bb3e 9c31 4e3f 5690 203f c78c c53e
00000070: 9627 d93e 710c 5d3f 22cc 553f a62d 513f
00000080: 3007 a23e 0020 b738 b4d9 993e c463 353f
00000090: 7e88 b43c 4d13 483f ccc7 863e ba99 563f
000000a0: 6080 103e 1069 9b3e fd45 e03c d262 243e
000000b0: 1bb9 c73e 065a c03e a710 003f f67d 3f3f
000000c0: 9813 ab3e 3301 563f 6ee5 ca3e ec7b 883e
000000d0: 487c d93e fe55 363f 8cef 813e 4501 ce3d
000000e0: 9045 c13d 6273 e93e a8e3 353f adfa 503f
000000f0: ebc3 073f 0e1f c13e 2059 ab3e e0ae 8a3c
00000100: 1c19 0e3e a841 a33e 871b d63e 0b90 2e3f
00000110: 6bec 5a3f ebc2 773e bee9 383e c0fa 073c
00000120: b058 1d3f 52be 7e3f 776b 573f 95f5 773f
00000130: 6044 1d3f f44f 9d3e 4a95 663f 3d47 223f
00000140: f50d 4b3f c015 2f3e b22b a13e f006 563e
00000150: d8e9 ae3d 4951 593f 7002 373e d07c 303e
00000160: 5bfb ea3e 9ee3 223e debe 113f 9812 9d3e
00000170: b86b 5e3f 286b 253f 71d0 0d3f 5206 2e3f
00000180: cb69 da3e 7f59 483c 1814 713f 9e8a db3e
00000190: 9b20 043f 7843 8a3e 0d40 5b3f b385 cc3e
000001a0: aefa b23e a2f2 193f c2ee d03e 7c7b b73e
000001b0: 4f6a 173f 97a0 4b3f eaf4 243e 033a 6b3f
000001c0: 0ea0 453f 51de 503f 3c3c 113f e870 f93e
000001d0: ea0d df3e f81b f33e 18d1 043e 506d c53e
000001e0: eef1 1c3f d563 6a3e d4ac 593f 8711 473f
000001f0: 2065 9d3e 3a3c b63e 9dc9 da3e 9e4c 073f
00000200: 2537 793f d5a1 373f 69e0 543f 9fcb ef3e
00000210: d6fd 023f d8ca b93d 07b5 063f e8c9 3d3f
00000220: e021 323e 21a1 223f 707a 5b3f b6e0 fe3e
00000230: 40cf 633e 4891 793f b718 563f 008a b13b
00000240: 6c64 373e 8965 493f 6899 ba3d 686d e33e
00000250: 7c2f 7a3f 7c4c 503e d222 403f c875 4b3f
00000260: c70b 4e3f 4c42 3c3e 1e74 de3e e135 4b3f
00000270: def9 9f3e 0f49 783f 6882 623e 1812 a13e
00000280: 6cf2 133f 9ddb 523e fe0c af3e badc 353f
00000290: 9884 9d3e 009a 9e3a e3ae cd3e 08de 0b3e
000002a0: 63b9 4f3f 58c0 823e f5e5 5e3f d41d 483f
000002b0: eb88 0c3f e08f 113f b8c5 753e c01d 423f
000002c0: f55f 673f 587a 3f3e a83b b23e 272e 053f
000002d0: 88f6 423f 3595 6f3f 63f0 2a3f 0e59 033f
000002e0: ba63 033f e966 5d3f ede6 5b3f 60f7 df3c
000002f0: 0a10 923e 7836 153e 602b d43d 0d35 dc3e
00000300: 166e 6a3f 7050 173e 80ff 313c b47e 293f
00000310: 4388 d53e 9a4d 1b3f 9fd9 f53e 97d0 343f
00000320: bd17 473d a07f fe3c 7880 a73e 97d9 083f
00000330: 1430 103f 4a74 0c3f bbcb 1f3f 3aef 2a3f
00000340: dd77 5e3f ad6b 493f 0c91 3a3f d49f a23e
00000350: 5b4f 293f aef9 ae3e b2d9 183e 6e09 b73e
00000360: 8bea 383f ea49 163f 48ad a23d f71c 673e
00000370: 9e63 bd3e a0ba 4f3d a0f6 e83e fe69 023f
00000380: 39ac 633f c032 5f3d 1686 e33e c5ef 7a3f
00000390: b834 b53e 19c2 c53e d502 6f3f 1ace 413f
000003a0: 3800 863e 0cb0 a83e f3fa 553e 20c2 3f3e
000003b0: 3073 873e 5340 293f aeae 953e 685a c43e
000003c0: 02a9 3f3f 4691 883e a0a1 523f 9a1f f83e
000003d0: 64d5 733e c0d0 da3e 1552 793f 2e14 213e
000003e0: 228c 093f 2b94 5f3f a604 b13d 6ee7 1f3f
000003f0: 4508 563f ab30 273f 3e14 103f d8d6 973e
0.9575575 0.06640983 0.7639897 0.5367592 0.91271347 0.5284617 0.39946902 0.43783718
0.1321401 0.9111679 0.80308473 0.59208155 0.47998044 0.28676063 0.5245883 0.6401433
0.3194477 0.5322872 0.9162528 0.13997197 0.33262962 0.8876694 0.95747536 0.91511256
0.3663752 0.8054445 0.6272024 0.38583967 0.42413014 0.8634711 0.83514607 0.8171028
0.3164611 8.7320805e-05 0.30048907 0.70855355 0.02203774 0.7815445 0.26324308 0.8382832
0.14111471 0.30353594 0.027377123 0.16053322 0.39008412 0.37568682 0.5002541 0.74801576
0.33413386 0.8359558 0.39628166 0.26657045 0.42477632 0.71224964 0.25378072 0.10058836
0.09437096 0.45595843 0.710505 0.816325 0.5303332 0.37719005 0.33466434 0.01692909
0.13876766 0.3188603 0.41817877 0.6818854 0.85516995 0.24195449 0.18057916 0.00829953
0.6146345 0.99509156 0.84148353 0.96859103 0.61432457 0.30725062 0.9007155 0.6338995
0.7931817 0.1709814 0.3147865 0.20901084 0.08540696 0.84889656 0.17872024 0.17235112
0.45894894 0.15907142 0.56931865 0.30678248 0.86883116 0.6461663 0.5539618 0.67978394
0.4265884 0.012228369 0.94171286 0.42879194 0.5161225 0.270046 0.8564461 0.39945754
0.34956878 0.60135853 0.40807158 0.358364 0.5914659 0.79541916 0.16109052 0.91885394
0.7719735 0.8158923 0.56732535 0.48718953 0.43565303 0.47482276 0.12970388 0.3855996
0.61306655 0.22889645 0.8502934 0.7776112 0.30741215 0.35592824 0.42731944 0.52851284
0.9734977 0.7173131 0.8315492 0.46835038 0.5116857 0.090718925 0.52619976 0.7413621
0.17395735 0.63527113 0.857337 0.49780816 0.22247028 0.97487307 0.8363146 0.005418062
0.17909402 0.78670555 0.09111291 0.44419408 0.97728705 0.20341676 0.7505313 0.79476595
0.8048672 0.18384665 0.43447965 0.7937909 0.3124532 0.9698648 0.22120059 0.31459117
0.5779178 0.20591588 0.341896 0.71039927 0.30765224 0.0012100339 0.4017249 0.13658917
0.8114225 0.25537372 0.87069637 0.78170514 0.5489642 0.5686016 0.24001205 0.75826645
0.90380794 0.18699014 0.3481114 0.5202355 0.76157427 0.93587047 0.6677305 0.5130776
0.51324046 0.86485153 0.8589924 0.027339637 0.28527862 0.1457156 0.103598356 0.43009225
0.9157423 0.14776778 0.010864139 0.6620896 0.41705522 0.60665286 0.48017594 0.7063078
0.048606623 0.031066716 0.327152 0.53457016 0.5632336 0.54864943 0.62420243 0.6677128
0.86901647 0.78679925 0.72877574 0.31762564 0.6613671 0.34174865 0.14926794 0.35749382
0.72232884 0.58706534 0.07943207 0.22569643 0.36990064 0.05071509 0.4550066 0.5094298
0.88934666 0.05449176 0.44438237 0.9802211 0.35391784 0.38624647 0.93363696 0.7570511
0.26172042 0.32946813 0.20896511 0.18726397 0.2645507 0.66113776 0.29234833 0.38350224
0.7486726 0.26673335 0.8227787 0.4846161 0.23811871 0.4273739 0.9739087 0.15730354
0.5372945 0.8733546 0.08643465 0.6246251 0.8360637 0.65308636 0.5628089 0.296561

bn1.bias f4 [400]
00000000: 0000 0000 0000 0000 0000 0000 0000 0000
00000010: 0000 0000 0000 0000 0000 0000 0000 0000
00000020: 0000 0000 0000 0000 0000 0000 0000 0000
00000030: 0000 0000 0000 0000 0000 0000 0000 0000
00000040: 0000 0000 0000 0000 0000 0000 0000 0000
00000050: 0000 0000 0000 0000 0000 0000 0000 0000
00000060: 0000 0000 0000 0000 0000 0000 0000 0000
00000070: 0000 0000 0000 0000 0000 0000 0000 0000
00000080: 0000 0000 0000 0000 0000 0000 0000 0000
00000090: 0000 0000 0000 0000 0000 0000 0000 0000
000000a0: 0000 0000 0000 0000 0000 0000 0000 0000
000000b0: 0000 0000 0000 0000 0000 0000 0000 0000
000000c0: 0000 0000 0000 0000 0000 0000 0000 0000
000000d0: 0000 0000 0000 0000 0000 0000 0000 0000
000000e0: 0000 0000 0000 0000 0000 0000 0000 0000
000000f0: 0000 0000 0000 0000 0000 0000 0000 0000
00000100: 0000 0000 0000 0000 0000 0000 0000 0000
00000110: 0000 0000 0000 0000 0000 0000 0000 0000
00000120: 0000 0000 0000 0000 0000 0000 0000 0000
00000130: 0000 0000 0000 0000 0000 0000 0000 0000
00000140: 0000 0000 0000 0000 0000 0000 0000 0000
00000150: 0000 0000 0000 0000 0000 0000 0000 0000
00000160: 0000 0000 0000 0000 0000 0000 0000 0000
00000170: 0000 0000 0000 0000 0000 0000 0000 0000
00000180: 0000 0000 0000 0000 0000 0000 0000 0000
00000190: 0000 0000 0000 0000 0000 0000 0000 0000
000001a0: 0000 0000 0000 0000 0000 0000 0000 0000
000001b0: 0000 0000 0000 0000 0000 0000 0000 0000
000001c0: 0000 0000 0000 0000 0000 0000 0000 0000
000001d0: 0000 0000 0000 0000 0000 0000 0000 0000
000001e0: 0000 0000 0000 0000 0000 0000 0000 0000
000001f0: 0000 0000 0000 0000 0000 0000 0000 0000
00000200: 0000 0000 0000 0000 0000 0000 0000 0000
00000210: 0000 0000 0000 0000 0000 0000 0000 0000
00000220: 0000 0000 0000 0000 0000 0000 0000 0000
00000230: 0000 0000 0000 0000 0000 0000 0000 0000
00000240: 0000 0000 0000 0000 0000 0000 0000 0000
00000250: 0000 0000 0000 0000 0000 0000 0000 0000
00000260: 0000 0000 0000 0000 0000 0000 0000 0000
00000270: 0000 0000 0000 0000 0000 0000 0000 0000
00000280: 0000 0000 0000 0000 0000 0000 0000 0000
00000290: 0000 0000 0000 0000 0000 0000 0000 0000
000002a0: 0000 0000 0000 0000 0000 0000 0000 0000
000002b0: 0000 0000 0000 0000 0000 0000 0000 0000
000002c0: 0000 0000 0000 0000 0000 0000 0000 0000
000002d0: 0000 0000 0000 0000 0000 0000 0000 0000
000002e0: 0000 0000 0000 0000 0000 0000 0000 0000
000002f0: 0000 0000 0000 0000 0000 0000 0000 0000
00000300: 0000 0000 0000 0000 0000 0000 0000 0000
00000310: 0000 0000 0000 0000 0000 0000 0000 0000
00000320: 0000 0000 0000 0000 0000 0000 0000 0000
00000330: 0000 0000 0000 0000 0000 0000 0000 0000
00000340: 0000 0000 0000 0000 0000 0000 0000 0000
00000350: 0000 0000 0000 0000 0000 0000 0000 0000
00000360: 0000 0000 0000 0000 0000 0000 0000 0000
00000370: 0000 0000 0000 0000 0000 0000 0000 0000
00000380: 0000 0000 0000 0000 0000 0000 0000 0000
00000390: 0000 0000 0000 0000 0000 0000 0000 0000
000003a0: 0000 0000 0000 0000 0000 0000 0000 0000
000003b0: 0000 0000 0000 0000 0000 0000 0000 0000
000003c0: 0000 0000 0000 0000 0000 0000 0000 0000
000003d0: 0000 0000 0000 0000 0000 0000 0000 0000
000003e0: 0000 0000 0000 0000 0000 0000 0000 0000
000003f0: 0000 0000 0000 0000 0000 0000 0000 0000
0.0 0.0 0.0 0.0 0.0 0.0 0.0 0.0
0.0 0.0 0.0 0.0 0.0 0.0 0.0 0.0
0.0 0.0 0.0 0.0 0.0 0.0 0.0 0.0
0.0 0.0 0.0 0.0 0.0 0.0 0.0 0.0
0.0 0.0 0.0 0.0 0.0 0.0 0.0 0.0
0.0 0.0 0.0 0.0 0.0 0.0 0.0 0.0
0.0 0.0 0.0 0.0 0.0 0.0 0.0 0.0
0.0 0.0 0.0 0.0 0.0 0.0 0.0 0.0
0.0 0.0 0.0 0.0 0.0 0.0 0.0 0.0
0.0 0.0 0.0 0.0 0.0 0.0 0.0 0.0
0.0 0.0 0.0 0.0 0.0 0.0 0.0 0.0
0.0 0.0 0.0 0.0 0.0 0.0 0.0 0.0
0.0 0.0 0.0 0.0 0.0 0.0 0.0 0.0
0.0 0.0 0.0 0.0 0.0 0.0 0.0 0.0
0.0 0.0 0.0 0.0 0.0 0.0 0.0 0.0
0.0 0.0 0.0 0.0 0.0 0.0 0.0 0.0
0.0 0.0 0.0 0.0 0.0 0.0 0.0 0.0
0.0 0.0 0.0 0.0 0.0 0.0 0.0 0.0
0.0 0.0 0.0 0.0 0.0 0.0 0.0 0.0
0.0 0.0 0.0 0.0 0.0 0.0 0.0 0.0
0.0 0.0 0.0 0.0 0.0 0.0 0.0 0.0
0.0 0.0 0.0 0.0 0.0 0.0 0.0 0.0
0.0 0.0 0.0 0.0 0.0 0.0 0.0 0.0
0.0 0.0 0.0 0.0 0.0 0.0 0.0 0.0
0.0 0.0 0.0 0.0 0.0 0.0 0.0 0.0
0.0 0.0 0.0 0.0 0.0 0.0 0.0 0.0
0.0 0.0 0.0 0.0 0.0 0.0 0.0 0.0
0.0 0.0 0.0 0.0 0.0 0.0 0.0 0.0
0.0 0.0 0.0 0.0 0.0 0.0 0.0 0.0
0.0 0.0 0.0 0.0 0.0 0.0 0.0 0.0
0.0 0.0 0.0 0.0 0.0 0.0 0.0 0.0
0.0 0.0 0.0 0.0 0.0 0.0 0.0 0.0

bn1.running_mean f4 [400]
00000000: 0000 0000 0000 0000 0000 0000 0000 0000
00000010: 0000 0000 0000 0000 0000 0000 0000 0000
00000020: 0000 0000 0000 0000 0000 0000 0000 0000
00000030: 0000 0000 0000 0000 0000 0000 0000 0000
00000040: 0000 0000 0000 0000 0000 0000 0000 0000
00000050: 0000 0000 0000 0000 0000 0000 0000 0000
00000060: 0000 0000 0000 0000 0000 0000 0000 0000
00000070: 0000 0000 0000 0000 0000 0000 0000 0000
00000080: 0000 0000 0000 0000 0000 0000 0000 0000
00000090: 0000 0000 0000 0000 0000 0000 0000 0000
000000a0: 0000 0000 0000 0000 0000 0000 0000 0000
000000b0: 0000 0000 0000 0000 0000 0000 0000 0000
000000c0: 0000 0000 0000 0000 0000 0000 0000 0000
000000d0: 0000 0000 0000 0000 0000 0000 0000 0000
000000e0: 0000 0000 0000 0000 0000 0000 0000 0000
000000f0: 0000 0000 0000 0000 0000 0000 0000 0000
00000100: 0000 0000 0000 0000 0000 0000 0000 0000
00000110: 0000 0000 0000 0000 0000 0000 0000 0000
00000120: 0000 0000 0000 0000 0000 0000 0000 0000
00000130: 0000 0000 0000 0000 0000 0000 0000 0000
00000140: 0000 0000 0000 0000 0000 0000 0000 0000
00000150: 0000 0000 0000 0000 0000 0000 0000 0000
00000160: 0000 0000 0000 0000 0000 0000 0000 0000
00000170: 0000 0000 0000 0000 0000 0000 0000 0000
00000180: 0000 0000 0000 0000 0000 0000 0000 0000
00000190: 0000 0000 0000 0000 0000 0000 0000 0000
000001a0: 0000 0000 0000 0000 0000 0000 0000 0000
000001b0: 0000 0000 0000 0000 0000 0000 0000 0000
000001c0: 0000 0000 0000 0000 0000 0000 0000 0000
000001d0: 0000 0000 0000 0000 0000 0000 0000 0000
000001e0: 0000 0000 0000 0000 0000 0000 0000 0000
000001f0: 0000 0000 0000 0000 0000 0000 0000 0000
00000200: 0000 0000 0000 0000 0000 0000 0000 0000
00000210: 0000 0000 0000 0000 0000 0000 0000 0000
00000220: 0000 0000 0000 0000 0000 0000 0000 0000
00000230: 0000 0000 0000 0000 0000 0000 0000 0000
00000240: 0000 0000 0000 0000 0000 0000 0000 0000
00000250: 0000 0000 0000 0000 0000 0000 0000 0000
00000260: 0000 0000 0000 0000 0000 0000 0000 0000
00000270: 0000 0000 0000 0000 0000 0000 0000 0000
00000280: 0000 0000 0000 0000 0000 0000 0000 0000
00000290: 0000 0000 0000 0000 0000 0000 0000 0000
000002a0: 0000 0000 0000 0000 0000 0000 0000 0000
000002b0: 0000 0000 0000 0000 0000 0000 0000 0000
000002c0: 0000 0000 0000 0000 0000 0000 0000 0000
000002d0: 0000 0000 0000 0000 0000 0000 0000 0000
000002e0: 0000 0000 0000 0000 0000 0000 0000 0000
000002f0: 0000 0000 0000 0000 0000 0000 0000 0000
00000300: 0000 0000 0000 0000 0000 0000 0000 0000
00000310: 0000 0000 0000 0000 0000 0000 0000 0000
00000320: 0000 0000 0000 0000 0000 0000 0000 0000
00000330: 0000 0000 0000 0000 0000 0000 0000 0000
00000340: 0000 0000 0000 0000 0000 0000 0000 0000
00000350: 0000 0000 0000 0000 0000 0000 0000 0000
00000360: 0000 0000 0000 0000 0000 0000 0000 0000
00000370: 0000 0000 0000 0000 0000 0000 0000 0000
00000380: 0000 0000 0000 0000 0000 0000 0000 0000
00000390: 0000 0000 0000 0000 0000 0000 0000 0000
000003a0: 0000 0000 0000 0000 0000 0000 0000 0000
000003b0: 0000 0000 0000 0000 0000 0000 0000 0000
000003c0: 0000 0000 0000 0000 0000 0000 0000 0000
000003d0: 0000 0000 0000 0000 0000 0000 0000 0000
000003e0: 0000 0000 0000 0000 0000 0000 0000 0000
000003f0: 0000 0000 0000 0000 0000 0000 0000 0000
0.0 0.0 0.0 0.0 0.0 0.0 0.0 0.0
0.0 0.0 0.0 0.0 0.0 0.0 0.0 0.0
0.0 0.0 0.0 0.0 0.0 0.0 0.0 0.0
0.0 0.0 0.0 0.0 0.0 0.0 0.0 0.0
0.0 0.0 0.0 0.0 0.0 0.0 0.0 0.0
0.0 0.0 0.0 0.0 0.0 0.0 0.0 0.0
0.0 0.0 0.0 0.0 0.0 0.0 0.0 0.0
0.0 0.0 0.0 0.0 0.0 0.0 0.0 0.0
0.0 0.0 0.0 0.0 0.0 0.0 0.0 0.0
0.0 0.0 0.0 0.0 0.0 0.0 0.0 0.0
0.0 0.0 0.0 0.0 0.0 0.0 0.0 0.0
0.0 0.0 0.0 0.0 0.0 0.0 0.0 0.0
0.0 0.0 0.0 0.0 0.0 0.0 0.0 0.0
0.0 0.0 0.0 0.0 0.0 0.0 0.0 0.0
0.0 0.0 0.0 0.0 0.0 0.0 0.0 0.0
0.0 0.0 0.0 0.0 0.0 0.0 0.0 0.0
0.0 0.0 0.0 0.0 0.0 0.0 0.0 0.0
0.0 0.0 0.0 0.0 0.0 0.0 0.0 0.0
0.0 0.0 0.0 0.0 0.0 0.0 0.0 0.0
0.0 0.0 0.0 0.0 0.0 0.0 0.0 0.0
0.0 0.0 0.0 0.0 0.0 0.0 0.0 0.0
0.0 0.0 0.0 0.0 0.0 0.0 0.0 0.0
0.0 0.0 0.0 0.0 0.0 0.0 0.0 0.0
0.0 0.0 0.0 0.0 0.0 0.0 0.0 0.0
0.0 0.0 0.0 0.0 0.0 0.0 0.0 0.0
0.0 0.0 0.0 0.0 0.0 0.0 0.0 0.0
0.0 0.0 0.0 0.0 0.0 0.0 0.0 0.0
0.0 0.0 0.0 0.0 0.0 0.0 0.0 0.0
0.0 0.0 0.0 0.0 0.0 0.0 0.0 0.0
0.0 0.0 0.0 0.0 0.0 0.0 0.0 0.0
0.0 0.0 0.0 0.0 0.0 0.0 0.0 0.0
0.0 0.0 0.0 0.0 0.0 0.0 0.0 0.0

bn1.running_var f4 [400]
00000000: 0000 803f 0000 803f 0000 803f 0000 803f
00000010: 0000 803f 0000 803f 0000 803f 0000 803f
00000020: 0000 803f 0000 803f 0000 803f 0000 803f
00000030: 0000 803f 0000 803f 0000 803f 0000 803f
00000040: 0000 803f 0000 803f 0000 803f 0000 803f
00000050: 0000 803f 0000 803f 0000 803f 0000 803f
00000060: 0000 803f 0000 803f 0000 803f 0000 803f
00000070: 0000 803f 0000 803f 0000 803f 0000 803f
00000080: 0000 803f 0000 803f 0000 803f 0000 803f
00000090: 0000 803f 0000 803f 0000 803f 0000 803f
000000a0: 0000 803f 0000 803f 0000 803f 0000 803f
000000b0: 0000 803f 0000 803f 0000 803f 0000 803f
000000c0: 0000 803f 0000 803f 0000 803f 0000 803f
000000d0: 0000 803f 0000 803f 0000 803f 0000 803f
000000e0: 0000 803f 0000 803f 0000 803f 0000 803f
000000f0: 0000 803f 0000 803f 0000 803f 0000 803f
00000100: 0000 803f 0000 803f 0000 803f 0000 803f
00000110: 0000 803f 0000 803f 0000 803f 0000 803f
00000120: 0000 803f 0000 803f 0000 803f 0000 803f
00000130: 0000 803f 0000 803f 0000 803f 0000 803f
00000140: 0000 803f 0000 803f 0000 803f 0000 803f
00000150: 0000 803f 0000 803f 0000 803f 0000 803f
00000160: 0000 803f 0000 803f 0000 803f 0000 803f
00000170: 0000 803f 0000 803f 0000 803f 0000 803f
00000180: 0000 803f 0000 803f 0000 803f 0000 803f
00000190: 0000 803f 0000 803f 0000 803f 0000 803f
000001a0: 0000 803f 0000 803f 0000 803f 0000 803f
000001b0: 0000 803f 0000 803f 0000 803f 0000 803f
000001c0: 0000 803f 0000 803f 0000 803f 0000 803f
000001d0: 0000 803f 0000 803f 0000 803f 0000 803f
000001e0: 0000 803f 0000 803f 0000 803f 0000 803f
000001f0: 0000 803f 0000 803f 0000 803f 0000 803f
00000200: 0000 803f 0000 803f 0000 803f 0000 803f
00000210: 0000 803f 0000 803f 0000 803f 0000 803f
00000220: 0000 803f 0000 803f 0000 803f 0000 803f
00000230: 0000 803f 0000 803f 0000 803f 0000 803f
00000240: 0000 803f 0000 803f 0000 803f 0000 803f
00000250: 0000 803f 0000 803f 0000 803f 0000 803f
00000260: 0000 803f 0000 803f 0000 803f 0000 803f
00000270: 0000 803f 0000 803f 0000 803f 0000 803f
00000280: 0000 803f 0000 803f 0000 803f 0000 803f
00000290: 0000 803f 0000 803f 0000 803f 0000 803f
000002a0: 0000 803f 0000 803f 0000 803f 0000 803f
000002b0: 0000 803f 0000 803f 0000 803f 0000 803f
000002c0: 0000 803f 0000 803f 0000 803f 0000 803f
000002d0: 0000 803f 0000 803f 0000 803f 0000 803f
000002e0: 0000 803f 0000 803f 0000 803f 0000 803f
000002f0: 0000 803f 0000 803f 0000 803f 0000 803f
00000300: 0000 803f 0000 803f 0000 803f 0000 803f
00000310: 0000 803f 0000 803f 0000 803f 0000 803f
00000320: 0000 803f 0000 803f 0000 803f 0000 803f
00000330: 0000 803f 0000 803f 0000 803f 0000 803f
00000340: 0000 803f 0000 803f 0000 803f 0000 803f
00000350: 0000 803f 0000 803f 0000 803f 0000 803f
00000360: 0000 803f 0000 803f 0000 803f 0000 803f
00000370: 0000 803f 0000 803f 0000 803f 0000 803f
00000380: 0000 803f 0000 803f 0000 803f 0000 803f
00000390: 0000 803f 0000 803f 0000 803f 0000 803f
000003a0: 0000 803f 0000 803f 0000 803f 0000 803f
000003b0: 0000 803f 0000 803f 0000 803f 0000 803f
000003c0: 0000 803f 0000 803f 0000 803f 0000 803f
000003d0: 0000 803f 0000 803f 0000 803f 0000 803f
000003e0: 0000 803f 0000 803f 0000 803f 0000 803f
000003f0: 0000 803f 0000 803f 0000 803f 0000 803f
1.0 1.0 1.0 1.0 1.0 1.0 1.0 1.0
1.0 1.0 1.0 1.0 1.0 1.0 1.0 1.0
1.0 1.0 1.0 1.0 1.0 1.0 1.0 1.0
1.0 1.0 1.0 1.0 1.0 1.0 1.0 1.0
1.0 1.0 1.0 1.0 1.0 1.0 1.0 1.0
1.0 1.0 1.0 1.0 1.0 1.0 1.0 1.0
1.0 1.0 1.0 1.0 1.0 1.0 1.0 1.0
1.0 1.0 1.0 1.0 1.0 1.0 1.0 1.0
1.0 1.0 1.0 1.0 1.0 1.0 1.0 1.0
1.0 1.0 1.0 1.0 1.0 1.0 1.0 1.0
1.0 1.0 1.0 1.0 1.0 1.0 1.0 1.0
1.0 1.0 1.0 1.0 1.0 1.0 1.0 1.0
1.0 1.0 1.0 1.0 1.0 1.0 1.0 1.0
1.0 1.0 1.0 1.0 1.0 1.0 1.0 1.0
1.0 1.0 1.0 1.0 1.0 1.0 1.0 1.0
1.0 1.0 1.0 1.0 1.0 1.0 1.0 1.0
1.0 1.0 1.0 1.0 1.0 1.0 1.0 1.0
1.0 1.0 1.0 1.0 1.0 1.0 1.0 1.0
1.0 1.0 1.0 1.0 1.0 1.0 1.0 1.0
1.0 1.0 1.0 1.0 1.0 1.0 1.0 1.0
1.0 1.0 1.0 1.0 1.0 1.0 1.0 1.0
1.0 1.0 1.0 1.0 1.0 1.0 1.0 1.0
1.0 1.0 1.0 1.0 1.0 1.0 1.0 1.0
1.0 1.0 1.0 1.0 1.0 1.0 1.0 1.0
1.0 1.0 1.0 1.0 1.0 1.0 1.0 1.0
1.0 1.0 1.0 1.0 1.0 1.0 1.0 1.0
1.0 1.0 1.0 1.0 1.0 1.0 1.0 1.0
1.0 1.0 1.0 1.0 1.0 1.0 1.0 1.0
1.0 1.0 1.0 1.0 1.0 1.0 1.0 1.0
1.0 1.0 1.0 1.0 1.0 1.0 1.0 1.0
1.0 1.0 1.0 1.0 1.0 1.0 1.0 1.0
1.0 1.0 1.0 1.0 1.0 1.0 1.0 1.0

fc2.weight f4 [300, 400]
00000000: 0143 b63d 8459 19bd 30f6 363d 664d 9dbc
00000010: 8219 30bd a1cd 823d 886b 1e3c a5b9 adbd
00000020: f5a5 353d 2c48 0cbe acc9 a1bd 3f80 033d
00000030: 738b 533d cb07 50bd 34b2 eb3b 0180 97bd
00000040: 39c0 1a3e 09f4 e13c baeb 013d bca8 99bd
00000050: 8a4e dabc cf60 8fbd 6a61 9fbd f9ff 463c
00000060: e52a d8bd 65f9 3bbc f3c0 c1bc bbc3 d93d
00000070: e438 f9bd 02bc a4bc 2d62 e83c 644e e0bd
00000080: 11f9 d83b 09e3 51bd 418d b1bd eaf4 d43c
00000090: 9c2d 2d3d 4fca 96bd 5493 2abd 267d 20be
000000a0: d56b 993c 7d25 ee3d a1d8 27bd 3d6f 7dbd
000000b0: b67d 8ebd 4a09 513c 79d9 223e b506 ce3c
000000c0: 9107 87bd 7b0e bebd 2179 0c3d 3309 9ebd
000000d0: 6600 59bd c1fc 9a3d 9afa 2bbd b355 f43c
000000e0: cb72 eb3c a7c6 8abd dfa1 3d3d 130e 043d
000000f0: e2b3 6c3d 08bd 6d3b 26b8 0a3d f9b8 f93c
00000100: 7053 24bd 4781 8bbd febc 2dbc 90fb e8bd
00000110: 7a19 fbbd 95f1 8ebd a78e 563d 7617 6b3c
00000120: f4d6 9abd 03fa 023d 4232 23be b73b 203c
00000130: 23bd cebd 4b6b 05be 8091 7dbe 55a7 3b3c
00000140: 1a25 2cbd c9dd 31bc ba4d de3d 54d7 9a3d
00000150: 939b 73bd 8205 623b b281 c63d 1bd4 1d3d
00000160: 16ae 5b3d cc07 59bd 29d4 f0bc 1bb8 8f3d
00000170: 6d23 3cbe 5aec 1fbd ddff 8dbd d2b1 1cbd
00000180: f448 75bd 2925 f93c 5800 983c eb9c 9fbd
00000190: 0f91 643c 8b8a 0b3d ff44 42bc 2189 39bd
000001a0: 46cb 2ebd c756 9d3d 58b6 f2bc ef87 0f3d
000001b0: 7239 8bbe 3c8c 673c eb67 1a3d d9f8 9bbd
000001c0: 4c1a eabc 18e2 2b3b a778 4e3d c0c1 263d
000001d0: 5de1 18bd d56e 8dbd 52ea 503b ed84 e9bd
000001e0: 6b31 cbbd 897c 58bd 5556 01bc 7e11 a33c
000001f0: 5461 86bd da99 75bc db66 ce3c 149c 8ebc
00000200: b7de a0bd ddb1 c2bc 4a1e 91bd e6a6 f63c
00000210: 7def 033d eb5a 453d 8e50 d03d bfb9 d13c
00000220: fe1d 2ebd 2a98 77bd 8a5b e6bd c6a7 e5bd
00000230: 86bb d6bd 8025 8ebd c18b 263d e006 6939
00000240: 38ca 79bd 3385 70bd ebc9 233d 82a0 b2bd
00000250: 43c4 ef3c 0349 d3bc 1c0a f0bc 7acc fc3d
00000260: 322c 88bd 8269 e93c 0dec 563c f26b 3b3c
00000270: dfe6 16be 9889 0f3d 1bfb 443d 3515 7fbe
00000280: a349 97bc f305 113d 9e5f d03c 06cc 07bd
00000290: 36b3 1cbd 592a 02bd 7af8 47bc 52e5 34bc
000002a0: de39 e3bc f729 933d f9d6 91bd bcc5 823d
000002b0: 7d7c e8bc fe39 8dbd 603e e5bd a016 7dbc
000002c0: 00fb 55bd 4b88 5e3c 74f9 c03c 2332 623d
000002d0: 422b 34bd 70c5 f2bc 3628 d8bc dd10 723c
000002e0: 6c60 11bd 001d 2d3d 867a 6a3d 82f1 1a3d
000002f0: 525c 2a3d c928 debc 95ff 46bd 0d8f 02be
00000300: 0b8d 893a 8f39 803d 7f85 06be 1e10 a9bd
00000310: 4af5 52bb a9e7 2dbc 484c b9bd 6304 e53c
00000320: cc4e 5fbd cef8 1e3e 4602 7fbd 5a2d 8abc
00000330: fd63 373b ff57 c9bd 4c7d 2dbc 5280 e6bd
00000340: d397 bd3c e494 183d deec b9bc e141 77bd
00000350: 13e2 643b f257 19be a521 9ebb d307 303d
00000360: 4b43 9b3d ec99 9c3d 6dd7 533d 4a29 0c3d
00000370: aadb 3ebd 6b97 b5bd aeef d53c 7dfb 373b
00000380: 856b 903c d7e9 013d f777 32bd f245 81bd
00000390: dbe2 24bd ca38 61bd 23c9 2c3b aedb dc3c
000003a0: 8c39 0abe 597c 353d 9a6e 27bd 557e 543d
000003b0: aec7 393c d8c0 7cbd abdb 4fbe 4e1c 1f3d
000003c0: 23c2 d4bc 1d6d d3bc 7a25 b8bc 3169 89bd
000003d0: f843 aa3d c67b 373d 53c2 73bc aedb d8bd
000003e0: b0a4 f5bd f593 2bbe baff 1b3d 3831 adbd
000003f0: 3f23 acbc 27ce 22bd 2d30 ebbc fb1b 683c
0.08899499 -0.037438884 0.044668376 -0.019201946 -0.042993076 0.06386877 0.009669192 -0.084826745
0.044347722 -0.13699406 -0.07899794 0.032104727 0.05164666 -0.050788682 0.0071928743 -0.07397462
0.1511239 0.027582185 0.031718947 -0.07502887 -0.026648778 -0.07000887 -0.07782252 0.01214599
-0.105550565 -0.0114730345 -0.023651576 0.10633036 -0.12169054 -0.02010918 0.028367126 -0.10952452
0.006621488 -0.05124191 -0.0866952 0.02599569 0.042279825 -0.07362806 -0.04164441 -0.1567274
0.018728176 0.11628244 -0.040978078 -0.061873663 -0.06957571 0.012758562 0.15903272 0.025149683
-0.0659324 -0.09280106 0.034295205 -0.07716598 -0.052978896 0.0756774 -0.04198704 0.02982602
0.028741261 -0.06776171 0.04629695 0.032239985 0.057788737 0.0036276001 0.033867024 0.03048371
-0.040118635 -0.06811767 -0.010604141 -0.11376107 -0.12260719 -0.06979672 0.052382138 0.014348855
-0.0756053 0.03197671 -0.1593714 0.009779862 -0.10094669 -0.1302921 -0.24762535 0.011453469
-0.04202757 -0.0108561 0.10854669 0.07560602 -0.05947454 0.0034488146 0.09692706 0.038532358
0.05363282 -0.05298595 -0.02939804 0.07017537 -0.18372889 -0.03904376 -0.06933568 -0.03825552
-0.059884027 0.030413227 0.018554851 -0.077936016 0.0139506 0.03406767 -0.01185727 -0.045296792
-0.042674325 0.07682567 -0.029627964 0.035041746 -0.27192265 0.014132556 0.03769676 -0.07615823
-0.028576992 0.0026227292 0.05040803 0.04071212 -0.0373243 -0.06905905 0.0031877947 -0.11402307
-0.09921535 -0.05285314 -0.007894118 0.019905802 -0.065615326 -0.014990294 0.02519553 -0.017408408
-0.078549795 -0.023766452 -0.07085855 0.03010888 0.032210816 0.04818241 0.101716146 0.025601266
-0.04250907 -0.06044785 -0.112479284 -0.11213641 -0.10484986 -0.06940746 0.040660623 0.00022223173
-0.060983866 -0.05872078 0.039987486 -0.08722021 0.02926839 -0.02579165 -0.029301696 0.12343688
-0.066490546 0.028492693 0.013117802 0.01143931 -0.14736508 0.03504333 0.048091035 -0.24910434
-0.01846773 0.035406064 0.025436219 -0.033153556 -0.038256846 -0.031778667 -0.0122052375 -0.011041002
-0.027737554 0.071857385 -0.07121081 0.06385371 -0.028379673 -0.06895827 -0.11193538 -0.015447289
-0.052241325 0.013582299 0.023556449 0.055223595 -0.043986566 -0.029635161 -0.026386362 0.014774528
-0.035492346 0.042263985 0.057245754 0.037827976 0.04159195 -0.027119057 -0.048583586 -0.12749882
0.0010494305 0.062609784 -0.13136862 -0.08255027 -0.003218966 -0.010614314 -0.090477526 0.027956193
-0.054518506 0.15524599 -0.062258027 -0.016867328 0.0027983182 -0.09831237 -0.010588955 -0.11254944
0.023143684 0.03725137 -0.022695955 -0.06036556 0.003492479 -0.14974955 -0.004825788 0.04297621
0.075811945 0.07646546 0.051719118 0.034219064 -0.046596207 -0.08866771 0.026115265 0.0028073483
0.017629394 0.031717148 -0.04357144 -0.06312169 -0.04025541 -0.0549858 0.0026365004 0.02696022
-0.13498515 0.04430804 -0.040876962 0.051878292 0.011339111 -0.061707348 -0.2029864 0.038845353
-0.025971478 -0.025808865 -0.022478808 -0.06709517 0.08313745 0.044795774 -0.0148778735 -0.105887756
-0.11994302 -0.1675566 0.038085677 -0.08456653 -0.0210129 -0.039747383 -0.028709495 0.014166827

fc2.bias f4 [300]
00000000: e410 1a3d 59af 873c 8289 6d3d ed91 613d
00000010: efb3 dbbc 80fd e1bc 0c08 c53c f5d6 c5bb
00000020: b85e d1bc 0ce9 333c 1d4a 343d 4a23 8dbc
00000030: eea3 f53c b281 193c 0813 693d d98d 433c
00000040: 0b80 56bd 86c1 82bd 41eb 8cbd 85c4 5b3d
00000050: e9c9 933d 22d4 a7bd a1fc e33b 78b8 04bc
00000060: 06ee a8bd c08c 8fbd 6767 dcba 9e56 0fbd
00000070: c0d0 583d eae6 8cbc 1c35 d83c e280 a9bc
00000080: e14a 99bc 99d3 77bd c311 2ebb 70e6 e5bc
00000090: 44e7 a6bd ecb1 453d 2270 5ebc 9ee5 91bd
000000a0: 507c 873d 0c2f 163d a28b c63a d087 2f3d
000000b0: 118a 79bd 57de ddbc 0be7 f23c fe31 86bd
000000c0: 1451 0f3c a5a9 af3d e6b7 ad3b 10ff aabc
000000d0: 357b e93c b04b 47bc 2fe5 c1bd 51ad 583d
000000e0: 482d d93c 008e 81bb 1075 33bd 0202 28bd
000000f0: 5bf4 cebc c8c7 6abd 3797 abbb 41f7 d83b
00000100: 8268 88bd 361f a43c 180b 3a3d 7b9f a23c
00000110: 36f6 1a3d 9503 ab3c 5381 983d 2c1b cfbb
00000120: df84 783c 80ab 6dbb 8cfe 153d a5c0 89bc
00000130: 9418 fabd 8d3a c73c eb0d c2ba e28e cfbc
00000140: 885a a3bd 4c57 94bc ebf4 a0bd 74cc 06bd
00000150: 4249 e7bc 8f81 3ebd 0fb1 1ebd 7f04 b7bc
00000160: d8e2 06bd 48fa 80bd a139 ecba 0ded 0cbd
00000170: 7ffa febb a4a2 30bb 28ff 94bc 5580 9d3c
00000180: 50dd 73bd a65c c4bc 5c13 64bd d231 19bc
00000190: 3701 63bc 7be2 033d 277f 11bd b8f4 4fba
000001a0: b5d9 80bd 70a8 043d 22f3 8ebd c10b 7abd
000001b0: fd41 4d3d 64bc d6bc c0d0 23bd 90f2 47bc
000001c0: 9113 5b3d e422 f73c f4f9 c3bc 5f42 f9bb
000001d0: e3a9 71bc c2cd 58bd bae4 38bd e632 14bd
000001e0: 1902 023c 045e 893c 1e19 343d 8ad1 913c
000001f0: 4459 353c 920f 1abd 0a8d a1bd 1b26 003d
00000200: 8efd cc3d 44c7 24bc 2ed1 c2bc 9052 a8bd
00000210: c6c5 053b 64a4 f8bc 5553 3e3c 7c21 84bd
00000220: d7e0 c63b 945e 80bd c96f 153d d8c7 a8bc
00000230: d5a6 293c e140 153d de67 713c 3ea7 2e3c
00000240: fdf6 36bd 8bf7 7fbd a02c 89bb eca9 3dbd
00000250: a37b 9fbb 2678 2fbc 5222 09bd c7ba 5dbd
00000260: 49f0 37bc 010e 77bd bb88 19bc da44 adbc
00000270: 0d33 51bb 28c5 9fbc 5050 463d 725e 5bbd
00000280: 412f da3b cdc6 22bd d266 08bd 763f 4c3c
00000290: 45f2 273d 2118 d73c 3944 47ba a29b 90bd
000002a0: 52f8 8c3b 76e4 6b3d d983 0dbb 275e d43c
000002b0: 6f4d 4a3d aa3f 483d 48c6 d33c dff2 9a3a
000002c0: 397f 59bc 5099 6a3c d978 a53d 70cf 7f3d
000002d0: 21d3 123d b20f 67bd a85d 92bc 3076 503d
000002e0: 785b 5abc 9d2a cabc cf80 3a3d f181 ddbb
000002f0: afef 50bd f6e2 0e3d 77ac cbbc c7db 353d
00000300: c381 19bd dcc6 31bd b657 7fbc e77f 3e3d
00000310: 5cb2 99bc a8d4 363d f9e9 6d3d 28f6 803c
00000320: 5d9f ef3b 64b6 c9ba 4a7c 5abd 3bd6 ec3c
00000330: f152 40bd 6256 5c3d fe9d 3abd 42f5 c2bc
00000340: a178 2fbd 2630 9dbc 5a18 4ebd bd47 423d
00000350: 7754 20bd b56e 83bd 6e22 06bd dc43 97bc
00000360: 6813 24bc c47f b5bd 3c54 c5bc b693 893c
00000370: ae32 e3bb 761d 1fbd fdeb 34bc 05b9 323d
00000380: b0eb 973c fb26 723d 9e38 1fbd 7b94 22bd
00000390: 94fa 24bd 40fd b43c 19c7 6b3d 973e 6abd
000003a0: 7e55 233d 05ab c4bb 08e7 d4bc 94fd 8ebb
000003b0: bce6 40bd f9cf 8ebc 44f2 36bd b12b df3c
000003c0: 9e7c 22bb 0d60 afbc 3ed6 0abb 7133 e23c
000003d0: 1d7b 3a3d c62d 433c 09f4 89bc ac49 483c
000003e0: baf1 88bd 145c 1dbd bf6a f53b 850b adbd
000003f0: 2e72 9f3d 2a43 59bd ec79 47bd a1af f53c
0.037613764 0.016563104 0.057992466 0.055070806 -0.026819197 -0.027586699 0.024051689 -0.0060375878
-0.02555786 0.010980856 0.044015992 -0.017228741 0.029985394 0.009369301 0.056902915 0.011935675
-0.052368205 -0.06384568 -0.068808086 0.053654213 0.07216246 -0.08194758 0.006957606 -0.008100621
-0.08248524 -0.07009268 -0.0016815484 -0.034994714 0.052933455 -0.017199952 0.026392512 -0.020691339
-0.018712463 -0.06050453 -0.002656088 -0.028063983 -0.08149579 0.048265383 -0.013576539 -0.07123874
0.066155076 0.03666596 0.0015147815 0.04285413 -0.060922686 -0.027083559 0.029651185 -0.06552504
0.008747358 0.08577279 0.0053014634 -0.020873576 0.028501133 -0.012164041 -0.094675414 0.052899662
0.02651085 -0.0039536953 -0.04381281 -0.04101754 -0.025263002 -0.057319432 -0.005236532 0.006621272
-0.06660558 0.020034414 0.045420736 0.019851437 0.03783246 0.020875731 0.07446542 -0.006320378
0.015168398 -0.0036265552 0.036619708 -0.016815493 -0.12211719 0.024319911 -0.0014805173 -0.025336687
-0.07976252 -0.018108033 -0.078592144 -0.032909825 -0.028233174 -0.046510275 -0.038743075 -0.022341011
-0.03293118 -0.06297737 -0.0018022546 -0.034405757 -0.0077813263 -0.002695241 -0.018188074 0.019226233
-0.059537232 -0.02396996 -0.055682525 -0.009350257 -0.01385527 0.03219841 -0.035521653 -0.0007932889
-0.06291524 0.032387197 -0.06979968 -0.061046366 0.05011176 -0.026212879 -0.039994 -0.0122038275
0.053485457 0.030168004 -0.023922898 -0.007606789 -0.014749977 -0.0529306 -0.045140006 -0.036181353
0.00793507 0.016768463 0.043969266 0.017800111 0.011068646 -0.037612505 -0.07888229 0.03128634
0.10009299 -0.010057274 -0.023781385 -0.082188725 0.0020412072 -0.030351825 0.011616548 -0.06451699
0.0060692835 -0.06268039 0.03648356 -0.020603105 0.010354717 0.036438826 0.0147342365 0.010659991
-0.04466914 -0.062491935 -0.004186228 -0.04630463 -0.0048670336 -0.010709798 -0.033479996 -0.054133203
-0.011226722 -0.06031609 -0.009370978 -0.021150995 -0.0031921298 -0.019503191 0.048416436 -0.053556867
0.006658465 -0.039740372 -0.033301182 0.012466302 0.04100253 0.026256623 -0.00076014135 -0.070609346
0.004302063 0.057590924 -0.002159348 0.025923802 0.049390253 0.04888884 0.025851384 0.0011821649
-0.013274961 0.014318779 0.080796905 0.062453687 0.03584588 -0.056411453 -0.017866924 0.050893962
-0.013327472 -0.024678523 0.045532998 -0.006759875 -0.05100983 0.034884416 -0.024862511 0.04439905
-0.037477266 -0.043402538 -0.015584877 0.046508696 -0.018761806 0.0446364 0.05808446 0.015742376
0.0073126988 -0.001538944 -0.053341188 0.028910747 -0.0469541 0.05379332 -0.04556083 -0.023798589
-0.04283965 -0.019187998 -0.050316192 0.047431696 -0.039143052 -0.064176 -0.03274768 -0.018464975
-0.010014392 -0.0886226 -0.024088018 0.016794067 -0.0069335317 -0.038846456 -0.011042592 0.04363348
0.018545002 0.059119206 -0.038872354 -0.039692383 -0.040278032 0.022093415 0.05756292 -0.057188597
0.039876454 -0.0060018324 -0.02598907 -0.004363725 -0.047095045 -0.017433153 -0.044664636 0.027242513
-0.0024793516 -0.021408105 -0.0021184827 0.02761242 0.045527566 0.011912769 -0.016839998 0.012224596
-0.06686731 -0.03841789 0.0074895318 -0.08449463 0.0778545 -0.05304257 -0.048700258 0.029990973
