checkpoint_critic_min.pth (torch_old, 539401 bytes, 17 tensors)

bn0.weight f4 [24]
00000000: a120 b93e 6023 c43e d523 123e 6798 383e
00000010: dfb2 513f 9c24 3e3f 6cc4 b93d 0457 363d
00000020: e2f9 dd3e f412 0f3e 7f00 1d3e 9110 783e
00000030: 1f70 f33e 6818 773f 8629 003e 2a06 ac3e
00000040: 1364 313f 505d ac3e b380 fa3d eb92 103f
00000050: cee7 bdbe e907 293f 2fc4 5b3e 365a f83e
0.36157706 0.3830824 0.14271481 0.18026887 0.8191356 0.7427461 0.090706676 0.04451658
0.43354708 0.13972074 0.1533222 0.2422507 0.4754648 0.96521616 0.1251584 0.33598453
0.69293326 0.33664942 0.12231579 0.5647418 -0.37090915 0.66027695 0.21461557 0.48506325

bn0.bias f4 [24]
00000000: 3793 1d3c 679e a73c 3867 993c c257 43bd
00000010: 1325 363d 7112 0c3d 0600 413d 25d4 683d
00000020: 0500 bebd af5e 31bd 5f6f 7d3d 7535 013d
00000030: 4a47 243c 7cbc b53b 1e6d 88ba 834a 86bd
00000040: b86c 93bc f05f 0b3d 7c4c 96bb aaf2 01be
00000050: 9bd9 94bc 7817 c7bc 66a5 15bd c2df d7bd
0.009617618 0.020461274 0.018725976 -0.047691114 0.04446895 0.034197275 0.047119163 0.05684294
-0.092773475 -0.043303188 0.06187379 0.03154512 0.010026762 0.0055461507 -0.0010408496 -0.06557181
-0.017996177 0.03402704 -0.0045867544 -0.12690225 -0.018170169 -0.024303183 -0.03653469 -0.10540725

bn0.running_mean f4 [24]
00000000: 6f63 00c1 3eec 7bbf e940 993f a668 14be
00000010: 120b 8f3d 1e70 0e40 e940 993f a668 14be
00000020: fbe1 01c1 fc6e 7ebf d81e 9d3f e5c1 01be
00000030: 52bd 7d3d 3394 0d40 d81e 9d3f e5c1 01be
00000040: d07f 03c1 c4a5 80bf b711 a83f 0f40 fbbd
00000050: b666 6c3d 388b 0c40 b711 a83f 0f40 fbbd
-8.024276 -0.9840735 1.1972934 -0.14493045 0.06984533 2.225593 1.1972934 -0.14493045
-8.117671 -0.993881 1.2275038 -0.12671621 0.061948128 2.2121704 1.2275038 -0.12671621
-8.218704 -1.0050588 1.3130406 -0.122680776 0.05771514 2.1959972 1.3130406 -0.122680776

bn0.running_var f4 [24]
00000000: adaf 3141 12c5 863f 1507 5943 93dd 0c41
00000010: 4934 eb41 4bad 4140 1507 5943 93dd 0c41
00000020: 47aa 2941 ed2a 873f 5775 5b43 9f7f 1041
00000030: 4c1d f041 45d4 4140 5775 5b43 9f7f 1041
00000040: 7ff1 1e41 480a 883f 940e 5843 c2ad 1041
00000050: cd05 f741 e9fa 4840 940e 5843 c2ad 1041
11.10539 1.0528891 217.02766 8.804095 29.40053 3.026202 217.02766 8.804095
10.604072 1.0559975 219.45836 9.0311575 30.014305 3.028581 219.45836 9.0311575
9.933959 1.0628138 216.05695 9.042421 30.877832 3.1403143 216.05695 9.042421

fcs1.weight f4 [400, 24]
00000000: 4427 28bd b0ed 213d da5d 723d 981b b4bb
00000010: 33a2 80bd b2c4 9dbd 0577 8a3d 2102 aebb
00000020: 1f7c 70bb 5f93 26bc b98d 433c 1421 d8bc
00000030: 6d7a 06bd d588 23bd ce43 94bc bc92 8abc
00000040: be86 c83c 98fb 36bd 46d0 4abc 3bcb afbb
00000050: 67dd 85be b29c 0b3e bc5f 083d 88a9 1abd
00000060: 4bde b3bd 7199 393c dc89 4b3d 866d 073e
00000070: 598f 00bc a499 cfbd 6d9a b93d 0f09 143d
00000080: 660a 72bd 54dc 613d 7a73 013d 5575 7ebd
00000090: 2cf6 80bd fed1 e4bd f41e de3c 57ca 69bb
000000a0: d131 623d da75 0a3e 8dc7 9e3c 90ee cabc
000000b0: f862 8abd e678 bb3c e320 5b3c af49 8abc
000000c0: cd8e 143c 8a23 8d3d 40b3 f7bd 9cf7 2ebb
000000d0: 6fc5 93bd ffa6 e4bd 613c 89bd dfda 263d
000000e0: 77f2 263d 3506 5b3d c7c7 06be eaeb 9f3c
000000f0: 0b9f 113c 7375 8abc 1a79 81bd 740d 07ba
00000100: 1f0b bb3c 3dad 533d 44df 12bd a438 19bd
00000110: 2146 3dbd 3532 853c 3db9 383c 5a34 0a3d
00000120: f045 2abc e31c ffbb e5a2 923a a50d cfbb
00000130: f71f dc3d 519f 813d 5076 d63a da0e 573c
00000140: 4e81 c0bb 9fb0 a3bc 7511 d1bc 5257 7c3c
00000150: 9407 6fbd fcca 0f3d 8d3b 1d3c 9c4e 88bc
00000160: 2fc8 543c e226 a63c ee13 c8bc bfb5 fd3c
00000170: a74c a93e a5ac d5bd ba5a 92bc ea21 15bd
00000180: 76e7 5e3d 1c10 723c 5165 f73c 55dd f13c
00000190: e51f 72ba 2057 a3bd 9c74 703d f588 8c3d
000001a0: 1672 3f3d 72d2 cabc e132 523c 5911 75bd
000001b0: 86a5 67bd c2ff 013d 62fd 7f3d 9ee5 793a
000001c0: bb3e d7bb 63f0 a23c f68c b0bd f176 5b3d
000001d0: 1ad5 023d 7056 2dbd 94d6 18be 7352 e73d
000001e0: ccbc 1bbc a097 093c bf2c 64ba 93f8 d23c
000001f0: 26c1 b03d acbd 07be 4c59 99bc 39ac 3ebc
00000200: a93e 83bb f6dc 9bbc cc01 60bd 02ad f9bc
00000210: 1ba4 34bd 2fa1 e5bb 13e6 363c 5a62 b03c
00000220: a98c 063c e1de 553c e0bc 7cbd 7e8a e93c
00000230: 81ab 7d3e 0a63 373e 9bce 813c 51c6 99bc
00000240: 55ed b8bd 8edd 043d 9a33 f93d 3997 113c
00000250: 505e efbc 6f10 65bd b6de bc3d adc1 40bd
00000260: b2d0 583d b7ae c23d e0b7 273e 200d 05bd
00000270: 37dc 64bd 8323 a9bd 16e4 f13d 9ac6 c4bc
00000280: 589f 51bd cf48 9c3d 87ac d3bd 0cfd 47bc
00000290: a327 83bd feb5 293b 120d 0fbe 1ac1 8abd
000002a0: ba30 ab3c 179a 2abd e90f ef3c e7f3 4c3d
000002b0: 5070 a9bd 68b0 9c3b 5fe9 25bd 93e7 b1bd
000002c0: e6f6 653d 20b4 a8bd 9390 3dbc 49ff 3e3c
000002d0: 655a 0a3d 3e84 8fbc 5739 8fbd b01c 51bc
000002e0: 7399 c2bb ee2b 05bd 835f 17bb 94ef 433c
000002f0: fa67 cfbd 4d7f df3d 9bdf 9f3d 4c66 683d
00000300: 64f8 13bd 8281 25bd a6e2 26bc 8ee8 1c3c
00000310: 03b0 4f3e 5f7e 0dba 1b35 86bb de21 d1bc
00000320: f4c3 9e3c ffcd 2cbd 4cdd 6ebd b1ee d13b
00000330: 9e7c bbbd 743c febc 6331 d73c d828 41bc
00000340: b4f9 c13b 0351 96bd 5d0e 883c 8459 a93c
00000350: aee0 d33e 5d23 473d e7f7 57bc 6263 10bd
00000360: 0707 f03c 634f 83bd 69ce 013d c0ab 073b
00000370: 8736 96bd 9191 13bd f90e e939 db13 88bd
00000380: cf7d 363d ce5e 2f3d 1941 c7bc 50b4 5cbb
00000390: 4a1d 22bd 3529 97bd 5fce b73d a209 a23d
000003a0: 4e92 57bc b9d6 a53b 83b5 05bd 64e5 2d3c
000003b0: ab17 0dbe 2f09 1b3e f6fc 31bd f9fe 1bbc
000003c0: 88ac 7b3c a011 d6bd 8202 fdbd d8be 513d
000003d0: fa8d 19bc b5a2 1b3c 2b91 e8bd 85c7 293d
000003e0: 70ad a6bc a194 cebd c191 2dbe 28da 363d
000003f0: fc80 ca3d 3310 89bd 9d0f e9bd 5fa6 5c3d
-0.04105307 0.039533317 0.059171535 -0.0054964535 -0.06280937 -0.07703532 0.067609824 -0.0053103124
-0.0036695076 -0.010166972 0.011935645 -0.02638296 -0.032831598 -0.039925415 -0.018098738 -0.016915672
0.024478313 -0.044673532 -0.012378758 -0.005364803 -0.2614548 0.13633993 0.033294424 -0.037759334
-0.087826334 0.011328087 0.04969202 0.13225374 -0.007846677 -0.101367265 0.090626575 0.03614145
-0.059091948 0.055141762 0.031604268 -0.062123615 -0.062969536 -0.11172865 0.027114369 -0.0035673582
0.05522329 0.1352152 0.019382263 -0.024771959 -0.06757158 0.022884797 0.01337454 -0.016880838
0.0090672495 0.06891544 -0.12094736 -0.002669788 -0.07215392 -0.111646645 -0.067009695 0.040736075
0.040758576 0.053472716 -0.13162147 0.019521672 0.008888016 -0.016901707 -0.063219264 -0.0005151846
0.022832451 0.051678885 -0.035857454 -0.037407532 -0.04620946 0.016259292 0.011274633 0.033741333
-0.010392651 -0.007785426 0.0011187462 -0.006318765 0.10748284 0.06329215 0.0016362164 0.0131260995
-0.0058747893 -0.01998168 -0.02552102 0.015401678 -0.058356836 0.03510569 0.009596718 -0.016639046
0.012987181 0.020282213 -0.024423566 0.030970452 0.33066294 -0.1043332 -0.017865527 -0.036409296
0.054419957 0.014774349 0.030199679 0.029524485 -0.000923632 -0.07975602 0.058704957 0.0686206
0.04673966 -0.024758551 0.012829513 -0.059830997 -0.05655434 0.03173805 0.062497504 0.0009532812
-0.0065687574 0.019890016 -0.08620636 0.05358023 0.03194151 -0.04231876 -0.14925605 0.11295023
-0.009505462 0.008397967 -0.00087041775 0.025753295 0.0863059 -0.13255948 -0.018719338 -0.011637741
-0.0040052724 -0.01902626 -0.054689214 -0.030478004 -0.044101816 -0.00700774 0.011163252 0.021531273
0.008212247 0.013053627 -0.061703563 0.028508421 0.24772455 0.17908874 0.015845587 -0.018771322
-0.090296425 0.032437854 0.12168045 0.008886152 -0.029219776 -0.055923875 0.09222166 -0.047059704
0.052933402 0.095059805 0.16378736 -0.03248322 -0.055874076 -0.082587264 0.11811082 -0.024020482
-0.051177353 0.07631075 -0.10335641 -0.012206327 -0.064040445 0.002589583 -0.1396983 -0.067751125
0.020897258 -0.041650858 0.029182391 0.05003729 -0.08273375 0.0047817715 -0.040505763 -0.086867474
0.056143664 -0.08237481 -0.011570114 0.011657544 0.033777613 -0.017519113 -0.069933586 -0.012763187
-0.0059387027 -0.032512598 -0.00230977 0.011958975 -0.10127254 0.109129526 0.07806321 0.056738183
-0.036125556 -0.04040671 -0.010185873 0.00957693 0.20281987 -0.0005397554 -0.004095686 -0.025528844
0.019380547 -0.04218864 -0.058316514 0.006406628 -0.09154628 -0.031034686 0.026268667 -0.011789523
0.0059196595 -0.073396705 0.016608411 0.020672567 0.41382354 0.04861771 -0.013181663 -0.03525103
0.029300226 -0.06411626 0.03169099 0.0020701736 -0.07334619 -0.036027495 0.0004445238 -0.06644412
0.044553574 0.042815022 -0.024323033 -0.003367681 -0.039578713 -0.073809065 0.08974909 0.079119936
-0.01315744 0.0050609973 -0.032643806 0.010613773 -0.1377856 0.15140222 -0.043454133 -0.009521239
0.015360959 -0.104525805 -0.12353994 0.051207393 -0.009372229 0.009499242 -0.113558136 0.041450042
-0.020346373 -0.100869425 -0.16950132 0.044641644 0.09887883 -0.06692543 -0.11379931 0.0538696

fcs1.bias f4 [400]
00000000: b607 813d 4745 0bbe 266b cbbd 8c82 a8bc
00000010: 62f5 16be 8b58 d3bc de04 72be bfe8 083e
00000020: 60cc cfbc 7e96 bc3d 4c8a 0bbe 3d6e 1abe
00000030: 3d48 8e3d aa81 86be f09b 323d dd7c 34be
00000040: 6ab5 0a3e e94e d3bd e2ad 023e 0868 423e
00000050: 3dd7 82bd 7ddb debd 66be 0f3e 8ab7 013e
00000060: e709 cb3d f622 113e 1d1f 863d fd28 f23d
00000070: bf14 abbd 5651 5abe 0cc2 0f3d a45a 163d
00000080: f821 57bd dd4e 27be 9f32 9d3d 6a9f 783d
00000090: 9243 213c f353 4abe 60d9 48be 11cc c23d
000000a0: 42dd c83d 45ea 9dbd 1a92 85bb 2477 363d
000000b0: 2bef 15be 7b69 de3d 8e2f 373d 9b4a 2c3e
000000c0: 6919 49bd 96fc c03d 637e 08be 9330 9cbd
000000d0: 8607 17be dc2a c73d 71ff a83c eefb ff3d
000000e0: c2d7 353e 06f7 09be 725b 3b3d a3c4 293d
000000f0: d1f7 fcbd aced f63d d44b 90bc 48b9 7dbe
00000100: 12df 0dbe f36f 413b 2b2a d7bd a249 433d
00000110: 2912 8c3d 4212 903d cff6 6abd 6a9d cbbb
00000120: 8a93 9c3b aabf 003e 0857 aa3d 6004 4dbe
00000130: fff8 c93d 32b3 9a3c fc4c 2ebd 8ad6 14be
00000140: 479a bf3d bd29 653c 106f 103d 3f70 f03d
00000150: 77f3 6cbe 8044 e53d 6719 3b3d 434f 43be
00000160: 71bd 42be 5055 94bc 8836 9ebd bfc1 46be
00000170: b2ce bd3c 47bc 46bc 89d2 bebd bea1 08be
00000180: 3693 533d df0f 3cbd 0026 a0bd f7cc 4cbe
00000190: 2c86 aabd 0a4c 34be 32fc e03d 8cbf 9d3d
000001a0: 5bb4 f9bd fcb1 4dbe ae92 e33d f80c f03d
000001b0: 0eb9 24be c1dd 353c 0623 b13d 5c4e 2f3d
000001c0: 253c ad3d 9e38 653d 7163 f33b d905 05be
000001d0: 266f 2cbb f714 4bbe d4e9 d0bd b437 1dbe
000001e0: e2c9 0bbe 530c 153e 8248 30be eadf c5bc
000001f0: 2ff9 8b3d 99cb cabd 7d07 8a3d d3d1 fa3b
00000200: 18f9 f1bd c071 63be f208 82be 9769 1ebd
00000210: 0901 d23d af78 a93d 2290 463d a732 debd
00000220: 8cd4 99bd f7f7 0fb8 810b 29be a18f 74bc
00000230: 1701 643d bb12 8fbd 3ad8 cebd 4994 37be
00000240: 2e25 913c 3ac7 9d3d 0f21 0abe 09fd 5f3c
00000250: 8b59 df3d c81d 9abd 0687 63be c932 1cbe
00000260: 7786 8cbd 2fb6 82bc 1489 54be 202c 56be
00000270: 0c70 e8bc 17d1 90bd 4521 86be 2332 47be
00000280: 625f eb3d ccff 003e 9760 25be 2d95 5ebe
00000290: 817a 47be 7226 56bd de8d c93c 0695 a6bd
000002a0: e8b0 823d 5edf e53c 8adc 3bbe fcb8 7f3d
000002b0: 580a 2abe c96c 26be 1385 f3bd 8637 833d
000002c0: 7baf 88bb 45ef 1b3d fa05 ca3d 8912 b93d
000002d0: 121f 393d 575f 41be 26f8 053e f500 96bd
000002e0: 8bef 013e 01f3 0b3e 86e4 123d 779f 60be
000002f0: f3b9 5c3d 9314 bf3d 714f 12be 3ccc 2b3d
00000300: 567a 9fbc 2696 b53c b8ef 1fbe 1f32 c33d
00000310: 75f7 2ebe 17ad 863d 7429 9639 8160 0dbd
00000320: 8a76 603d 558a 72bd d26c b4bd fe58 88bc
00000330: 18e1 e7bc 09b8 b2bd 0a9c 6abe 92d4 1bbe
00000340: ef59 21be 6ec2 123e fbd1 ee3d 7a4a fa3d
00000350: 8730 8f3d 1ddf 47be ec20 253e 69af de3c
00000360: 1609 ef3d d551 40bd 1972 f1bc ab0d f4bc
00000370: 82ba fb3d 94f1 063e 8942 113e b9f1 fd3d
00000380: 9e12 4d3d 23e6 6dbe 0675 5fbe f977 09be
00000390: 490b 4bbe 657c 0d3e 9a5e a93d 849a 09be
000003a0: ab62 45be 5afd b5bb e1e2 f3bd a671 ec3c
000003b0: bc51 c93c e417 ffbc 5f72 1d3e 9459 313e
000003c0: 0a96 ac3d e0fb 27be 4462 99bd 4cb3 31bd
000003d0: 8e69 1b3e fd6f 68be 898d febc 45a8 393c
000003e0: 9552 7ebe c495 d93d 6378 0e3e f03e c3bd
000003f0: 7859 55bc 4cd5 783d 2e81 eabc d1b7 50be
0.06300299 -0.13600646 -0.09932546 -0.020570062 -0.14742044 -0.025799057 -0.23634669 0.13370036
-0.025366008 0.092083916 -0.13626975 -0.15081115 0.06947372 -0.262708 0.043605745 -0.17625757
0.13545766 -0.10317785 0.12761644 0.18984997 -0.0638871 -0.10881708 0.14037475 0.12667671
0.09913998 0.14173493 0.06548903 0.11824224 -0.083535664 -0.2132009 0.035097167 0.036707535
-0.05252263 -0.16338678 0.07675671 0.060698904 0.00984277 -0.19758587 -0.19614172 0.09511579
0.098078266 -0.07710699 -0.0040762546 0.044547215 -0.14642017 0.108599626 0.044723086 0.16825335
-0.0490965 0.09423177 -0.13329463 -0.07626452 -0.14748964 0.09724972 0.020629616 0.12499224
0.17758086 -0.13473138 0.045741506 0.041447293 -0.12351955 0.12057051 -0.017614283 -0.2477771
-0.13854626 0.002951619 -0.1050609 0.047677644 0.06839401 0.070347324 -0.05736428 -0.0062138336
0.00477833 0.12573114 0.08317381 -0.200212 0.09861945 0.018884275 -0.042553887 -0.14534965
0.09355598 0.013987002 0.035262167 0.11740159 -0.2313975 0.11194706 0.045678522 -0.19073205
-0.19017579 -0.018107086 -0.07725245 -0.19409846 0.023169849 -0.01212985 -0.093175 -0.1334295
0.051654063 -0.045913573 -0.07819748 -0.20000063 -0.083263725 -0.17607132 0.109856024 0.0770255
-0.12192603 -0.20087427 0.11111961 0.117212236 -0.16086218 0.0111002335 0.08649258 0.04279934
0.08458737 0.055962197 0.007427626 -0.12990512 -0.0026311367 -0.19832216 -0.10200849 -0.1535328
-0.13651231 0.14555483 -0.1721516 -0.024154622 0.068346374 -0.099021144 0.067397095 0.0076544075
-0.11815089 -0.22211361 -0.2539745 -0.038674917 0.10254104 0.08274972 0.0484773 -0.10849505
-0.07511243 -3.4324792e-05 -0.16508295 -0.014926822 0.0556651 -0.069859944 -0.10099836 -0.1792766
0.017717924 0.07704015 -0.13489173 0.013671168 0.10905751 -0.075252116 -0.22219476 -0.15253748
-0.06861585 -0.015956013 -0.20755416 -0.2091527 -0.02837374 -0.07071131 -0.26197258 -0.1945272
0.11492802 0.12597579 -0.16150127 -0.21736594 -0.19480325 -0.052282758 0.02460378 -0.08133893
0.063813984 0.028060611 -0.18345848 0.062432274 -0.16605508 -0.16252436 -0.11890616 0.06407075
-0.0041713095 0.038069982 0.09864421 0.090367384 0.045195647 -0.18884026 0.13082942 -0.07324401
0.12689035 0.13666917 0.03586247 -0.21935831 0.053888272 0.09330096 -0.14288117 0.04194282
-0.019467514 0.022166323 -0.15618789 0.09531044 -0.17086585 0.06575983 0.00028641114 -0.03451586
0.054800548 -0.059213955 -0.08809818 -0.016643997 -0.028305575 -0.08726508 -0.22911087 -0.15217808
-0.15756963 0.14331982 0.11661144 0.122212365 0.06991678 -0.19518705 0.1612584 0.027183251
0.11671655 -0.04695304 -0.029473351 -0.029791674 0.12291433 0.13178092 0.14185537 0.123996206
0.050066583 -0.23232321 -0.21821985 -0.13424672 -0.19828524 0.13816984 0.08269997 -0.1343785
-0.1927592 -0.0055538835 -0.11908508 0.028862786 0.024575107 -0.031139322 0.1537566 0.17319328
0.08427055 -0.16404676 -0.07489446 -0.04338388 0.15176985 -0.2269897 -0.031073349 0.0113316225
-0.2483619 0.10624269 0.13913111 -0.09533489 -0.013021819 0.06075029 -0.02862605 -0.2038262

bn1.weight f4 [400]
00000000: 7d22 753f e001 883d d494 433f 0d69 093f
00000010: 9ba7 693f 4449 073f 3487 cc3e 322c e03e
00000020: bc4f 073e 5142 693f f696 4d3f a892 173f
00000030: 02c0 f53e 4ad2 923e 6b4b 063f 6fe0 233f
00000040: a68e a33e f943 083f 8c8f 6a3f d054 0f3e
00000050: 6e4e aa3e 503e 633f 1c1d 753f d144 6a3f
00000060: 8895 bb3e 9c31 4e3f 5690 203f ca8c c53e
00000070: 9627 d93e 720c 5d3f 22cc 553f a62d 513f
00000080: 3207 a23e 0020 b738 b4d9 993e c463 353f
00000090: 8088 b43c 4f13 483f ccc7 863e ba99 563f
000000a0: 6080 103e 1069 9b3e 0046 e03c d462 243e
000000b0: 1cb9 c73e 065a c03e a710 003f f97d 3f3f
000000c0: 9a13 ab3e 3701 563f 6ee5 ca3e ec7b 883e
000000d0: 487c d93e fe55 363f 8cef 813e 4801 ce3d
000000e0: 9045 c13d 6273 e93e a8e3 353f b1fa 503f
000000f0: ebc3 073f 0e1f c13e 2059 ab3e e0ae 8a3c
00000100: 1c19 0e3e a841 a33e 881b d63e 0b90 2e3f
00000110: 6fec 5a3f ecc2 773e c0e9 383e c0fa 073c
00000120: b058 1d3f 52be 7e3f 796b 573f 99f5 773f
00000130: 6044 1d3f f44f 9d3e 4a95 663f 3d47 223f
00000140: f80d 4b3f c015 2f3e b42b a13e f006 563e
00000150: d8e9 ae3d 4c51 593f 7002 373e d07c 303e
00000160: 5efb ea3e a0e3 223e e0be 113f 9a12 9d3e
00000170: b86b 5e3f 296b 253f 71d0 0d3f 5406 2e3f
00000180: ce69 da3e 8059 483c 1814 713f 9e8a db3e
00000190: 9b20 043f 7843 8a3e 0e40 5b3f b485 cc3e
000001a0: aefa b23e a4f2 193f c2ee d03e 7c7b b73e
000001b0: 4f6a 173f 97a0 4b3f ecf4 243e 073a 6b3f
000001c0: 0ea0 453f 54de 503f 3c3c 113f e870 f93e
000001d0: ea0d df3e f81b f33e 18d1 043e 506d c53e
000001e0: eef1 1c3f d863 6a3e d4ac 593f 8711 473f
000001f0: 2065 9d3e 3a3c b63e a0c9 da3e 9e4c 073f
00000200: 2837 793f d5a1 373f 6ce0 543f a0cb ef3e
00000210: d6fd 023f d8ca b93d 07b5 063f e8c9 3d3f
00000220: e021 323e 21a1 223f 707a 5b3f b6e0 fe3e
00000230: 40cf 633e 4891 793f bb18 563f 008a b13b
00000240: 6c64 373e 8965 493f 6899 ba3d 686d e33e
00000250: 7c2f 7a3f 7c4c 503e d222 403f c875 4b3f
00000260: c80b 4e3f 4c42 3c3e 1e74 de3e e335 4b3f
00000270: def9 9f3e 1049 783f 6882 623e 1812 a13e
00000280: 6ff2 133f a0db 523e fe0c af3e bcdc 353f
00000290: 9884 9d3e 009a 9e3a e6ae cd3e 08de 0b3e
000002a0: 66b9 4f3f 58c0 823e f7e5 5e3f d41d 483f
000002b0: eb88 0c3f e18f 113f b8c5 753e c01d 423f
000002c0: f65f 673f 587a 3f3e a83b b23e 272e 053f
000002d0: 88f6 423f 3695 6f3f 63f0 2a3f 0e59 033f
000002e0: ba63 033f ec66 5d3f ede6 5b3f 60f7 df3c
000002f0: 0a10 923e 7836 153e 602b d43d 0e35 dc3e
00000300: 166e 6a3f 7050 173e 80ff 313c b47e 293f
00000310: 4688 d53e 9a4d 1b3f a2d9 f53e 97d0 343f
00000320: c017 473d a07f fe3c 7880 a73e 97d9 083f
00000330: 1530 103f 4a74 0c3f bbcb 1f3f 3aef 2a3f
00000340: dd77 5e3f ae6b 493f 0c91 3a3f d49f a23e
00000350: 5b4f 293f aef9 ae3e b4d9 183e 7009 b73e
00000360: 8bea 383f eb49 163f 48ad a23d f81c 673e
00000370: 9e63 bd3e a0ba 4f3d a0f6 e83e fe69 023f
00000380: 3cac 633f c032 5f3d 1686 e33e c8ef 7a3f
00000390: ba34 b53e 1ac2 c53e d502 6f3f 1ace 413f
000003a0: 3800 863e 0cb0 a83e f4fa 553e 20c2 3f3e
000003b0: 3073 873e 5340 293f aeae 953e 685a c43e
000003c0: 05a9 3f3f 4691 883e a0a1 523f 9a1f f83e
000003d0: 64d5 733e c0d0 da3e 1552 793f 3014 213e
000003e0: 228c 093f 2b94 5f3f a804 b13d 6ee7 1f3f
000003f0: 4908 563f ab30 273f 3e14 103f d8d6 973e
0.9575575 0.06640983 0.7639897 0.5367592 0.9127137 0.5284617 0.39946902 0.43783718
0.1321401 0.91116816 0.80308473 0.59208155 0.47998053 0.28676063 0.5245883 0.64014333
0.3194477 0.5322872 0.91625285 0.13997197 0.33262962 0.88766956 0.9574754 0.91511256
0.3663752 0.8054445 0.6272024 0.38583976 0.42413014 0.86347115 0.83514607 0.8171028
0.31646115 8.7320805e-05 0.30048907 0.70855355 0.022037745 0.7815446 0.26324308 0.8382832
0.14111471 0.30353594 0.027377129 0.16053325 0.39008415 0.37568682 0.5002541 0.74801594
0.33413392 0.83595604 0.39628166 0.26657045 0.42477632 0.71224964 0.25378072 0.10058838
0.09437096 0.45595843 0.710505 0.81632525 0.5303332 0.37719005 0.33466434 0.01692909
0.13876766 0.3188603 0.4181788 0.6818854 0.8551702 0.2419545 0.18057919 0.00829953
0.6146345 0.99509156 0.84148365 0.9685913 0.61432457 0.30725062 0.9007155 0.6338995
0.7931819 0.1709814 0.31478655 0.20901084 0.08540696 0.84889674 0.17872024 0.17235112
0.45894903 0.15907145 0.5693188 0.30678254 0.86883116 0.6461664 0.5539618 0.67978406
0.42658848 0.01222837 0.94171286 0.42879194 0.5161225 0.270046 0.85644615 0.39945757
0.34956878 0.60135865 0.40807158 0.358364 0.5914659 0.79541916 0.16109055 0.9188542
0.7719735 0.81589246 0.56732535 0.48718953 0.43565303 0.47482276 0.12970388 0.3855996
0.61306655 0.2288965 0.8502934 0.7776112 0.30741215 0.35592824 0.42731953 0.52851284
0.97349787 0.7173131 0.8315494 0.4683504 0.5116857 0.090718925 0.52619976 0.7413621
0.17395735 0.63527113 0.857337 0.49780816 0.22247028 0.97487307 0.83631486 0.005418062
0.17909402 0.78670555 0.09111291 0.44419408 0.97728705 0.20341676 0.7505313 0.79476595
0.80486727 0.18384665 0.43447965 0.793791 0.3124532 0.96986485 0.22120059 0.31459117
0.577918 0.20591593 0.341896 0.7103994 0.30765224 0.0012100339 0.401725 0.13658917
0.8114227 0.25537372 0.8706965 0.78170514 0.5489642 0.56860167 0.24001205 0.75826645
0.903808 0.18699014 0.3481114 0.5202355 0.76157427 0.9358705 0.6677305 0.5130776
0.51324046 0.8648517 0.8589924 0.027339637 0.28527862 0.1457156 0.103598356 0.43009228
0.9157423 0.14776778 0.010864139 0.6620896 0.4170553 0.60665286 0.48017603 0.7063078
0.048606634 0.031066716 0.327152 0.53457016 0.5632337 0.54864943 0.62420243 0.6677128
0.86901647 0.7867993 0.72877574 0.31762564 0.6613671 0.34174865 0.14926797 0.35749388
0.72232884 0.5870654 0.07943207 0.22569644 0.36990064 0.05071509 0.4550066 0.5094298
0.88934684 0.05449176 0.44438237 0.9802213 0.3539179 0.3862465 0.93363696 0.7570511
0.26172042 0.32946813 0.20896512 0.18726397 0.2645507 0.66113776 0.29234833 0.38350224
0.7486728 0.26673335 0.8227787 0.4846161 0.23811871 0.4273739 0.9739087 0.15730357
0.5372945 0.8733546 0.08643466 0.6246251 0.8360639 0.65308636 0.5628089 0.296561

bn1.bias f4 [400]
00000000: 0000 0000 0000 0000 0000 0000 0000 0000
00000010: 0000 0000 0000 0000 0000 0000 0000 0000
00000020: 0000 0000 0000 0000 0000 0000 0000 0000
00000030: 0000 0000 0000 0000 0000 0000 0000 0000
00000040: 0000 0000 0000 0000 0000 0000 0000 0000
00000050: 0000 0000 0000 0000 0000 0000 0000 0000
00000060: 0000 0000 0000 0000 0000 0000 0000 0000
00000070: 0000 0000 0000 0000 0000 0000 0000 0000
00000080: 0000 0000 0000 0000 0000 0000 0000 0000
00000090: 0000 0000 0000 0000 0000 0000 0000 0000
000000a0: 0000 0000 0000 0000 0000 0000 0000 0000
000000b0: 0000 0000 0000 0000 0000 0000 0000 0000
000000c0: 0000 0000 0000 0000 0000 0000 0000 0000
000000d0: 0000 0000 0000 0000 0000 0000 0000 0000
000000e0: 0000 0000 0000 0000 0000 0000 0000 0000
000000f0: 0000 0000 0000 0000 0000 0000 0000 0000
00000100: 0000 0000 0000 0000 0000 0000 0000 0000
00000110: 0000 0000 0000 0000 0000 0000 0000 0000
00000120: 0000 0000 0000 0000 0000 0000 0000 0000
00000130: 0000 0000 0000 0000 0000 0000 0000 0000
00000140: 0000 0000 0000 0000 0000 0000 0000 0000
00000150: 0000 0000 0000 0000 0000 0000 0000 0000
00000160: 0000 0000 0000 0000 0000 0000 0000 0000
00000170: 0000 0000 0000 0000 0000 0000 0000 0000
00000180: 0000 0000 0000 0000 0000 0000 0000 0000
00000190: 0000 0000 0000 0000 0000 0000 0000 0000
000001a0: 0000 0000 0000 0000 0000 0000 0000 0000
000001b0: 0000 0000 0000 0000 0000 0000 0000 0000
000001c0: 0000 0000 0000 0000 0000 0000 0000 0000
000001d0: 0000 0000 0000 0000 0000 0000 0000 0000
000001e0: 0000 0000 0000 0000 0000 0000 0000 0000
000001f0: 0000 0000 0000 0000 0000 0000 0000 0000
00000200: 0000 0000 0000 0000 0000 0000 0000 0000
00000210: 0000 0000 0000 0000 0000 0000 0000 0000
00000220: 0000 0000 0000 0000 0000 0000 0000 0000
00000230: 0000 0000 0000 0000 0000 0000 0000 0000
00000240: 0000 0000 0000 0000 0000 0000 0000 0000
00000250: 0000 0000 0000 0000 0000 0000 0000 0000
00000260: 0000 0000 0000 0000 0000 0000 0000 0000
00000270: 0000 0000 0000 0000 0000 0000 0000 0000
00000280: 0000 0000 0000 0000 0000 0000 0000 0000
00000290: 0000 0000 0000 0000 0000 0000 0000 0000
000002a0: 0000 0000 0000 0000 0000 0000 0000 0000
000002b0: 0000 0000 0000 0000 0000 0000 0000 0000
000002c0: 0000 0000 0000 0000 0000 0000 0000 0000
000002d0: 0000 0000 0000 0000 0000 0000 0000 0000
000002e0: 0000 0000 0000 0000 0000 0000 0000 0000
000002f0: 0000 0000 0000 0000 0000 0000 0000 0000
00000300: 0000 0000 0000 0000 0000 0000 0000 0000
00000310: 0000 0000 0000 0000 0000 0000 0000 0000
00000320: 0000 0000 0000 0000 0000 0000 0000 0000
00000330: 0000 0000 0000 0000 0000 0000 0000 0000
00000340: 0000 0000 0000 0000 0000 0000 0000 0000
00000350: 0000 0000 0000 0000 0000 0000 0000 0000
00000360: 0000 0000 0000 0000 0000 0000 0000 0000
00000370: 0000 0000 0000 0000 0000 0000 0000 0000
00000380: 0000 0000 0000 0000 0000 0000 0000 0000
00000390: 0000 0000 0000 0000 0000 0000 0000 0000
000003a0: 0000 0000 0000 0000 0000 0000 0000 0000
000003b0: 0000 0000 0000 0000 0000 0000 0000 0000
000003c0: 0000 0000 0000 0000 0000 0000 0000 0000
000003d0: 0000 0000 0000 0000 0000 0000 0000 0000
000003e0: 0000 0000 0000 0000 0000 0000 0000 0000
000003f0: 0000 0000 0000 0000 0000 0000 0000 0000
0.0 0.0 0.0 0.0 0.0 0.0 0.0 0.0
0.0 0.0 0.0 0.0 0.0 0.0 0.0 0.0
0.0 0.0 0.0 0.0 0.0 0.0 0.0 0.0
0.0 0.0 0.0 0.0 0.0 0.0 0.0 0.0
0.0 0.0 0.0 0.0 0.0 0.0 0.0 0.0
0.0 0.0 0.0 0.0 0.0 0.0 0.0 0.0
0.0 0.0 0.0 0.0 0.0 0.0 0.0 0.0
0.0 0.0 0.0 0.0 0.0 0.0 0.0 0.0
0.0 0.0 0.0 0.0 0.0 0.0 0.0 0.0
0.0 0.0 0.0 0.0 0.0 0.0 0.0 0.0
0.0 0.0 0.0 0.0 0.0 0.0 0.0 0.0
0.0 0.0 0.0 0.0 0.0 0.0 0.0 0.0
0.0 0.0 0.0 0.0 0.0 0.0 0.0 0.0
0.0 0.0 0.0 0.0 0.0 0.0 0.0 0.0
0.0 0.0 0.0 0.0 0.0 0.0 0.0 0.0
0.0 0.0 0.0 0.0 0.0 0.0 0.0 0.0
0.0 0.0 0.0 0.0 0.0 0.0 0.0 0.0
0.0 0.0 0.0 0.0 0.0 0.0 0.0 0.0
0.0 0.0 0.0 0.0 0.0 0.0 0.0 0.0
0.0 0.0 0.0 0.0 0.0 0.0 0.0 0.0
0.0 0.0 0.0 0.0 0.0 0.0 0.0 0.0
0.0 0.0 0.0 0.0 0.0 0.0 0.0 0.0
0.0 0.0 0.0 0.0 0.0 0.0 0.0 0.0
0.0 0.0 0.0 0.0 0.0 0.0 0.0 0.0
0.0 0.0 0.0 0.0 0.0 0.0 0.0 0.0
0.0 0.0 0.0 0.0 0.0 0.0 0.0 0.0
0.0 0.0 0.0 0.0 0.0 0.0 0.0 0.0
0.0 0.0 0.0 0.0 0.0 0.0 0.0 0.0
0.0 0.0 0.0 0.0 0.0 0.0 0.0 0.0
0.0 0.0 0.0 0.0 0.0 0.0 0.0 0.0
0.0 0.0 0.0 0.0 0.0 0.0 0.0 0.0
0.0 0.0 0.0 0.0 0.0 0.0 0.0 0.0

bn1.running_mean f4 [400]
00000000: 0000 0000 0000 0000 0000 0000 0000 0000
00000010: 0000 0000 0000 0000 0000 0000 0000 0000
00000020: 0000 0000 0000 0000 0000 0000 0000 0000
00000030: 0000 0000 0000 0000 0000 0000 0000 0000
00000040: 0000 0000 0000 0000 0000 0000 0000 0000
00000050: 0000 0000 0000 0000 0000 0000 0000 0000
00000060: 0000 0000 0000 0000 0000 0000 0000 0000
00000070: 0000 0000 0000 0000 0000 0000 0000 0000
00000080: 0000 0000 0000 0000 0000 0000 0000 0000
00000090: 0000 0000 0000 0000 0000 0000 0000 0000
000000a0: 0000 0000 0000 0000 0000 0000 0000 0000
000000b0: 0000 0000 0000 0000 0000 0000 0000 0000
000000c0: 0000 0000 0000 0000 0000 0000 0000 0000
000000d0: 0000 0000 0000 0000 0000 0000 0000 0000
000000e0: 0000 0000 0000 0000 0000 0000 0000 0000
000000f0: 0000 0000 0000 0000 0000 0000 0000 0000
00000100: 0000 0000 0000 0000 0000 0000 0000 0000
00000110: 0000 0000 0000 0000 0000 0000 0000 0000
00000120: 0000 0000 0000 0000 0000 0000 0000 0000
00000130: 0000 0000 0000 0000 0000 0000 0000 0000
00000140: 0000 0000 0000 0000 0000 0000 0000 0000
00000150: 0000 0000 0000 0000 0000 0000 0000 0000
00000160: 0000 0000 0000 0000 0000 0000 0000 0000
00000170: 0000 0000 0000 0000 0000 0000 0000 0000
00000180: 0000 0000 0000 0000 0000 0000 0000 0000
00000190: 0000 0000 0000 0000 0000 0000 0000 0000
000001a0: 0000 0000 0000 0000 0000 0000 0000 0000
000001b0: 0000 0000 0000 0000 0000 0000 0000 0000
000001c0: 0000 0000 0000 0000 0000 0000 0000 0000
000001d0: 0000 0000 0000 0000 0000 0000 0000 0000
000001e0: 0000 0000 0000 0000 0000 0000 0000 0000
000001f0: 0000 0000 0000 0000 0000 0000 0000 0000
00000200: 0000 0000 0000 0000 0000 0000 0000 0000
00000210: 0000 0000 0000 0000 0000 0000 0000 0000
00000220: 0000 0000 0000 0000 0000 0000 0000 0000
00000230: 0000 0000 0000 0000 0000 0000 0000 0000
00000240: 0000 0000 0000 0000 0000 0000 0000 0000
00000250: 0000 0000 0000 0000 0000 0000 0000 0000
00000260: 0000 0000 0000 0000 0000 0000 0000 0000
00000270: 0000 0000 0000 0000 0000 0000 0000 0000
00000280: 0000 0000 0000 0000 0000 0000 0000 0000
00000290: 0000 0000 0000 0000 0000 0000 0000 0000
000002a0: 0000 0000 0000 0000 0000 0000 0000 0000
000002b0: 0000 0000 0000 0000 0000 0000 0000 0000
000002c0: 0000 0000 0000 0000 0000 0000 0000 0000
000002d0: 0000 0000 0000 0000 0000 0000 0000 0000
000002e0: 0000 0000 0000 0000 0000 0000 0000 0000
000002f0: 0000 0000 0000 0000 0000 0000 0000 0000
00000300: 0000 0000 0000 0000 0000 0000 0000 0000
00000310: 0000 0000 0000 0000 0000 0000 0000 0000
00000320: 0000 0000 0000 0000 0000 0000 0000 0000
00000330: 0000 0000 0000 0000 0000 0000 0000 0000
00000340: 0000 0000 0000 0000 0000 0000 0000 0000
00000350: 0000 0000 0000 0000 0000 0000 0000 0000
00000360: 0000 0000 0000 0000 0000 0000 0000 0000
00000370: 0000 0000 0000 0000 0000 0000 0000 0000
00000380: 0000 0000 0000 0000 0000 0000 0000 0000
00000390: 0000 0000 0000 0000 0000 0000 0000 0000
000003a0: 0000 0000 0000 0000 0000 0000 0000 0000
000003b0: 0000 0000 0000 0000 0000 0000 0000 0000
000003c0: 0000 0000 0000 0000 0000 0000 0000 0000
000003d0: 0000 0000 0000 0000 0000 0000 0000 0000
000003e0: 0000 0000 0000 0000 0000 0000 0000 0000
000003f0: 0000 0000 0000 0000 0000 0000 0000 0000
0.0 0.0 0.0 0.0 0.0 0.0 0.0 0.0
0.0 0.0 0.0 0.0 0.0 0.0 0.0 0.0
0.0 0.0 0.0 0.0 0.0 0.0 0.0 0.0
0.0 0.0 0.0 0.0 0.0 0.0 0.0 0.0
0.0 0.0 0.0 0.0 0.0 0.0 0.0 0.0
0.0 0.0 0.0 0.0 0.0 0.0 0.0 0.0
0.0 0.0 0.0 0.0 0.0 0.0 0.0 0.0
0.0 0.0 0.0 0.0 0.0 0.0 0.0 0.0
0.0 0.0 0.0 0.0 0.0 0.0 0.0 0.0
0.0 0.0 0.0 0.0 0.0 0.0 0.0 0.0
0.0 0.0 0.0 0.0 0.0 0.0 0.0 0.0
0.0 0.0 0.0 0.0 0.0 0.0 0.0 0.0
0.0 0.0 0.0 0.0 0.0 0.0 0.0 0.0
0.0 0.0 0.0 0.0 0.0 0.0 0.0 0.0
0.0 0.0 0.0 0.0 0.0 0.0 0.0 0.0
0.0 0.0 0.0 0.0 0.0 0.0 0.0 0.0
0.0 0.0 0.0 0.0 0.0 0.0 0.0 0.0
0.0 0.0 0.0 0.0 0.0 0.0 0.0 0.0
0.0 0.0 0.0 0.0 0.0 0.0 0.0 0.0
0.0 0.0 0.0 0.0 0.0 0.0 0.0 0.0
0.0 0.0 0.0 0.0 0.0 0.0 0.0 0.0
0.0 0.0 0.0 0.0 0.0 0.0 0.0 0.0
0.0 0.0 0.0 0.0 0.0 0.0 0.0 0.0
0.0 0.0 0.0 0.0 0.0 0.0 0.0 0.0
0.0 0.0 0.0 0.0 0.0 0.0 0.0 0.0
0.0 0.0 0.0 0.0 0.0 0.0 0.0 0.0
0.0 0.0 0.0 0.0 0.0 0.0 0.0 0.0
0.0 0.0 0.0 0.0 0.0 0.0 0.0 0.0
0.0 0.0 0.0 0.0 0.0 0.0 0.0 0.0
0.0 0.0 0.0 0.0 0.0 0.0 0.0 0.0
0.0 0.0 0.0 0.0 0.0 0.0 0.0 0.0
0.0 0.0 0.0 0.0 0.0 0.0 0.0 0.0

bn1.running_var f4 [400]
00000000: 0000 803f 0000 803f 0000 803f 0000 803f
00000010: 0000 803f 0000 803f 0000 803f 0000 803f
00000020: 0000 803f 0000 803f 0000 803f 0000 803f
00000030: 0000 803f 0000 803f 0000 803f 0000 803f
00000040: 0000 803f 0000 803f 0000 803f 0000 803f
00000050: 0000 803f 0000 803f 0000 803f 0000 803f
00000060: 0000 803f 0000 803f 0000 803f 0000 803f
00000070: 0000 803f 0000 803f 0000 803f 0000 803f
00000080: 0000 803f 0000 803f 0000 803f 0000 803f
00000090: 0000 803f 0000 803f 0000 803f 0000 803f
000000a0: 0000 803f 0000 803f 0000 803f 0000 803f
000000b0: 0000 803f 0000 803f 0000 803f 0000 803f
000000c0: 0000 803f 0000 803f 0000 803f 0000 803f
000000d0: 0000 803f 0000 803f 0000 803f 0000 803f
000000e0: 0000 803f 0000 803f 0000 803f 0000 803f
000000f0: 0000 803f 0000 803f 0000 803f 0000 803f
00000100: 0000 803f 0000 803f 0000 803f 0000 803f
00000110: 0000 803f 0000 803f 0000 803f 0000 803f
00000120: 0000 803f 0000 803f 0000 803f 0000 803f
00000130: 0000 803f 0000 803f 0000 803f 0000 803f
00000140: 0000 803f 0000 803f 0000 803f 0000 803f
00000150: 0000 803f 0000 803f 0000 803f 0000 803f
00000160: 0000 803f 0000 803f 0000 803f 0000 803f
00000170: 0000 803f 0000 803f 0000 803f 0000 803f
00000180: 0000 803f 0000 803f 0000 803f 0000 803f
00000190: 0000 803f 0000 803f 0000 803f 0000 803f
000001a0: 0000 803f 0000 803f 0000 803f 0000 803f
000001b0: 0000 803f 0000 803f 0000 803f 0000 803f
000001c0: 0000 803f 0000 803f 0000 803f 0000 803f
000001d0: 0000 803f 0000 803f 0000 803f 0000 803f
000001e0: 0000 803f 0000 803f 0000 803f 0000 803f
000001f0: 0000 803f 0000 803f 0000 803f 0000 803f
00000200: 0000 803f 0000 803f 0000 803f 0000 803f
00000210: 0000 803f 0000 803f 0000 803f 0000 803f
00000220: 0000 803f 0000 803f 0000 803f 0000 803f
00000230: 0000 803f 0000 803f 0000 803f 0000 803f
00000240: 0000 803f 0000 803f 0000 803f 0000 803f
00000250: 0000 803f 0000 803f 0000 803f 0000 803f
00000260: 0000 803f 0000 803f 0000 803f 0000 803f
00000270: 0000 803f 0000 803f 0000 803f 0000 803f
00000280: 0000 803f 0000 803f 0000 803f 0000 803f
00000290: 0000 803f 0000 803f 0000 803f 0000 803f
000002a0: 0000 803f 0000 803f 0000 803f 0000 803f
000002b0: 0000 803f 0000 803f 0000 803f 0000 803f
000002c0: 0000 803f 0000 803f 0000 803f 0000 803f
000002d0: 0000 803f 0000 803f 0000 803f 0000 803f
000002e0: 0000 803f 0000 803f 0000 803f 0000 803f
000002f0: 0000 803f 0000 803f 0000 803f 0000 803f
00000300: 0000 803f 0000 803f 0000 803f 0000 803f
00000310: 0000 803f 0000 803f 0000 803f 0000 803f
00000320: 0000 803f 0000 803f 0000 803f 0000 803f
00000330: 0000 803f 0000 803f 0000 803f 0000 803f
00000340: 0000 803f 0000 803f 0000 803f 0000 803f
00000350: 0000 803f 0000 803f 0000 803f 0000 803f
00000360: 0000 803f 0000 803f 0000 803f 0000 803f
00000370: 0000 803f 0000 803f 0000 803f 0000 803f
00000380: 0000 803f 0000 803f 0000 803f 0000 803f
00000390: 0000 803f 0000 803f 0000 803f 0000 803f
000003a0: 0000 803f 0000 803f 0000 803f 0000 803f
000003b0: 0000 803f 0000 803f 0000 803f 0000 803f
000003c0: 0000 803f 0000 803f 0000 803f 0000 803f
000003d0: 0000 803f 0000 803f 0000 803f 0000 803f
000003e0: 0000 803f 0000 803f 0000 803f 0000 803f
000003f0: 0000 803f 0000 803f 0000 803f 0000 803f
1.0 1.0 1.0 1.0 1.0 1.0 1.0 1.0
1.0 1.0 1.0 1.0 1.0 1.0 1.0 1.0
1.0 1.0 1.0 1.0 1.0 1.0 1.0 1.0
1.0 1.0 1.0 1.0 1.0 1.0 1.0 1.0
1.0 1.0 1.0 1.0 1.0 1.0 1.0 1.0
1.0 1.0 1.0 1.0 1.0 1.0 1.0 1.0
1.0 1.0 1.0 1.0 1.0 1.0 1.0 1.0
1.0 1.0 1.0 1.0 1.0 1.0 1.0 1.0
1.0 1.0 1.0 1.0 1.0 1.0 1.0 1.0
1.0 1.0 1.0 1.0 1.0 1.0 1.0 1.0
1.0 1.0 1.0 1.0 1.0 1.0 1.0 1.0
1.0 1.0 1.0 1.0 1.0 1.0 1.0 1.0
1.0 1.0 1.0 1.0 1.0 1.0 1.0 1.0
1.0 1.0 1.0 1.0 1.0 1.0 1.0 1.0
1.0 1.0 1.0 1.0 1.0 1.0 1.0 1.0
1.0 1.0 1.0 1.0 1.0 1.0 1.0 1.0
1.0 1.0 1.0 1.0 1.0 1.0 1.0 1.0
1.0 1.0 1.0 1.0 1.0 1.0 1.0 1.0
1.0 1.0 1.0 1.0 1.0 1.0 1.0 1.0
1.0 1.0 1.0 1.0 1.0 1.0 1.0 1.0
1.0 1.0 1.0 1.0 1.0 1.0 1.0 1.0
1.0 1.0 1.0 1.0 1.0 1.0 1.0 1.0
1.0 1.0 1.0 1.0 1.0 1.0 1.0 1.0
1.0 1.0 1.0 1.0 1.0 1.0 1.0 1.0
1.0 1.0 1.0 1.0 1.0 1.0 1.0 1.0
1.0 1.0 1.0 1.0 1.0 1.0 1.0 1.0
1.0 1.0 1.0 1.0 1.0 1.0 1.0 1.0
1.0 1.0 1.0 1.0 1.0 1.0 1.0 1.0
1.0 1.0 1.0 1.0 1.0 1.0 1.0 1.0
1.0 1.0 1.0 1.0 1.0 1.0 1.0 1.0
1.0 1.0 1.0 1.0 1.0 1.0 1.0 1.0
1.0 1.0 1.0 1.0 1.0 1.0 1.0 1.0

fc2.weight f4 [300, 402]
00000000: 01e7 17bc 5316 353c fa76 aabb a0e5 80bf
00000010: 76d5 993c 4e6f 963d f40c aabd de59 173d
00000020: f597 51bf 50bb a13c 1e5d 7dbd da7c 893d
00000030: 965c ecbb 137e b1bd 4793 5cbd 2172 b3bc
00000040: a73e 793d 2b0b bfbc e26d 593d 0646 023d
00000050: 93da d93d fc5b 9e3d 5249 db3c 4ed6 1fbd
00000060: 5021 af3c a44b 993b 2efb 8dbd e2f9 3f3d
00000070: 2e7c 5cbd b49e 6cbd ee82 023c 5e2d 0ebc
00000080: 4962 58bd 627a d3bd 7910 f5bc 2b75 233c
00000090: 3a44 dabb cf2f 8abe 1cca a03d cab1 e9bd
000000a0: bea1 c93c 8fe7 bbbd d3c8 2e3d f62c 743d
000000b0: 06ef 0abd 5166 183c 5ce6 523d 46ff 42bd
000000c0: b4c9 ae3c 0255 803d 8109 6bbd ed62 493b
000000d0: 52e8 dbbc 1a25 6c3d 948c c43c 8613 cabb
000000e0: 6058 0e3d 1de2 b8bc e329 1c3c 5deb 873d
000000f0: bc84 17bd 005c 393c 6383 ce3c 1575 6dbc
00000100: a769 303d be0e 35bd d185 c23d e7e8 8a3d
00000110: 6228 5b3d d319 ffbc 4278 94bc 3639 bfbb
00000120: 6370 adbc 8440 6e3d b76b 673d 2159 c13d
00000130: 1a7b c83c 0aa3 f93c bbe7 91bd 7ce6 b7bc
00000140: e65a 993c 243a d53c 89e3 29be 6f0b 13bd
00000150: e202 35be bd97 9c3d 6699 483d 7c57 593d
00000160: 723e 2dbe 9aca f13b 89ba c93b 70d6 84bc
00000170: f22f cabd c3c3 fbbb 07e4 2b3d 255d 0a3d
00000180: 3480 8fbb dfc7 303d 8307 8a3d 2ff2 4cbc
00000190: 7381 9abc 5ffe 30bd 0cce b8bb 218a 4b3d
000001a0: 0159 0abe 5e98 f7bc 0e8e d23d 3ff9 1a3c
000001b0: 9ef1 333d 27bb a13d bc2c 9bbd bb30 15bd
000001c0: 390d 08be 80e2 953d d77d 67ba 0306 c43a
000001d0: ba07 983d 2987 7fbe a6b9 653c 0eab e6bd
000001e0: 2f6d c1bc 6d92 91bc 10fc aebc 3a13 373a
000001f0: 92b1 0b3c a9e9 a1bc d6ce a6bd 91f2 c6bb
00000200: af0d 7ebc 41a5 0fbd b50f 4a3e 519c d9be
00000210: eea1 eebc 644c ca3d 507b 5f3e 9f64 8a3c
00000220: 9d01 6cbd f689 7a3d d3e6 383c d571 e63d
00000230: 80b4 873d 75aa b5bc d33c 013d f5ad 0abe
00000240: 31f2 393c d053 cbbd 34a6 663b 14ee 83be
00000250: ab81 5b3d d101 18bc 3fcc fd3c 8942 2abe
00000260: eb3a ea3b 74b0 5c3d 0c5a 78be 0a9d 83bd
00000270: 3a42 423d 8e94 48bd b279 47bb 7390 b4be
00000280: 58d3 efbd 71f6 b63c ef6e 14be 542b d7bb
00000290: 1fb5 ae3d dc05 e7bc 2c45 77bc a316 333d
000002a0: 92f5 2d3d bb36 803c 2d16 21bd d05b ee3d
000002b0: 64ba 0b3d bd67 21bd e64d 2e3c aebe ec3b
000002c0: 5149 043d 4a50 263b 68d3 2f3d e5b3 8c3d
000002d0: 7bde 4d3d 2ccb e33d b18b 423d 14da a1bd
000002e0: 5152 95b9 cd7e 243d 6c63 aa3d b544 2f3e
000002f0: 8257 513d 49f9 1abc 835c a2bd a593 183c
00000300: 58a6 b93d aadf 723d 2403 22bd e521 be3c
00000310: 710e a73d a0ca 323d 47df 293d c675 d5bb
00000320: 57c3 c4bc e196 88bc d813 6abc 5f03 a83d
00000330: 4bcf b63d 00c3 233d 94f6 fabd b806 19be
00000340: f715 3dbc a97f 243d 1cdd 7a3c 0d2d a7bd
00000350: 9648 e33d ffcf 303d e509 4d3d 3292 f3bd
00000360: a106 f33b 6839 c93c 94ad 023e 9f6c c9bc
00000370: 1e07 21bd 1655 233c 28e5 bdbd 2e93 723c
00000380: e414 603c 2702 abbc eb17 bfbe b9f9 ad3c
00000390: 64cd 3abd b653 9bbc 95e7 b0bc 4e78 acba
000003a0: fa8d 5ebe 5a43 57be 146f beba 2a19 803c
000003b0: 72de 0fbc ed59 17be 99be 41bd af59 f4bc
000003c0: c347 603c 5ccd 023e 6011 21b9 caad 9dbe
000003d0: 7927 383c 883d 93be 5a07 36bd 365c ce3d
000003e0: 93a4 e8bd 6706 1abd 07f2 8bbd 22a7 533d
000003f0: d828 343d ac81 313c 667d 94bd 4ef8 b43c
-0.009271384 0.011052686 -0.0052021714 -1.0070076 0.018778544 0.073454484 -0.08303252 0.03695094
-0.81872493 0.019742638 -0.06185638 0.06713267 -0.0072131855 -0.08666625 -0.053851392 -0.021905007
0.060850766 -0.023320755 0.053083308 0.03180506 0.10637393 0.077323884 0.02676836 -0.039022736
0.02137819 0.0046782065 -0.06932674 0.046869166 -0.053829364 -0.05776854 0.007965786 -0.008677809
-0.052828107 -0.10326077 -0.029915081 0.0099766655 -0.0066609653 -0.269896 0.07851049 -0.11410864
0.024613257 -0.09175026 0.04267199 0.05961319 -0.033919357 0.009301738 0.05148922 -0.04760673
0.021336414 0.06266214 -0.05738211 0.003072913 -0.026844177 0.05765257 0.023992814 -0.006166878
0.03475225 -0.022568757 0.009531471 0.06636689 -0.03699182 0.011313438 0.025209134 -0.014493247
0.043069508 -0.044203512 0.0949818 0.06782704 0.05350531 -0.031140244 -0.01812375 -0.0058356775
-0.021171754 0.058166996 0.05649921 0.09440828 0.024472762 0.03047325 -0.07124277 -0.02244877
0.018720102 0.0260287 -0.16590704 -0.035899576 -0.17676881 0.07646129 0.048974417 0.053061947
-0.16918352 0.0073788883 0.00615627 -0.016215533 -0.09872426 -0.0076832487 0.04196551 0.033780236
-0.0043792967 0.043159362 0.06739714 -0.012508913 -0.018860554 -0.043211337 -0.005639797 0.049692277
-0.13510515 -0.030224022 0.10281001 0.009458839 0.043931596 0.078970246 -0.07576892 -0.036423426
-0.13286294 0.07318592 -0.0008830702 0.0014955405 0.07423349 -0.24953903 0.014021313 -0.11263095
-0.023611633 -0.017770017 -0.021360427 0.0006983761 0.008526223 -0.019764738 -0.081449196 -0.0060713966
-0.015506192 -0.035069708 0.19732554 -0.42502072 -0.029129948 0.098778516 0.21824384 0.016893683
-0.057618726 0.061166726 0.0112855015 0.112521805 0.066262245 -0.022176007 0.031552147 -0.13542922
0.011349247 -0.09928095 0.003519428 -0.25767577 0.053590458 -0.009277777 0.030981181 -0.16626944
0.007148137 0.053879216 -0.242531 -0.06426437 0.04742644 -0.048969798 -0.0030437526 -0.35266456
-0.117102325 0.02233431 -0.14495443 -0.0065664444 0.0853064 -0.028201036 -0.015092175 0.04372276
0.042470522 0.015651098 -0.03932779 0.116386056 0.034113303 -0.039405573 0.01063869 0.007224879
0.032296482 0.0025377446 0.042926222 0.0687025 0.050261002 0.11122736 0.0474965 -0.07902923
-0.00028480825 0.04015999 0.083197445 0.17116053 0.051108845 -0.009458848 -0.079278015 0.009312545
0.09064931 0.059295334 -0.039553776 0.023209522 0.08157051 0.04365027 0.0414727 -0.006514284
-0.024018927 -0.016673507 -0.014286958 0.08203768 0.08926257 0.03998089 -0.12254062 -0.14943969
-0.011540881 0.04016081 0.015311506 -0.0816289 0.11097829 0.04316711 0.050058264 -0.11893119
0.0074165617 0.024563506 0.12761527 -0.024587927 -0.039313428 0.009969017 -0.09272224 0.014805598
0.013676856 -0.02087505 -0.37322935 0.021237241 -0.045606032 -0.018960815 -0.021594802 -0.0013158412
-0.21733847 -0.21021786 -0.0014528953 0.015637 -0.008781062 -0.14780398 -0.04730091 -0.02982792
0.013688984 0.12773651 -0.00015360629 -0.30796653 0.01123988 -0.28757882 -0.044440605 0.100761816
-0.11359515 -0.037603762 -0.068332724 0.051673062 0.043984264 0.010834139 -0.0725048 0.022091057

fc2.bias f4 [300]
00000000: ac4a a9bc 2953 0f3d 4556 cd3c a838 903b
00000010: 3d38 bbbc b1a0 a2bc 7dee 76bd 7821 bdbc
00000020: d947 3dbd 58e7 6abc d999 413d 3385 04bc
00000030: f1fc 063a 0825 ad3c ea38 4abd 10c1 e03c
00000040: e18e d73b 84c2 773c 99b4 0b3d efd3 183c
00000050: 1bbb 8fbd 596b 853c c752 a63d 95b0 fcbc
00000060: 0313 193d c8f7 a33d 3b6c 663d 4023 f93b
00000070: 39cd 693d 824b 653d 11c0 1dbd c62a a83b
00000080: 0bcf be3c bfb3 563b bb72 303d dfd5 e83c
00000090: 30d3 0a3d a948 6a3b b610 16bc 47f0 c13b
000000a0: be28 9e3d 9b2d 0cbc eccf 523d 413a 68ba
000000b0: 4ac8 273c b768 2bbd 3404 923d fc35 7d3d
000000c0: 72d4 cf3c 4388 2cbd d53f d9bc 78e7 c0bc
000000d0: a683 5c3d 4a0e c83c ea10 953c 0ad8 d83c
000000e0: b567 87bb c7d4 123a 45a1 6ebd 3e4e ee3d
000000f0: 1cdd 35bc 7a7e fb3c eed8 74bd 7c39 67bc
00000100: 1520 993c 8c51 86bb c3af 943b 391a a0bb
00000110: 4403 40bd 491c 8abc 70ec b63d 0888 a83b
00000120: c538 73bd a569 3c3c 5059 3dbc 3eeb 44bc
00000130: e41c 563d 2829 d33d 7185 983d f090 fa39
00000140: 948a fc3b f598 04bd c4b2 b5bb c462 813d
00000150: 42a1 403c c04b 923d e4ea 16bd 42b0 3bbd
00000160: f1e0 4fbd 77ba 96bc 8375 cc3b b2fb 0abd
00000170: 54f2 7e3c 3730 1cbd 6191 2abd 945a cbba
00000180: b191 5d3d 7a08 bc3c 5d80 c839 7354 793d
00000190: 255b 313d 244e 0b3d 3146 bc3c e397 053c
000001a0: b9e1 54bd a944 5bbc bd4a 09bd 9814 f9bc
000001b0: b4ab 043d 1bc3 ab3d 4fea 53bd 822e 40bd
000001c0: 90e1 423b 79bb 97bc 1039 a93c 4bef 5ebd
000001d0: d46d 7bbd a99b 573d 9903 133d 299e f2bc
000001e0: 6ecc b63c 4acf c7bc f8e0 7cbd c05c de3c
000001f0: c415 96b9 c135 92bc 696e 533d 9df7 e8bc
00000200: dd97 d73c aff9 043c 8be9 28bc 7a29 c2bc
00000210: 72a6 0d3d 6414 52bd 51df 563d a6ab 8e3d
00000220: 1e98 663c 58c3 0b3d 7ab8 ff3c 0041 453d
00000230: bc9f 193d 912d f8bc 467f 863d 393a 1dbd
00000240: b281 a13d dc2b b2bb 03cf 0d3c 55d0 d83b
00000250: ce17 abbb 03a3 19bd eb4b b43c c0ef b43c
00000260: 0f37 923b ddbb 41bd 0372 8d37 92c6 1dbd
00000270: 7350 c43c 5fe3 d5bc 9efd 1f3c f9da 95bd
00000280: e419 123c f24a 5c3d 4aee a6bc 0f6e 8f3d
00000290: 7717 8bbc 4ee9 f33c fda3 d13b f53f b93b
000002a0: 56f8 03bc 8628 613c 03a2 c93c e568 01bd
000002b0: 4a92 023c 8f3e cf3c cbfa bebd eabf 3a3d
000002c0: 9049 493d 084c 77bd d23a bf3c adb7 943d
000002d0: b1bb 59bb b17f a83d 3bb7 813d 7407 8d3c
000002e0: 380e 00bd 617e 3a3c 2667 fe3c be4c e1bc
000002f0: 5294 863b ce94 103c dac0 203d 02a6 d73a
00000300: c2df 13bd 87b1 51bd 2d44 6abc 8f2b 42bd
00000310: 1c99 1a3d 9794 5c3b a076 19bd f61e b3bc
00000320: ae7b 573d 1fb1 b13d 16f5 5fbd b76f bf3c
00000330: 9fb9 993c fea3 3abd ad7f e63c 390d cfbb
00000340: 7871 963d 98bd 883b df09 4c3c 5795 2a3d
00000350: 9175 973d 44ca 8bbd 61be febc 4cb4 46bd
00000360: 90e3 223d 6057 c13c c442 103c 413d 58bd
00000370: 7193 a03c 13b8 a33c 5679 463d 3f4c 613d
00000380: 189a 5f3d de73 6ebd 69ac a83d f8dd 6a3b
00000390: cf55 14bd c522 8abd 28e3 d1bc 343f cf3c
000003a0: 68b1 173d a11c 3fbc 9893 39bd a22f b53c
000003b0: ed0c d83c 0023 d43c d603 013d 5b48 02bd
000003c0: dba3 1c3d ed2b 403c a113 0fbc dafe 0f3d
000003d0: f377 4a3d ab35 a83c 1fb1 54bc 8312 34bd
000003e0: 6b34 f5bc fe38 f73c 02f0 e93d 1eec 6b3d
000003f0: 9c82 c23d 731a c4bc 4e4e c9bb b42c 19bd
-0.02066549 0.034991417 0.02506555 0.004401285 -0.022853965 -0.019852014 -0.060286034 -0.023087248
-0.046211097 -0.014337383 0.04726586 -0.008088398 0.00051493855 0.021135822 -0.049370684 0.02743581
0.006578312 0.01512206 0.03410778 0.009327873 -0.070181094 0.016286539 0.08121257 -0.03084592
0.037371647 0.08006245 0.05625556 0.007603079 0.05708048 0.055980213 -0.038513247 0.005132052
0.023292085 0.0032760946 0.043078166 0.028422294 0.03389281 0.0035748875 -0.009159258 0.005918536
0.07722615 -0.008555795 0.05146782 -0.0008858778 0.010240624 -0.04184791 0.07129708 0.06181906
0.025369857 -0.042122137 -0.026519695 -0.023547873 0.053836487 0.024420876 0.018196542 0.026470203
-0.004132236 0.00056011643 -0.058259267 0.11636017 -0.01110008 0.030699957 -0.059777193 -0.014112826
0.018692056 -0.0040990766 0.004537554 -0.0048859385 -0.046878114 -0.01685919 0.089318156 0.0051431693
-0.05938031 0.011499797 -0.011556938 -0.012018977 0.052273646 0.10310584 0.07447327 0.00047791703
0.0077069495 -0.032372434 -0.005544992 0.06317666 0.011757197 0.071433544 -0.036845103 -0.04582239
-0.05075163 -0.01839946 0.0062395944 -0.03393144 0.015560705 -0.03813192 -0.04164255 -0.0015514665
0.05409402 0.02295326 0.0003824261 0.060871553 0.043299813 0.034010068 0.022982689 0.008153888
-0.05197308 -0.013383069 -0.03351854 -0.030405328 0.03239031 0.08386823 -0.051737126 -0.046919353
0.0029736497 -0.018522011 0.020657092 -0.054427426 -0.061384037 0.052638683 0.035892103 -0.029616432
0.022314277 -0.024390835 -0.061737984 0.027143836 -0.00028626446 -0.017847897 0.051618967 -0.028438384
0.026317531 0.00811617 -0.010309587 -0.023701418 0.034582563 -0.051288977 0.052459065 0.06966333
0.0140743535 0.03412184 0.031215895 0.048157692 0.03750585 -0.030295165 0.06567244 -0.038385604
0.078860655 -0.0054373574 0.0086553125 0.006616632 -0.0052213436 -0.037508976 0.022008857 0.022086978
0.00446213 -0.0472983 1.68616e-05 -0.03851945 0.023964142 -0.026109396 0.009765057 -0.07317156
0.008917306 0.05378241 -0.020377297 0.07003414 -0.016978962 0.029774334 0.0063977228 0.005653376
-0.008054813 0.013742572 0.024613386 -0.031594176 0.007969448 0.025298385 -0.09325179 0.04559318
0.04914242 -0.060375243 0.023343477 0.07261596 -0.0033223445 0.0822748 0.063337766 0.017215468
-0.03126356 0.01138267 0.031055044 -0.027502414 0.0041070366 0.00882454 0.039246418 0.0016452672
-0.036102064 -0.051194694 -0.014298481 -0.047404822 0.037743673 0.0033657902 -0.037466645 -0.02186535
0.052608185 0.08676361 -0.05467709 0.0233687 0.018765269 -0.04556655 0.028137052 -0.006318715
0.07345861 0.004172992 0.012453525 0.041646328 0.07395471 -0.068256885 -0.03109664 -0.04851179
0.0397678 0.023601234 0.008804981 -0.05279279 0.019601556 0.019985234 0.04845556 0.055004355
0.054590315 -0.05821597 0.0823601 0.003583787 -0.036214646 -0.06744913 -0.025621012 0.025298692
0.037034422 -0.0116645405 -0.045306772 0.02211744 0.026373351 0.025895596 0.0314978 -0.031807285
0.038242202 0.011729223 -0.008732707 0.035155155 0.0494308 0.020533403 -0.012981682 -0.043962967
-0.029932221 0.030178543 0.11422731 0.057598226 0.09497568 -0.023938393 -0.006143368 -0.037396148
