checkpoint_actorA_min.pth (torch_old, 538202 bytes, 18 tensors)

bn0.weight f4 [24]
00000000: a85c 1d3f 1e14 c33e ea19 233f 8fec f23e
00000010: 16ae 363f 2b79 1e3f a393 e23e 5822 c43d
00000020: 6839 1d3f 6dd0 6a3d a2d2 103f b181 083f
00000030: bbb4 c73e 4baa 683f d58a 083f 2e14 353f
00000040: 3e2b 363f 7bf4 513e b495 9d3e 9119 7b3f
00000050: fe1e 283c e89c ee3e 4ab6 eb3e a7ca 5a3f
0.6146951 0.38101286 0.63711417 0.47446105 0.71359384 0.6190364 0.44253263 0.09576863
0.6141572 0.057327677 0.565714 0.53322893 0.39005074 0.90884846 0.5333684 0.70733917
0.7115973 0.20503418 0.30778277 0.98085886 0.010261295 0.46604085 0.46037513 0.8546547

bn0.bias f4 [24]
00000000: 0000 0000 0000 0000 0000 0000 0000 0000
00000010: 0000 0000 0000 0000 0000 0000 0000 0000
00000020: 0000 0000 0000 0000 0000 0000 0000 0000
00000030: 0000 0000 0000 0000 0000 0000 0000 0000
00000040: 0000 0000 0000 0000 0000 0000 0000 0000
00000050: 0000 0000 0000 0000 0000 0000 0000 0000
0.0 0.0 0.0 0.0 0.0 0.0 0.0 0.0
0.0 0.0 0.0 0.0 0.0 0.0 0.0 0.0
0.0 0.0 0.0 0.0 0.0 0.0 0.0 0.0

bn0.running_mean f4 [24]
00000000: 0000 0000 0000 0000 0000 0000 0000 0000
00000010: 0000 0000 0000 0000 0000 0000 0000 0000
00000020: 0000 0000 0000 0000 0000 0000 0000 0000
00000030: 0000 0000 0000 0000 0000 0000 0000 0000
00000040: 0000 0000 0000 0000 0000 0000 0000 0000
00000050: 0000 0000 0000 0000 0000 0000 0000 0000
0.0 0.0 0.0 0.0 0.0 0.0 0.0 0.0
0.0 0.0 0.0 0.0 0.0 0.0 0.0 0.0
0.0 0.0 0.0 0.0 0.0 0.0 0.0 0.0

bn0.running_var f4 [24]
00000000: 0000 803f 0000 803f 0000 803f 0000 803f
00000010: 0000 803f 0000 803f 0000 803f 0000 803f
00000020: 0000 803f 0000 803f 0000 803f 0000 803f
00000030: 0000 803f 0000 803f 0000 803f 0000 803f
00000040: 0000 803f 0000 803f 0000 803f 0000 803f
00000050: 0000 803f 0000 803f 0000 803f 0000 803f
1.0 1.0 1.0 1.0 1.0 1.0 1.0 1.0
1.0 1.0 1.0 1.0 1.0 1.0 1.0 1.0
1.0 1.0 1.0 1.0 1.0 1.0 1.0 1.0

fc1.weight f4 [400, 24]
00000000: f16d 10bd 078e 36bd 65ca 353c e3ea bcbc
00000010: d01f 333d 2a70 1a3e 7354 cabc 6495 6ebd
00000020: 368f 45bb 23ac c5bc 739e b0bb 4f6d 40bd
00000030: 82ff 583c 0e02 b73d 58d9 ba3b 196e d0bc
00000040: eff4 593d 1af9 47bd bd45 153b d8f4 f0bc
00000050: 2b7c 6dbc f8ca 37be 00a6 51bc cf9a c03b
00000060: b8e4 81bb 7e53 02bd 182a eebc 4e79 23bb
00000070: 1d79 8d3c a01e 9bbd 0f40 e23c 5a8e 16bb
00000080: 5092 0f3d 4698 e9bc eaf2 97bc 89d3 923c
00000090: 9237 b9bc 81b6 683d 75e0 923c 6fea 22bd
000000a0: d060 793d c6c1 093d bd62 59b8 1720 bfba
000000b0: ee46 22be 9a07 b53d 0c47 8b3b 047c 93bc
000000c0: c630 58bd 33c5 4e3d f821 c43c f6dd bcbd
000000d0: daa7 383d cf41 d7bd bf32 f6bc b3a3 d4bd
000000e0: ef3e 533a 1231 5d3c 77f7 243c 866b 13bd
000000f0: 1fbe 3cbc 2d54 52bd 2cc4 4f3b f5f4 4cbc
00000100: 8343 08bc 2e71 8a3d bf53 b4bc ba5c 413e
00000110: 3b1f 99bc dcb7 ab3b 8da3 a23b fe62 173e
00000120: 16df 85bc 20a4 16bc 98a8 dd3c a46a 09bd
00000130: ee20 0cbd f294 08be eedf 82bc 359b dfba
00000140: 469e 9c3d b485 8d3c 26b9 a3bc a6b3 9a3d
00000150: 4dda 2bbd ff06 c2bd 1c66 973b 6c02 9a3d
00000160: d265 de3b 787e a43c 4385 0e3c 5c27 9bbd
00000170: fc37 dfbd f060 3c3e ff3a c6bc 908b afbc
00000180: 62fc 8a3d dfa5 8f3e baea 9fbc eea5 bf3d
00000190: dbb6 a8bd 0222 42be 6f9a 813c 66dc ac3d
000001a0: 65f5 983c 7fa0 663e 0236 12bb a5ac 473d
000001b0: 2d54 1bbe 936f f4bb cfa3 5b3c 9eec 1cbd
000001c0: 69ca 02bd 6bcc ab3e 5dbe 3fba f358 bcbc
000001d0: 15d1 a1bd c725 1f3c 64f6 b3bb 46c0 55bc
000001e0: 0241 323d 28a2 cc3d 1e6c 073a 8fc2 e3bb
000001f0: 8e04 e2bd b98e c4bd cb1a c3ba 9912 5bbc
00000200: 4c6d 023d 6e20 b63d bb9c 163c f7a6 49bd
00000210: 64de 1a3a 305a 6a3d 6cef c93c 989f 883c
00000220: c922 b8bc 4bde 4e3d bd9d e2bc da6a d53a
00000230: f753 9c3d e71d d23d f972 87bc 4002 55bd
00000240: ddad 883d 9ca7 2abd b4b1 173c 464e 4dbd
00000250: 7840 993b 2008 e43d 8a13 2abc 3fed d13a
00000260: 7b5d 693d a4e3 8a3b ffd9 403b 9457 80bd
00000270: 622f b5bd 19c3 2f3e fc75 0c3b c71d 28bc
00000280: c888 b33d dfe5 5bbd c757 f23c 5519 54bc
00000290: 4f80 1abe 0e58 a23a 620a 86bc 3d47 0e3d
000002a0: b313 383c 6e9f 263d 068f f03b ba81 85bc
000002b0: f5ce 2d3e bf22 f8bd 8a3d 083b cdd9 713b
000002c0: 514a d039 2847 5a3d c718 2a3d 7ccc c8bc
000002d0: 4a61 143e 383f 00bd 4046 0dbd 099e 60bc
000002e0: 8a70 9d3c 81e4 90bc e6f7 2fbb e00b 0fbd
000002f0: 6add c53c aae3 ca3d 254b 39bb e2fd 1f3b
00000300: ead6 1abd 1e63 c33e 764e b7bc 99f5 ee3d
00000310: d7e2 12bd de59 89bd 0299 c1bc 8a17 693d
00000320: 9490 17bc 0df8 bc3e eb4b 00bc e2b4 a73c
00000330: ca12 8e3c 7744 80bc b239 26bc 45d7 df3c
00000340: 6fd2 af3c 0e34 b23e 4cc5 51bc 5590 04be
00000350: 646f 65bb 6811 a5bc 2606 a6bc eeaf dfbd
00000360: c30a 483d 617e deb7 9612 f6bc f291 53bc
00000370: aab4 0abe e98f 2bbd c66e 0b3d 4e79 883c
00000380: 76ad 53bc 5116 3f3c 1e50 26bd 8f58 ce3b
00000390: 4389 9fbd 69b6 ff3c 2513 423d d9a3 8f3c
000003a0: 40b2 2b3c 496c 503d 7d82 073d 8e73 533c
000003b0: 8954 d63d 449e 753d 0098 bcbc 8172 0cbd
000003c0: 80a0 59bd d9ac 183d 8e81 19bc 79db e9bc
000003d0: cc72 ffbd a41b 16bc 9092 d13b d441 05bd
000003e0: e253 783a 759c 273c f875 70ba 8e5a 32bd
000003f0: 9783 40bd 92e5 66bd d100 e9ba 7efb f53c
-0.0352611 -0.04456904 0.011095618 -0.023061221 0.04373151 0.1508185 -0.024698472 -0.05824794
-0.0030145175 -0.024129933 -0.0053899824 -0.046979245 0.013244512 0.08935939 0.005702179 -0.025443124
0.053212103 -0.048821546 0.0022777163 -0.029413626 -0.014494936 -0.1794852 -0.012795925 0.0058778296
-0.003964033 -0.031817906 -0.029072806 -0.002494413 0.017269665 -0.07574201 0.027618436 -0.0022973032
0.035051644 -0.028514992 -0.018548448 0.017923133 -0.022609506 0.056814674 0.017929295 -0.039774355
0.060883343 0.033632062 -5.182879e-05 -0.0014581707 -0.1584737 0.088393405 0.004250413 -0.018003471
-0.05278089 0.050481033 0.023941979 -0.09222023 0.04508195 -0.10510599 -0.030053494 -0.10382786
0.0008058389 0.013500469 0.010068766 -0.035991214 -0.011519938 -0.051349808 0.003170262 -0.012509574
-0.008316877 0.067598686 -0.02201259 0.18883029 -0.01869165 0.0052404236 0.0049633444 0.14783856
-0.016341727 -0.009194404 0.02705793 -0.033548966 -0.03421109 -0.13338068 -0.015975919 -0.0017059805
0.07647376 0.017275669 -0.019985747 0.075537965 -0.041956235 -0.09473991 0.0046203267 0.07519993
0.0067870403 0.020079836 0.008698764 -0.075758666 -0.1089935 0.18396354 -0.024198053 -0.021428853
0.067864195 0.28056237 -0.019521106 0.093578205 -0.08238002 -0.18958285 0.01582071 0.08440475
0.0186717 0.22522162 -0.0022310023 0.04874863 -0.1516883 -0.0074595897 0.013405754 -0.038311593
-0.031931315 0.33554396 -0.0007314438 -0.022991633 -0.07901207 0.009713597 -0.0054920185 -0.01304633
0.043519028 0.09991866 0.0005165952 -0.0069506834 -0.11036025 -0.09597535 -0.0014885304 -0.013371133
0.031842515 0.08892904 0.009192641 -0.049231496 0.00059077726 0.057214916 0.024650298 0.016677663
-0.022477524 0.050504964 -0.027663106 0.0016282455 0.076332025 0.1025961 -0.016534315 -0.0520041
0.06673787 -0.04166375 0.009258676 -0.050123475 0.0046768747 0.11134362 -0.010380635 0.0016016139
0.056973916 0.0042385627 0.002942681 -0.06266704 -0.08846928 0.17164268 0.002143263 -0.010261006
0.08766323 -0.05368602 0.029582871 -0.012945493 -0.15088008 0.0012385861 -0.016362373 0.034735907
0.011235165 0.040679388 0.0073412685 -0.01629721 0.16973479 -0.12116002 0.0020788633 0.00369035
0.00039728222 0.053290516 0.041527536 -0.024511568 0.14490238 -0.03131029 -0.034490824 -0.0137095535
0.019218702 -0.017687084 -0.002685064 -0.034923434 0.02415343 0.09906705 -0.002827355 0.00244128
-0.037802614 0.38161558 -0.02237628 0.11667938 -0.035860863 -0.06706594 -0.02363253 0.056907214
-0.009250779 0.36907998 -0.0078306 0.020471994 0.017342944 -0.015657647 -0.010145592 0.027324328
0.021462647 0.3480534 -0.012803387 -0.12945683 -0.003500902 -0.020149902 -0.020266604 -0.10922228
0.04883839 -2.6523312e-05 -0.03003816 -0.012913214 -0.1354548 -0.04188529 0.03404119 0.016659405
-0.012919774 0.0116630355 -0.04060375 0.006297178 -0.077898525 0.03121491 0.04738154 0.017534183
0.01047951 0.05088452 0.033083428 0.012905968 0.104653426 0.059965387 -0.023021698 -0.034288887
-0.05313158 0.037274215 -0.009369267 -0.028547036 -0.12473068 -0.0091618635 0.0063956454 -0.03253348
0.0009472949 0.010230173 -0.0009172852 -0.04354339 -0.047000494 -0.05637128 -0.0017776733 0.030027147

fc1.bias f4 [400]
00000000: b62e 5f3d efe1 fbbd 0142 16be 94fc 47bd
00000010: 7410 17be 6682 4c3d 5aa1 62be 06e3 163e
00000020: b427 8fbc 4895 363e e578 53be b925 86bd
00000030: 102f 083e 9ce8 0dbe 1c00 0a3d 661a 27be
00000040: e813 0d3e 5c30 28be 386c 5c3e c217 4d3e
00000050: 236c 58bc db6e a6bd 9b67 ec3d 5209 853d
00000060: e362 2a3e 2a0f 2e3e 85f9 3c3e a5a5 2e3e
00000070: aba9 cbbd 9275 d8bd d360 4a3e 9cde e03d
00000080: 1f5e 3fbe e9b0 ebbd 163f 3c3e 40b5 c2bc
00000090: 1706 c23d d82d 8cbe e8f5 0fbe 1281 813d
000000a0: 5f62 c73d bfe7 50bd 1ec2 b2bc 4299 5b3d
000000b0: ef62 51be a3d6 363e ba23 ce3d cde0 553e
000000c0: 6e73 45bd e048 353e 38be 11bd 36b2 c2bd
000000d0: d4db 3abe 1cb2 ca3d a0ca 633b b08d 9f3e
000000e0: 534b 6a3e 2639 f2bd d5f9 123e ff80 013e
000000f0: 0151 0dbe e869 4c3e 26d1 aabc 35ac 69be
00000100: 41c0 4fbe 16b7 0b3e af17 0bbe a305 0b3e
00000110: b1d3 3a3e d7f4 f43d 1f87 4cba 023d bc3c
00000120: 06a7 a73d 8a11 833e 26f4 c03d 44c6 80be
00000130: 2a37 f23c 005a 94bc 4a9d a33d 1bc9 6dbd
00000140: e265 8c3e fd6e 67bb 0f95 a43d e6d8 903e
00000150: cfbd 52be 16f8 853e a5f4 7d3c 9814 43be
00000160: 8acc 92bd 2499 88bd 0d13 15be d07a 5bbe
00000170: a2c1 5bbb 04f6 6a3d 88bb 2ebe aaaa 0bbe
00000180: 332b 283e d0bc 86bd bb80 64be 0b43 6fbe
00000190: 3eed e5bd 74c6 61be 8f8d 933d a129 3c3d
000001a0: f888 3ebe badd e3bd b835 dd3d 0928 dd3d
000001b0: 7ed3 efbd c816 18bd 5e3d 323e 0410 49bd
000001c0: ee51 793d b291 b6bd 7636 c5ba a3d9 d7bd
000001d0: 6da7 c83c 6309 edbd 9a57 efbd c971 52be
000001e0: 7895 adbd f2c5 103e db64 39be ebfa 16bc
000001f0: 2c3a 8b3d 24c4 56bd 69cd 4b3e 4cad db3b
00000200: f4f1 c8bd ddc8 8cbe ec5e 4ebe 2226 8fba
00000210: 2c68 873e a58f 913d 4872 be3d 6672 71bd
00000220: 69a3 f3bc f545 103c 2e50 64be 0d6f 8c3d
00000230: 0c88 05bd 4309 bd3d 07bc c7bd 33e4 58be
00000240: 7076 003d aa79 263d 046e 1fbe 4692 0f3e
00000250: 14f6 ce3d 7e19 a5bd c36b 6dbe e2f6 e2bd
00000260: 2cf0 0e3e aa33 2a3d 1a75 32be 5a93 14be
00000270: 662a 0d3c 347c f0bd 0c19 26be fc12 1cbe
00000280: 5745 0c3e 77c7 1f3e b1c5 d6bd b812 24be
00000290: b365 e6bd 5d7b d1bd 782e 7d3d 48d0 b4bd
000002a0: 28d8 413d 0e57 7bbc 2540 71be 4338 143e
000002b0: 734b ddbd f290 31be 78dc 81bd 12c1 143d
000002c0: 4dba 14bd 89b2 e03c 4cf1 3c3e 781d 1e3e
000002d0: 9e3c 923d 705e d13c bc3b 2a3e 11e6 41bd
000002e0: de70 3d3e 26e1 413e 491b 213e 4131 2ebe
000002f0: 9e6e 093e 66a7 253e b60f 1bbe 387b 953c
00000300: 463b 94bc 18b1 8f3a eeec 7ebe 2a1c 1d3e
00000310: 308d 02be 5e39 ec3d 9381 1ebd 0c28 93bd
00000320: 4ca5 e43d 2e43 45bd e07d acbd 0f12 0a3e
00000330: 16c7 d03c a75b e1bd c503 ccbd a43b 5fbe
00000340: eead 323c 6cd1 1e3e 8471 363e 93c5 1e3e
00000350: 8436 163d cba6 88be 4c3c 1a3e e24e af3d
00000360: d938 683e 9406 b3bc f656 333c ff96 553d
00000370: 1d26 1b3e 0286 053e 0cb4 213e e350 ee3d
00000380: 9441 95bd 39f6 31be 9807 acbd 05d9 fdbd
00000390: bfc0 56be e4df 0d3e 7c13 e53d 0c08 1ebe
000003a0: 703f 21be abdc 023e c023 e8bd 42e0 e83d
000003b0: e612 073e 7837 69bd 7600 283e 0f57 113e
000003c0: ee64 113e bd82 13be b47e 6a3d 1213 803c
000003d0: 849c 373e c24d eebd 6117 f3bc 964f 4a3d
000003e0: 3dc9 3fbe f507 dd3d bcf4 663e 7b53 cdbd
000003f0: 81be f83b c0bd 963d a8f4 43bb 0dc4 31be
0.054487906 -0.12298953 -0.14673616 -0.04882486 -0.1475237 0.049929045 -0.22131863 0.1473504
-0.017474987 0.17830384 -0.20651586 -0.06550164 0.13299203 -0.13858265 0.03369151 -0.16318664
0.13777125 -0.16424698 0.21525657 0.20028594 -0.013209376 -0.08126613 0.11543199 0.06495918
0.16639285 0.16997972 0.18454559 0.17055376 -0.09944471 -0.105693 0.19763498 0.10979959
-0.18688248 -0.11508352 0.1838344 -0.023768067 0.09473818 -0.27378726 -0.1405865 0.06323446
0.0973556 -0.05100226 -0.021821078 0.053612955 -0.20447896 0.17855315 0.10065408 0.20886536
-0.048205785 0.17703581 -0.035581797 -0.09506647 -0.1824792 0.09897253 0.0034758225 0.31162786
0.22880296 -0.118273064 0.14353116 0.12646864 -0.13800432 0.19962275 -0.020851683 -0.22819598
-0.20288183 0.1364406 -0.13583253 0.13576369 0.18244816 0.11960762 -0.0007802117 0.02297831
0.08186154 0.2559932 0.094215676 -0.25151265 0.02956732 -0.018109322 0.07988985 -0.058053117
0.2742148 -0.0035313957 0.08036243 0.2829048 -0.20580219 0.26165837 0.015500222 -0.19050825
-0.07167919 -0.06669834 -0.14558049 -0.21433568 -0.0033532162 0.057363525 -0.17063725 -0.13639322
0.16422729 -0.06578982 -0.22314732 -0.23365419 -0.11226891 -0.2204836 0.072047345 0.045938138
-0.18606937 -0.11126275 0.10801262 0.10798652 -0.11710261 -0.0371311 0.17406222 -0.04908754
0.06086915 -0.08914508 -0.0015046138 -0.10539558 0.024493897 -0.11574056 -0.116866305 -0.20551218
-0.084757745 0.1413801 -0.1810488 -0.009215097 0.06798205 -0.052433148 0.19902577 0.006704008
-0.09811774 -0.27496997 -0.20153397 -0.0010921399 0.26446664 0.07107476 0.09299141 -0.05894699
-0.029741006 0.008805742 -0.22296211 0.06857119 -0.032600448 0.09230282 -0.0975266 -0.21180801
0.03136295 0.04064337 -0.15569311 0.14020643 0.101055294 -0.08061503 -0.23185639 -0.110822454
0.13958806 0.041553177 -0.17427483 -0.14509335 0.008616066 -0.1174244 -0.16220492 -0.15241617
0.13698326 0.15603434 -0.104869254 -0.16022766 -0.11249866 -0.10228608 0.061811894 -0.08828789
0.047325283 -0.01534058 -0.23559625 0.14474587 -0.108054064 -0.17340448 -0.06340879 0.03631694
-0.036310483 0.027428882 0.18451422 0.15440929 0.07140468 0.025557727 0.1662435 -0.04733855
0.18500087 0.18933544 0.15733065 -0.17010976 0.13421103 0.16177139 -0.15142712 0.018247232
-0.01809467 0.0010962812 -0.24895069 0.15342775 -0.12749171 0.115343794 -0.03869779 -0.07185373
0.111643404 -0.04815977 -0.08422446 0.13483451 0.025485557 -0.110038094 -0.099616565 -0.21800095
0.010905726 0.15509576 0.1781674 0.15505056 0.036673084 -0.26689753 0.15062064 0.085599676
0.22677936 -0.021853723 0.010946026 0.052145954 0.15151258 0.13039401 0.15791339 0.11636522
-0.07287899 -0.17379083 -0.08399886 -0.12394909 -0.20971964 0.13854939 0.11185357 -0.15432757
-0.15746856 0.1277949 -0.11334944 0.11370899 0.13190803 -0.056937665 0.16406426 0.14193366
0.14198658 -0.14405341 0.05724974 0.015634093 0.179308 -0.11635925 -0.029674234 0.049392305
-0.1872911 0.10792533 0.22554296 -0.10025688 0.007591069 0.07360411 -0.0029900465 -0.17359944

bn1.weight f4 [400]
00000000: 7d22 753f e001 883d d494 433f 0d69 093f
00000010: 97a7 693f 4449 073f 3487 cc3e 322c e03e
00000020: bc4f 073e 4d42 693f f696 4d3f a892 173f
00000030: ffbf f53e 4ad2 923e 6b4b 063f 6ee0 233f
00000040: a68e a33e f943 083f 8b8f 6a3f d054 0f3e
00000050: 6e4e aa3e 4d3e 633f 1b1d 753f d144 6a3f
00000060: 8895 bb3e 9c31 4e3f 5690 203f c78c c53e
00000070: 9627 d93e 710c 5d3f 22cc 553f a62d 513f
00000080: 3007 a23e 0020 b738 b4d9 993e c463 353f
00000090: 7e88 b43c 4d13 483f ccc7 863e ba99 563f
000000a0: 6080 103e 1069 9b3e fd45 e03c d262 243e
000000b0: 1bb9 c73e 065a c03e a710 003f f67d 3f3f
000000c0: 9813 ab3e 3301 563f 6ee5 ca3e ec7b 883e
000000d0: 487c d93e fe55 363f 8cef 813e 4501 ce3d
000000e0: 9045 c13d 6273 e93e a8e3 353f adfa 503f
000000f0: ebc3 073f 0e1f c13e 2059 ab3e e0ae 8a3c
00000100: 1c19 0e3e a841 a33e 871b d63e 0b90 2e3f
00000110: 6bec 5a3f ebc2 773e bee9 383e c0fa 073c
00000120: b058 1d3f 52be 7e3f 776b 573f 95f5 773f
00000130: 6044 1d3f f44f 9d3e 4a95 663f 3d47 223f
00000140: f50d 4b3f c015 2f3e b22b a13e f006 563e
00000150: d8e9 ae3d 4951 593f 7002 373e d07c 303e
00000160: 5bfb ea3e 9ee3 223e debe 113f 9812 9d3e
00000170: b86b 5e3f 286b 253f 71d0 0d3f 5206 2e3f
00000180: cb69 da3e 7f59 483c 1814 713f 9e8a db3e
00000190: 9b20 043f 7843 8a3e 0d40 5b3f b385 cc3e
000001a0: aefa b23e a2f2 193f c2ee d03e 7c7b b73e
000001b0: 4f6a 173f 97a0 4b3f eaf4 243e 033a 6b3f
000001c0: 0ea0 453f 51de 503f 3c3c 113f e870 f93e
000001d0: ea0d df3e f81b f33e 18d1 043e 506d c53e
000001e0: eef1 1c3f d563 6a3e d4ac 593f 8711 473f
000001f0: 2065 9d3e 3a3c b63e 9dc9 da3e 9e4c 073f
00000200: 2537 793f d5a1 373f 69e0 543f 9fcb ef3e
00000210: d6fd 023f d8ca b93d 07b5 063f e8c9 3d3f
00000220: e021 323e 21a1 223f 707a 5b3f b6e0 fe3e
00000230: 40cf 633e 4891 793f b718 563f 008a b13b
00000240: 6c64 373e 8965 493f 6899 ba3d 686d e33e
00000250: 7c2f 7a3f 7c4c 503e d222 403f c875 4b3f
00000260: c70b 4e3f 4c42 3c3e 1e74 de3e e135 4b3f
00000270: def9 9f3e 0f49 783f 6882 623e 1812 a13e
00000280: 6cf2 133f 9ddb 523e fe0c af3e badc 353f
00000290: 9884 9d3e 009a 9e3a e3ae cd3e 08de 0b3e
000002a0: 63b9 4f3f 58c0 823e f5e5 5e3f d41d 483f
000002b0: eb88 0c3f e08f 113f b8c5 753e c01d 423f
000002c0: f55f 673f 587a 3f3e a83b b23e 272e 053f
000002d0: 88f6 423f 3595 6f3f 63f0 2a3f 0e59 033f
000002e0: ba63 033f e966 5d3f ede6 5b3f 60f7 df3c
000002f0: 0a10 923e 7836 153e 602b d43d 0d35 dc3e
00000300: 166e 6a3f 7050 173e 80ff 313c b47e 293f
00000310: 4388 d53e 9a4d 1b3f 9fd9 f53e 97d0 343f
00000320: bd17 473d a07f fe3c 7880 a73e 97d9 083f
00000330: 1430 103f 4a74 0c3f bbcb 1f3f 3aef 2a3f
00000340: dd77 5e3f ad6b 493f 0c91 3a3f d49f a23e
00000350: 5b4f 293f aef9 ae3e b2d9 183e 6e09 b73e
00000360: 8bea 383f ea49 163f 48ad a23d f71c 673e
00000370: 9e63 bd3e a0ba 4f3d a0f6 e83e fe69 023f
00000380: 39ac 633f c032 5f3d 1686 e33e c5ef 7a3f
00000390: b834 b53e 19c2 c53e d502 6f3f 1ace 413f
000003a0: 3800 863e 0cb0 a83e f3fa 553e 20c2 3f3e
000003b0: 3073 873e 5340 293f aeae 953e 685a c43e
000003c0: 02a9 3f3f 4691 883e a0a1 523f 9a1f f83e
000003d0: 64d5 733e c0d0 da3e 1552 793f 2e14 213e
000003e0: 228c 093f 2b94 5f3f a604 b13d 6ee7 1f3f
000003f0: 4508 563f ab30 273f 3e14 103f d8d6 973e
0.9575575 0.06640983 0.7639897 0.5367592 0.91271347 0.5284617 0.39946902 0.43783718
0.1321401 0.9111679 0.80308473 0.59208155 0.47998044 0.28676063 0.5245883 0.6401433
0.3194477 0.5322872 0.9162528 0.13997197 0.33262962 0.8876694 0.95747536 0.91511256
0.3663752 0.8054445 0.6272024 0.38583967 0.42413014 0.8634711 0.83514607 0.8171028
0.3164611 8.7320805e-05 0.30048907 0.70855355 0.02203774 0.7815445 0.26324308 0.8382832
0.14111471 0.30353594 0.027377123 0.16053322 0.39008412 0.37568682 0.5002541 0.74801576
0.33413386 0.8359558 0.39628166 0.26657045 0.42477632 0.71224964 0.25378072 0.10058836
0.09437096 0.45595843 0.710505 0.816325 0.5303332 0.37719005 0.33466434 0.01692909
0.13876766 0.3188603 0.41817877 0.6818854 0.85516995 0.24195449 0.18057916 0.00829953
0.6146345 0.99509156 0.84148353 0.96859103 0.61432457 0.30725062 0.9007155 0.6338995
0.7931817 0.1709814 0.3147865 0.20901084 0.08540696 0.84889656 0.17872024 0.17235112
0.45894894 0.15907142 0.56931865 0.30678248 0.86883116 0.6461663 0.5539618 0.67978394
0.4265884 0.012228369 0.94171286 0.42879194 0.5161225 0.270046 0.8564461 0.39945754
0.34956878 0.60135853 0.40807158 0.358364 0.5914659 0.79541916 0.16109052 0.91885394
0.7719735 0.8158923 0.56732535 0.48718953 0.43565303 0.47482276 0.12970388 0.3855996
0.61306655 0.22889645 0.8502934 0.7776112 0.30741215 0.35592824 0.42731944 0.52851284
0.9734977 0.7173131 0.8315492 0.46835038 0.5116857 0.090718925 0.52619976 0.7413621
0.17395735 0.63527113 0.857337 0.49780816 0.22247028 0.97487307 0.8363146 0.005418062
0.17909402 0.78670555 0.09111291 0.44419408 0.97728705 0.20341676 0.7505313 0.79476595
0.8048672 0.18384665 0.43447965 0.7937909 0.3124532 0.9698648 0.22120059 0.31459117
0.5779178 0.20591588 0.341896 0.71039927 0.30765224 0.0012100339 0.4017249 0.13658917
0.8114225 0.25537372 0.87069637 0.78170514 0.5489642 0.5686016 0.24001205 0.75826645
0.90380794 0.18699014 0.3481114 0.5202355 0.76157427 0.93587047 0.6677305 0.5130776
0.51324046 0.86485153 0.8589924 0.027339637 0.28527862 0.1457156 0.103598356 0.43009225
0.9157423 0.14776778 0.010864139 0.6620896 0.41705522 0.60665286 0.48017594 0.7063078
0.048606623 0.031066716 0.327152 0.53457016 0.5632336 0.54864943 0.62420243 0.6677128
0.86901647 0.78679925 0.72877574 0.31762564 0.6613671 0.34174865 0.14926794 0.35749382
0.72232884 0.58706534 0.07943207 0.22569643 0.36990064 0.05071509 0.4550066 0.5094298
0.88934666 0.05449176 0.44438237 0.9802211 0.35391784 0.38624647 0.93363696 0.7570511
0.26172042 0.32946813 0.20896511 0.18726397 0.2645507 0.66113776 0.29234833 0.38350224
0.7486726 0.26673335 0.8227787 0.4846161 0.23811871 0.4273739 0.9739087 0.15730354
0.5372945 0.8733546 0.08643465 0.6246251 0.8360637 0.65308636 0.5628089 0.296561

bn1.bias f4 [400]
00000000: 0000 0000 0000 0000 0000 0000 0000 0000
00000010: 0000 0000 0000 0000 0000 0000 0000 0000
00000020: 0000 0000 0000 0000 0000 0000 0000 0000
00000030: 0000 0000 0000 0000 0000 0000 0000 0000
00000040: 0000 0000 0000 0000 0000 0000 0000 0000
00000050: 0000 0000 0000 0000 0000 0000 0000 0000
00000060: 0000 0000 0000 0000 0000 0000 0000 0000
00000070: 0000 0000 0000 0000 0000 0000 0000 0000
00000080: 0000 0000 0000 0000 0000 0000 0000 0000
00000090: 0000 0000 0000 0000 0000 0000 0000 0000
000000a0: 0000 0000 0000 0000 0000 0000 0000 0000
000000b0: 0000 0000 0000 0000 0000 0000 0000 0000
000000c0: 0000 0000 0000 0000 0000 0000 0000 0000
000000d0: 0000 0000 0000 0000 0000 0000 0000 0000
000000e0: 0000 0000 0000 0000 0000 0000 0000 0000
000000f0: 0000 0000 0000 0000 0000 0000 0000 0000
00000100: 0000 0000 0000 0000 0000 0000 0000 0000
00000110: 0000 0000 0000 0000 0000 0000 0000 0000
00000120: 0000 0000 0000 0000 0000 0000 0000 0000
00000130: 0000 0000 0000 0000 0000 0000 0000 0000
00000140: 0000 0000 0000 0000 0000 0000 0000 0000
00000150: 0000 0000 0000 0000 0000 0000 0000 0000
00000160: 0000 0000 0000 0000 0000 0000 0000 0000
00000170: 0000 0000 0000 0000 0000 0000 0000 0000
00000180: 0000 0000 0000 0000 0000 0000 0000 0000
00000190: 0000 0000 0000 0000 0000 0000 0000 0000
000001a0: 0000 0000 0000 0000 0000 0000 0000 0000
000001b0: 0000 0000 0000 0000 0000 0000 0000 0000
000001c0: 0000 0000 0000 0000 0000 0000 0000 0000
000001d0: 0000 0000 0000 0000 0000 0000 0000 0000
000001e0: 0000 0000 0000 0000 0000 0000 0000 0000
000001f0: 0000 0000 0000 0000 0000 0000 0000 0000
00000200: 0000 0000 0000 0000 0000 0000 0000 0000
00000210: 0000 0000 0000 0000 0000 0000 0000 0000
00000220: 0000 0000 0000 0000 0000 0000 0000 0000
00000230: 0000 0000 0000 0000 0000 0000 0000 0000
00000240: 0000 0000 0000 0000 0000 0000 0000 0000
00000250: 0000 0000 0000 0000 0000 0000 0000 0000
00000260: 0000 0000 0000 0000 0000 0000 0000 0000
00000270: 0000 0000 0000 0000 0000 0000 0000 0000
00000280: 0000 0000 0000 0000 0000 0000 0000 0000
00000290: 0000 0000 0000 0000 0000 0000 0000 0000
000002a0: 0000 0000 0000 0000 0000 0000 0000 0000
000002b0: 0000 0000 0000 0000 0000 0000 0000 0000
000002c0: 0000 0000 0000 0000 0000 0000 0000 0000
000002d0: 0000 0000 0000 0000 0000 0000 0000 0000
000002e0: 0000 0000 0000 0000 0000 0000 0000 0000
000002f0: 0000 0000 0000 0000 0000 0000 0000 0000
00000300: 0000 0000 0000 0000 0000 0000 0000 0000
00000310: 0000 0000 0000 0000 0000 0000 0000 0000
00000320: 0000 0000 0000 0000 0000 0000 0000 0000
00000330: 0000 0000 0000 0000 0000 0000 0000 0000
00000340: 0000 0000 0000 0000 0000 0000 0000 0000
00000350: 0000 0000 0000 0000 0000 0000 0000 0000
00000360: 0000 0000 0000 0000 0000 0000 0000 0000
00000370: 0000 0000 0000 0000 0000 0000 0000 0000
00000380: 0000 0000 0000 0000 0000 0000 0000 0000
00000390: 0000 0000 0000 0000 0000 0000 0000 0000
000003a0: 0000 0000 0000 0000 0000 0000 0000 0000
000003b0: 0000 0000 0000 0000 0000 0000 0000 0000
000003c0: 0000 0000 0000 0000 0000 0000 0000 0000
000003d0: 0000 0000 0000 0000 0000 0000 0000 0000
000003e0: 0000 0000 0000 0000 0000 0000 0000 0000
000003f0: 0000 0000 0000 0000 0000 0000 0000 0000
0.0 0.0 0.0 0.0 0.0 0.0 0.0 0.0
0.0 0.0 0.0 0.0 0.0 0.0 0.0 0.0
0.0 0.0 0.0 0.0 0.0 0.0 0.0 0.0
0.0 0.0 0.0 0.0 0.0 0.0 0.0 0.0
0.0 0.0 0.0 0.0 0.0 0.0 0.0 0.0
0.0 0.0 0.0 0.0 0.0 0.0 0.0 0.0
0.0 0.0 0.0 0.0 0.0 0.0 0.0 0.0
0.0 0.0 0.0 0.0 0.0 0.0 0.0 0.0
0.0 0.0 0.0 0.0 0.0 0.0 0.0 0.0
0.0 0.0 0.0 0.0 0.0 0.0 0.0 0.0
0.0 0.0 0.0 0.0 0.0 0.0 0.0 0.0
0.0 0.0 0.0 0.0 0.0 0.0 0.0 0.0
0.0 0.0 0.0 0.0 0.0 0.0 0.0 0.0
0.0 0.0 0.0 0.0 0.0 0.0 0.0 0.0
0.0 0.0 0.0 0.0 0.0 0.0 0.0 0.0
0.0 0.0 0.0 0.0 0.0 0.0 0.0 0.0
0.0 0.0 0.0 0.0 0.0 0.0 0.0 0.0
0.0 0.0 0.0 0.0 0.0 0.0 0.0 0.0
0.0 0.0 0.0 0.0 0.0 0.0 0.0 0.0
0.0 0.0 0.0 0.0 0.0 0.0 0.0 0.0
0.0 0.0 0.0 0.0 0.0 0.0 0.0 0.0
0.0 0.0 0.0 0.0 0.0 0.0 0.0 0.0
0.0 0.0 0.0 0.0 0.0 0.0 0.0 0.0
0.0 0.0 0.0 0.0 0.0 0.0 0.0 0.0
0.0 0.0 0.0 0.0 0.0 0.0 0.0 0.0
0.0 0.0 0.0 0.0 0.0 0.0 0.0 0.0
0.0 0.0 0.0 0.0 0.0 0.0 0.0 0.0
0.0 0.0 0.0 0.0 0.0 0.0 0.0 0.0
0.0 0.0 0.0 0.0 0.0 0.0 0.0 0.0
0.0 0.0 0.0 0.0 0.0 0.0 0.0 0.0
0.0 0.0 0.0 0.0 0.0 0.0 0.0 0.0
0.0 0.0 0.0 0.0 0.0 0.0 0.0 0.0

bn1.running_mean f4 [400]
00000000: 0000 0000 0000 0000 0000 0000 0000 0000
00000010: 0000 0000 0000 0000 0000 0000 0000 0000
00000020: 0000 0000 0000 0000 0000 0000 0000 0000
00000030: 0000 0000 0000 0000 0000 0000 0000 0000
00000040: 0000 0000 0000 0000 0000 0000 0000 0000
00000050: 0000 0000 0000 0000 0000 0000 0000 0000
00000060: 0000 0000 0000 0000 0000 0000 0000 0000
00000070: 0000 0000 0000 0000 0000 0000 0000 0000
00000080: 0000 0000 0000 0000 0000 0000 0000 0000
00000090: 0000 0000 0000 0000 0000 0000 0000 0000
000000a0: 0000 0000 0000 0000 0000 0000 0000 0000
000000b0: 0000 0000 0000 0000 0000 0000 0000 0000
000000c0: 0000 0000 0000 0000 0000 0000 0000 0000
000000d0: 0000 0000 0000 0000 0000 0000 0000 0000
000000e0: 0000 0000 0000 0000 0000 0000 0000 0000
000000f0: 0000 0000 0000 0000 0000 0000 0000 0000
00000100: 0000 0000 0000 0000 0000 0000 0000 0000
00000110: 0000 0000 0000 0000 0000 0000 0000 0000
00000120: 0000 0000 0000 0000 0000 0000 0000 0000
00000130: 0000 0000 0000 0000 0000 0000 0000 0000
00000140: 0000 0000 0000 0000 0000 0000 0000 0000
00000150: 0000 0000 0000 0000 0000 0000 0000 0000
00000160: 0000 0000 0000 0000 0000 0000 0000 0000
00000170: 0000 0000 0000 0000 0000 0000 0000 0000
00000180: 0000 0000 0000 0000 0000 0000 0000 0000
00000190: 0000 0000 0000 0000 0000 0000 0000 0000
000001a0: 0000 0000 0000 0000 0000 0000 0000 0000
000001b0: 0000 0000 0000 0000 0000 0000 0000 0000
000001c0: 0000 0000 0000 0000 0000 0000 0000 0000
000001d0: 0000 0000 0000 0000 0000 0000 0000 0000
000001e0: 0000 0000 0000 0000 0000 0000 0000 0000
000001f0: 0000 0000 0000 0000 0000 0000 0000 0000
00000200: 0000 0000 0000 0000 0000 0000 0000 0000
00000210: 0000 0000 0000 0000 0000 0000 0000 0000
00000220: 0000 0000 0000 0000 0000 0000 0000 0000
00000230: 0000 0000 0000 0000 0000 0000 0000 0000
00000240: 0000 0000 0000 0000 0000 0000 0000 0000
00000250: 0000 0000 0000 0000 0000 0000 0000 0000
00000260: 0000 0000 0000 0000 0000 0000 0000 0000
00000270: 0000 0000 0000 0000 0000 0000 0000 0000
00000280: 0000 0000 0000 0000 0000 0000 0000 0000
00000290: 0000 0000 0000 0000 0000 0000 0000 0000
000002a0: 0000 0000 0000 0000 0000 0000 0000 0000
000002b0: 0000 0000 0000 0000 0000 0000 0000 0000
000002c0: 0000 0000 0000 0000 0000 0000 0000 0000
000002d0: 0000 0000 0000 0000 0000 0000 0000 0000
000002e0: 0000 0000 0000 0000 0000 0000 0000 0000
000002f0: 0000 0000 0000 0000 0000 0000 0000 0000
00000300: 0000 0000 0000 0000 0000 0000 0000 0000
00000310: 0000 0000 0000 0000 0000 0000 0000 0000
00000320: 0000 0000 0000 0000 0000 0000 0000 0000
00000330: 0000 0000 0000 0000 0000 0000 0000 0000
00000340: 0000 0000 0000 0000 0000 0000 0000 0000
00000350: 0000 0000 0000 0000 0000 0000 0000 0000
00000360: 0000 0000 0000 0000 0000 0000 0000 0000
00000370: 0000 0000 0000 0000 0000 0000 0000 0000
00000380: 0000 0000 0000 0000 0000 0000 0000 0000
00000390: 0000 0000 0000 0000 0000 0000 0000 0000
000003a0: 0000 0000 0000 0000 0000 0000 0000 0000
000003b0: 0000 0000 0000 0000 0000 0000 0000 0000
000003c0: 0000 0000 0000 0000 0000 0000 0000 0000
000003d0: 0000 0000 0000 0000 0000 0000 0000 0000
000003e0: 0000 0000 0000 0000 0000 0000 0000 0000
000003f0: 0000 0000 0000 0000 0000 0000 0000 0000
0.0 0.0 0.0 0.0 0.0 0.0 0.0 0.0
0.0 0.0 0.0 0.0 0.0 0.0 0.0 0.0
0.0 0.0 0.0 0.0 0.0 0.0 0.0 0.0
0.0 0.0 0.0 0.0 0.0 0.0 0.0 0.0
0.0 0.0 0.0 0.0 0.0 0.0 0.0 0.0
0.0 0.0 0.0 0.0 0.0 0.0 0.0 0.0
0.0 0.0 0.0 0.0 0.0 0.0 0.0 0.0
0.0 0.0 0.0 0.0 0.0 0.0 0.0 0.0
0.0 0.0 0.0 0.0 0.0 0.0 0.0 0.0
0.0 0.0 0.0 0.0 0.0 0.0 0.0 0.0
0.0 0.0 0.0 0.0 0.0 0.0 0.0 0.0
0.0 0.0 0.0 0.0 0.0 0.0 0.0 0.0
0.0 0.0 0.0 0.0 0.0 0.0 0.0 0.0
0.0 0.0 0.0 0.0 0.0 0.0 0.0 0.0
0.0 0.0 0.0 0.0 0.0 0.0 0.0 0.0
0.0 0.0 0.0 0.0 0.0 0.0 0.0 0.0
0.0 0.0 0.0 0.0 0.0 0.0 0.0 0.0
0.0 0.0 0.0 0.0 0.0 0.0 0.0 0.0
0.0 0.0 0.0 0.0 0.0 0.0 0.0 0.0
0.0 0.0 0.0 0.0 0.0 0.0 0.0 0.0
0.0 0.0 0.0 0.0 0.0 0.0 0.0 0.0
0.0 0.0 0.0 0.0 0.0 0.0 0.0 0.0
0.0 0.0 0.0 0.0 0.0 0.0 0.0 0.0
0.0 0.0 0.0 0.0 0.0 0.0 0.0 0.0
0.0 0.0 0.0 0.0 0.0 0.0 0.0 0.0
0.0 0.0 0.0 0.0 0.0 0.0 0.0 0.0
0.0 0.0 0.0 0.0 0.0 0.0 0.0 0.0
0.0 0.0 0.0 0.0 0.0 0.0 0.0 0.0
0.0 0.0 0.0 0.0 0.0 0.0 0.0 0.0
0.0 0.0 0.0 0.0 0.0 0.0 0.0 0.0
0.0 0.0 0.0 0.0 0.0 0.0 0.0 0.0
0.0 0.0 0.0 0.0 0.0 0.0 0.0 0.0

bn1.running_var f4 [400]
00000000: 0000 803f 0000 803f 0000 803f 0000 803f
00000010: 0000 803f 0000 803f 0000 803f 0000 803f
00000020: 0000 803f 0000 803f 0000 803f 0000 803f
00000030: 0000 803f 0000 803f 0000 803f 0000 803f
00000040: 0000 803f 0000 803f 0000 803f 0000 803f
00000050: 0000 803f 0000 803f 0000 803f 0000 803f
00000060: 0000 803f 0000 803f 0000 803f 0000 803f
00000070: 0000 803f 0000 803f 0000 803f 0000 803f
00000080: 0000 803f 0000 803f 0000 803f 0000 803f
00000090: 0000 803f 0000 803f 0000 803f 0000 803f
000000a0: 0000 803f 0000 803f 0000 803f 0000 803f
000000b0: 0000 803f 0000 803f 0000 803f 0000 803f
000000c0: 0000 803f 0000 803f 0000 803f 0000 803f
000000d0: 0000 803f 0000 803f 0000 803f 0000 803f
000000e0: 0000 803f 0000 803f 0000 803f 0000 803f
000000f0: 0000 803f 0000 803f 0000 803f 0000 803f
00000100: 0000 803f 0000 803f 0000 803f 0000 803f
00000110: 0000 803f 0000 803f 0000 803f 0000 803f
00000120: 0000 803f 0000 803f 0000 803f 0000 803f
00000130: 0000 803f 0000 803f 0000 803f 0000 803f
00000140: 0000 803f 0000 803f 0000 803f 0000 803f
00000150: 0000 803f 0000 803f 0000 803f 0000 803f
00000160: 0000 803f 0000 803f 0000 803f 0000 803f
00000170: 0000 803f 0000 803f 0000 803f 0000 803f
00000180: 0000 803f 0000 803f 0000 803f 0000 803f
00000190: 0000 803f 0000 803f 0000 803f 0000 803f
000001a0: 0000 803f 0000 803f 0000 803f 0000 803f
000001b0: 0000 803f 0000 803f 0000 803f 0000 803f
000001c0: 0000 803f 0000 803f 0000 803f 0000 803f
000001d0: 0000 803f 0000 803f 0000 803f 0000 803f
000001e0: 0000 803f 0000 803f 0000 803f 0000 803f
000001f0: 0000 803f 0000 803f 0000 803f 0000 803f
00000200: 0000 803f 0000 803f 0000 803f 0000 803f
00000210: 0000 803f 0000 803f 0000 803f 0000 803f
00000220: 0000 803f 0000 803f 0000 803f 0000 803f
00000230: 0000 803f 0000 803f 0000 803f 0000 803f
00000240: 0000 803f 0000 803f 0000 803f 0000 803f
00000250: 0000 803f 0000 803f 0000 803f 0000 803f
00000260: 0000 803f 0000 803f 0000 803f 0000 803f
00000270: 0000 803f 0000 803f 0000 803f 0000 803f
00000280: 0000 803f 0000 803f 0000 803f 0000 803f
00000290: 0000 803f 0000 803f 0000 803f 0000 803f
000002a0: 0000 803f 0000 803f 0000 803f 0000 803f
000002b0: 0000 803f 0000 803f 0000 803f 0000 803f
000002c0: 0000 803f 0000 803f 0000 803f 0000 803f
000002d0: 0000 803f 0000 803f 0000 803f 0000 803f
000002e0: 0000 803f 0000 803f 0000 803f 0000 803f
000002f0: 0000 803f 0000 803f 0000 803f 0000 803f
00000300: 0000 803f 0000 803f 0000 803f 0000 803f
00000310: 0000 803f 0000 803f 0000 803f 0000 803f
00000320: 0000 803f 0000 803f 0000 803f 0000 803f
00000330: 0000 803f 0000 803f 0000 803f 0000 803f
00000340: 0000 803f 0000 803f 0000 803f 0000 803f
00000350: 0000 803f 0000 803f 0000 803f 0000 803f
00000360: 0000 803f 0000 803f 0000 803f 0000 803f
00000370: 0000 803f 0000 803f 0000 803f 0000 803f
00000380: 0000 803f 0000 803f 0000 803f 0000 803f
00000390: 0000 803f 0000 803f 0000 803f 0000 803f
000003a0: 0000 803f 0000 803f 0000 803f 0000 803f
000003b0: 0000 803f 0000 803f 0000 803f 0000 803f
000003c0: 0000 803f 0000 803f 0000 803f 0000 803f
000003d0: 0000 803f 0000 803f 0000 803f 0000 803f
000003e0: 0000 803f 0000 803f 0000 803f 0000 803f
000003f0: 0000 803f 0000 803f 0000 803f 0000 803f
1.0 1.0 1.0 1.0 1.0 1.0 1.0 1.0
1.0 1.0 1.0 1.0 1.0 1.0 1.0 1.0
1.0 1.0 1.0 1.0 1.0 1.0 1.0 1.0
1.0 1.0 1.0 1.0 1.0 1.0 1.0 1.0
1.0 1.0 1.0 1.0 1.0 1.0 1.0 1.0
1.0 1.0 1.0 1.0 1.0 1.0 1.0 1.0
1.0 1.0 1.0 1.0 1.0 1.0 1.0 1.0
1.0 1.0 1.0 1.0 1.0 1.0 1.0 1.0
1.0 1.0 1.0 1.0 1.0 1.0 1.0 1.0
1.0 1.0 1.0 1.0 1.0 1.0 1.0 1.0
1.0 1.0 1.0 1.0 1.0 1.0 1.0 1.0
1.0 1.0 1.0 1.0 1.0 1.0 1.0 1.0
1.0 1.0 1.0 1.0 1.0 1.0 1.0 1.0
1.0 1.0 1.0 1.0 1.0 1.0 1.0 1.0
1.0 1.0 1.0 1.0 1.0 1.0 1.0 1.0
1.0 1.0 1.0 1.0 1.0 1.0 1.0 1.0
1.0 1.0 1.0 1.0 1.0 1.0 1.0 1.0
1.0 1.0 1.0 1.0 1.0 1.0 1.0 1.0
1.0 1.0 1.0 1.0 1.0 1.0 1.0 1.0
1.0 1.0 1.0 1.0 1.0 1.0 1.0 1.0
1.0 1.0 1.0 1.0 1.0 1.0 1.0 1.0
1.0 1.0 1.0 1.0 1.0 1.0 1.0 1.0
1.0 1.0 1.0 1.0 1.0 1.0 1.0 1.0
1.0 1.0 1.0 1.0 1.0 1.0 1.0 1.0
1.0 1.0 1.0 1.0 1.0 1.0 1.0 1.0
1.0 1.0 1.0 1.0 1.0 1.0 1.0 1.0
1.0 1.0 1.0 1.0 1.0 1.0 1.0 1.0
1.0 1.0 1.0 1.0 1.0 1.0 1.0 1.0
1.0 1.0 1.0 1.0 1.0 1.0 1.0 1.0
1.0 1.0 1.0 1.0 1.0 1.0 1.0 1.0
1.0 1.0 1.0 1.0 1.0 1.0 1.0 1.0
1.0 1.0 1.0 1.0 1.0 1.0 1.0 1.0

fc2.weight f4 [300, 400]
00000000: ea1f b63d be8c 19bd f3a5 363d b982 9dbc
00000010: 4309 30bd 2bba 823d 6ef1 1d3c 62cf adbd
00000020: e37f 353d b24c 0cbe 9add a1bd 6e1e 033d
00000030: 0867 533d bc4a 50bd 677c e93b ca8b 97bd
00000040: dbba 1a3e 9494 e13c 04e6 013d 10b3 99bd
00000050: 95fc dabc 2d71 8fbd 6d74 9fbd 8cbb 463c
00000060: 112b d8bd df92 3cbc 551e c2bc 6bb8 d93d
00000070: a239 f9bd 9ddb a4bc e82f e83c 6f79 e0bd
00000080: 5b31 d83b e802 52bd a8da b1bd d8b0 d43c
00000090: d8e7 2c3d 9bda 96bd 6bd4 2abd 3882 20be
000000a0: 534a 993c fef9 ed3d 2e14 28bd f694 7dbd
000000b0: fe8e 8ebd 6966 4f3c 72cf 223e 1062 cd3c
000000c0: e61f 87bd 8830 bebd 4e68 0c3d 1e0e 9ebd
000000d0: 1b2d 59bd 4cec 9a3d 6101 2cbd adcf f33c
000000e0: 097d eb3c 98ce 8abd d761 3d3d 12be 033d
000000f0: 4978 6c3d b159 693b 8081 0a3d 4d05 f93c
00000100: ee67 24bd 93c6 8bbd 9542 2ebc 82fd e8bd
00000110: 3d28 fbbd 8cd6 8ebd 2632 563d fabd 693c
00000120: 9ef0 9abd 88a0 023d b53f 23be 52cc 1f3c
00000130: 2ecc cebd 2173 05be 2daa 7dbe 5492 3a3c
00000140: 1d39 2cbd dec3 32bc 743d de3d 5dcf 9a3d
00000150: ba10 74bd dd6e 613b 8b6b c63d 38a3 1d3d
00000160: 3223 5b3d 41f7 58bd 955d f1bc 36a7 8f3d
00000170: 712a 3cbe ff12 20bd ea0f 8ebd 99f8 1cbd
00000180: cd6a 75bd ed26 f83c 0208 983c c2b2 9fbd
00000190: 4f20 633c 4608 0b3d bf76 42bc 58c6 39bd
000001a0: 72fd 2ebd 4c28 9d3d b574 f3bc 5652 0f3d
000001b0: 5a3d 8bbe 911b 673c 7050 1a3d 7c03 9cbd
000001c0: ee7e eabc 2545 2b3b 9e46 4e3d f5a1 263d
000001d0: 9c1a 19bd 1971 8dbd 1cac 4a3b 899f e9bd
000001e0: d845 cbbd b0c2 58bd 84eb 02bc d6cb a23c
000001f0: 3e85 86bd a09f 75bc dd59 ce3c 26c7 8ebc
00000200: c6ec a0bd cce5 c2bc 0c24 91bd 3bf0 f53c
00000210: d6a7 033d 4734 453d fa3e d03d 5202 d13c
00000220: 312b 2ebd c1b7 77bd 916c e6bd 53bd e5bd
00000230: e9d4 d6bd 5366 8ebd 4b8a 263d dfaa 0c39
00000240: 2704 7abd 14e8 70bd 1c63 233d 49be b2bd
00000250: f848 ef3c 9356 d3bc 5834 f0bc afb2 fc3d
00000260: a375 88bd dec2 e83c 3ae0 563c 2c8e 3a3c
00000270: 9ee7 16be 3189 0f3d 7cbd 443d 7e1a 7fbe
00000280: 46c8 97bc b9ab 103d 3bc4 cf3c 84de 07bd
00000290: c4df 1cbd 542e 02bd 100c 4abc 9537 36bc
000002a0: f89e e3bc d00b 933d f2e3 91bd 4aae 823d
000002b0: cd9e e8bc b04e 8dbd d243 e5bd d17e 7dbc
000002c0: 4922 56bd 3f45 5e3c c0e0 c03c 0b10 623d
000002d0: fb40 34bd e3b2 f2bc 663a d8bc ef30 713c
000002e0: 85a4 11bd ff0b 2d3d 4369 6a3d 83c9 1a3d
000002f0: 1401 2a3d 3944 debc 2640 47bd 9699 02be
00000300: e7f1 843a 5228 803d 9990 06be 8717 a9bd
00000310: 1cc4 53bb 9528 2ebc d163 b9bd dbb0 e43c
00000320: 7d74 5fbd 3df2 1e3e cb27 7fbd f6d1 8abc
00000330: f808 353b 6245 c9bd e2e8 2dbc 499b e6bd
00000340: 80af bc3c c457 183d fe20 babc ec51 77bd
00000350: ac12 643b 315a 19be 0d89 9fbb 1ab1 2f3d
00000360: 6426 9b3d 4f91 9c3d b8af 533d 9cbb 0b3d
00000370: d43d 3fbd 95ab b5bd 8425 d53c c1e6 343b
00000380: 2fe4 8f3c f0cf 013d a09d 32bd 8055 81bd
00000390: a163 25bd 4453 61bd a9e9 273b f277 dc3c
000003a0: 743e 0abe 3047 353d 3785 27bd 5a41 543d
000003b0: 34b9 393c 56e3 7cbd 20e8 4fbe 94fd 1e3d
000003c0: cc0a d5bc be8a d3bc 8598 b8bc 3075 89bd
000003d0: e636 aa3d bc62 373d da50 74bc 24f9 d8bd
000003e0: c2ab f5bd 2c96 2bbe 57eb 1b3d 093a adbd
000003f0: be4e acbc ebda 22bd 737d ebbc 208f 673c
0.08892806 -0.037487738 0.044591855 -0.019227372 -0.042977583 0.06383165 0.009640081 -0.08486821
0.044311415 -0.13701132 -0.07903595 0.032011442 0.05161193 -0.050852522 0.0071254256 -0.073997095
0.15110342 0.027536668 0.0317135 -0.075048566 -0.026731769 -0.070040084 -0.07785878 0.012129676
-0.10555089 -0.011509626 -0.023696104 0.10630878 -0.12169196 -0.020124251 0.028343156 -0.109606616
0.0065976805 -0.051272303 -0.086842835 0.025963232 0.04221329 -0.073659144 -0.041706484 -0.15674675
0.018712198 0.11619948 -0.04103487 -0.06190964 -0.06960867 0.012658694 0.15899447 0.025071174
-0.06597881 -0.092866 0.03427916 -0.077175364 -0.05302153 0.07564601 -0.041993503 0.029762113
0.028746145 -0.06777686 0.046235885 0.032163687 0.0577319 0.0035606439 0.033814907 0.030398035
-0.040138178 -0.068249844 -0.010635992 -0.11376478 -0.12263534 -0.06974515 0.05229392 0.014266485
-0.07565425 0.031891376 -0.15942271 0.009753304 -0.10097538 -0.130322 -0.24771948 0.011387426
-0.042046655 -0.010910956 0.10851565 0.07559083 -0.059586264 0.0034398355 0.09688481 0.038485736
0.05350036 -0.052970175 -0.029463569 0.07014315 -0.18375565 -0.039080616 -0.06936629 -0.03832302
-0.059916306 0.030291999 0.018558506 -0.07797767 0.013862683 0.033943437 -0.011869132 -0.04535517
-0.042722173 0.07673702 -0.029718736 0.03499063 -0.27195245 0.014105693 0.037674367 -0.07617852
-0.028624978 0.0026133743 0.050360315 0.040681798 -0.037378892 -0.06906337 0.003092534 -0.11407382
-0.09925431 -0.052920043 -0.007990722 0.019872587 -0.06568383 -0.014991671 0.025189335 -0.017428946
-0.07857661 -0.023791216 -0.070869535 0.030021777 0.032142483 0.04814556 0.10168262 0.025513802
-0.04252166 -0.060477976 -0.11251176 -0.11217751 -0.10489828 -0.069531105 0.04065923 0.00013415095
-0.061039116 -0.058815077 0.03988944 -0.087277 0.029209599 -0.025798118 -0.029321834 0.12338769
-0.066630624 0.028413232 0.013114983 0.0113864355 -0.14736792 0.035042945 0.04803227 -0.2491245
-0.018528115 0.035320017 0.025362125 -0.03317119 -0.038299337 -0.031782463 -0.0123319775 -0.01112165
-0.027785763 0.071799874 -0.07123555 0.06380899 -0.028396035 -0.06899774 -0.11194576 -0.01547213
-0.05227879 0.013566314 0.02354467 0.05519108 -0.044007283 -0.029626315 -0.026395034 0.014721139
-0.03555729 0.04224777 0.05722929 0.037789833 0.041504934 -0.02713214 -0.04864516 -0.12753901
0.0010142893 0.062576905 -0.13141097 -0.082564406 -0.0032312935 -0.010629793 -0.090522416 0.027916363
-0.05455445 0.15522094 -0.06229381 -0.01694582 0.0027623754 -0.09827687 -0.010614606 -0.11260087
0.023032904 0.037193075 -0.02272081 -0.06038086 0.0034801168 -0.14975812 -0.0048686326 0.042893507
0.07575682 0.07644903 0.05168125 0.034114465 -0.046689823 -0.08870617 0.026018865 0.002760336
0.017564861 0.031692445 -0.043607354 -0.06315136 -0.040378217 -0.05501105 0.002562145 0.026912663
-0.13500386 0.044257343 -0.040898528 0.051820137 0.01133566 -0.061740242 -0.20303392 0.03881605
-0.026006125 -0.025822993 -0.022533664 -0.06711805 0.08311252 0.044771895 -0.014911855 -0.10594395
-0.11995651 -0.16756505 0.038066234 -0.08458335 -0.021033641 -0.039759558 -0.028746342 0.014133245

fc2.bias f4 [300]
00000000: 86ca 193d 869e 873c d863 6d3d 569b 613d
00000010: bbe0 dbbc 8525 e2bc 822f c53c 43d1 c5bb
00000020: 6948 d1bc d190 333c 0151 343d 2608 8dbc
00000030: 91c9 f53c 95da 193c 752e 693d 00c4 433c
00000040: 794e 56bd 19bb 82bd 72e1 8cbd c5d8 5b3d
00000050: adcd 933d 76c4 a7bd 4604 e43b 3562 04bc
00000060: 31f9 a8bd 1789 8fbd 5cfb dbba 6c5e 0fbd
00000070: e1d0 583d d3c5 8cbc 943e d83c 0a92 a9bc
00000080: d962 99bc e2e3 77bd 2406 2ebb 93f5 e5bc
00000090: 45db a6bd 3ba4 453d d8ad 5ebc 89e6 91bd
000000a0: e086 873d c242 163d 33f0 c53a b580 2f3d
000000b0: 4d7b 79bd f2e8 ddbc 6ecd f23c e53a 86bd
000000c0: 13bf 0f3c c091 af3d 0042 ae3b bcf7 aabc
000000d0: b0b2 e93c 5327 47bc 85d6 c1bd 2aa0 583d
000000e0: 140c d93c 54b8 81bb 6478 33bd 440f 28bd
000000f0: aaee cebc acb6 6abd 08c9 abbb 3636 d93b
00000100: db5f 88bd 930d a43c c1f2 393d eda5 a23c
00000110: 980c 1b3d 63fe aa3c 3589 983d 19df cebb
00000120: 76b4 783c 60d3 6cbb 2e0f 163d c1a5 89bc
00000130: 3807 fabd c93d c73c 06f1 bfba e087 cfbc
00000140: f255 a3bd 9c48 94bc 9b00 a1bd 7fc5 06bd
00000150: f33d e7bc 1880 3ebd 8aea 1ebd 0812 b7bc
00000160: f5e0 06bd e9f7 80bd 918f eeba eaee 0cbd
00000170: 4059 ffbb e7b8 2fbb 1ae8 94bc f28a 9d3c
00000180: 1ef4 73bd 923f c4bc 170b 64bd 2d26 19bc
00000190: fe24 63bc 89fe 033d 6278 11bd ac5f 51ba
000001a0: 50e4 80bd 4dae 043d 3bef 8ebd 0216 7abd
000001b0: fe42 4d3d 408d d6bc 76c2 23bd f5f0 47bc
000001c0: 5e0e 5b3d d925 f73c cb02 c4bc eace f8bb
000001d0: aeaf 71bc f5cf 58bd 98f7 38bd 8f22 14bd
000001e0: fac9 013c 4c71 893c 0f26 343d 25ce 913c
000001f0: 5d64 353c 1f0e 1abd d182 a1bd e935 003d
00000200: ccf8 cc3d 76c5 24bc 4ab5 c2bc 2b4d a8bd
00000210: cdda 013b 79b1 f8bc fa68 3e3c a71e 84bd
00000220: aa10 c73b ca51 80bd 2953 153d 7069 a8bc
00000230: f73e 293c 8614 153d a84d 713c 9624 2e3c
00000240: 7718 37bd 93ff 7fbd ed98 89bb a2ad 3dbd
00000250: 2a5b 9fbb e943 2fbc 280a 09bd ddd6 5dbd
00000260: f169 38bc ddf3 76bd 2883 19bc 354a adbc
00000270: 339a 4ebb fefc 9fbc 7353 463d 395e 5bbd
00000280: 2676 da3b 08a8 22bd 1080 08bd f8a0 4c3c
00000290: e5f5 273d 5d1a d73c 39c6 45ba c08a 90bd
000002a0: 5e29 8e3b f8e2 6b3d dcf4 0ebb d863 d43c
000002b0: 8257 4a3d 4a3b 483d 61e8 d33c 4235 993a
000002c0: 5fa1 59bc b0f8 6a3c 5665 a53d 76d4 7f3d
000002d0: f0e2 123d 6024 67bd 9537 92bc d967 503d
000002e0: a061 5abc 4216 cabc db84 3a3d 2476 debb
000002f0: a2e4 50bd 1ccc 0e3d c0c5 cbbc 60b0 353d
00000300: 0a6d 19bd a1f0 31bd 7141 7fbc 518a 3e3d
00000310: 18d0 99bc 58d9 363d 9ef5 6d3d 88f6 803c
00000320: 04be ef3b 1793 c9ba 9488 5abd 16ec ec3c
00000330: f068 40bd 4761 5c3d c48b 3abd 0aec c2bc
00000340: d66e 2fbd 572b 9dbc 3c0d 4ebd e858 423d
00000350: 826c 20bd cc72 83bd 642d 06bd 2496 97bc
00000360: 070d 24bc 8f79 b5bd b445 c5bc 7d95 893c
00000370: 4629 e3bb da14 1fbd 0515 35bc ffa0 323d
00000380: ade0 973c 5716 723d 6621 1fbd 059d 22bd
00000390: 7aeb 24bd 2c2b b53c c8d5 6b3d 442f 6abd
000003a0: 3f4e 233d e1b3 c5bb 49db d4bc baef 8ebb
000003b0: bef5 40bd 6cae 8ebc 3be4 36bd fd5b df3c
000003c0: a3c0 21bb 3c3d afbc 1c7d 0abb 740f e23c
000003d0: f87a 3a3d 3855 433c 0edc 89bc 5b5d 483c
000003e0: 32ed 88bd b263 1dbd 89a9 f53b 60fb acbd
000003f0: d46f 9f3d 8b3d 59bd 5976 47bd 0caf f53c
0.037546657 0.016555082 0.057956547 0.05507978 -0.026840558 -0.027605781 0.024070505 -0.006036909
-0.025547223 0.01095982 0.044022564 -0.0172158 0.03000334 0.009390493 0.05692907 0.0119485855
-0.05232093 -0.06383342 -0.06878938 0.053673524 0.07216964 -0.08191769 0.0069585172 -0.008080055
-0.082506545 -0.0700857 -0.0016783285 -0.035002157 0.052933577 -0.017184174 0.026397027 -0.02069952
-0.018723892 -0.06052006 -0.0026553953 -0.0280712 -0.08147291 0.048252326 -0.013591252 -0.07124049
0.06617522 0.03668476 0.0015101492 0.042847354 -0.060908604 -0.027088616 0.029638972 -0.06554202
0.008773583 0.085727215 0.0053179264 -0.020870082 0.028527588 -0.012155372 -0.094647445 0.05288712
0.026495017 -0.003958741 -0.043815985 -0.041030183 -0.025260288 -0.057303116 -0.0052424707 0.006628777
-0.06658908 0.020026004 0.045397524 0.01985451 0.037853807 0.020873254 0.07448045 -0.0063132164
0.015179744 -0.0036136732 0.03663557 -0.01680267 -0.12208408 0.024321454 -0.0014643974 -0.025333345
-0.07975377 -0.01810103 -0.078614436 -0.03290319 -0.028227782 -0.04650888 -0.038797893 -0.022347465
-0.03292938 -0.06297285 -0.0018200745 -0.034407534 -0.007792622 -0.0026813091 -0.01817708 0.019231293
-0.05955898 -0.023956094 -0.05567464 -0.009347481 -0.0138638 0.032225166 -0.035515197 -0.00079869735
-0.06293547 0.03239279 -0.06979223 -0.061056145 0.050112717 -0.0261904 -0.039980374 -0.012203445
0.0534805 0.030169414 -0.023927113 -0.0075930255 -0.014751358 -0.0529327 -0.045158 -0.03616577
0.00792169 0.016777657 0.043981608 0.017798493 0.011071292 -0.037611123 -0.078862794 0.031301413
0.10008392 -0.010056844 -0.023768086 -0.082178436 0.0019814253 -0.030358063 0.011621708 -0.06451159
0.0060749846 -0.062656 0.03645626 -0.020558089 0.010329953 0.036396526 0.014727987 0.01062884
-0.044701066 -0.062499594 -0.0041991384 -0.046308167 -0.0048631625 -0.010697343 -0.03345695 -0.054159988
-0.011255727 -0.06029116 -0.009369649 -0.021153549 -0.0031525015 -0.019529816 0.048419427 -0.053556655
0.0066669164 -0.03971103 -0.033325255 0.01248955 0.041005988 0.026257688 -0.0007544491 -0.070577145
0.0043384274 0.0575895 -0.0021813428 0.025926515 0.04939986 0.048884667 0.025867643 0.0011688846
-0.013283103 0.014341518 0.08075969 0.062458478 0.035860956 -0.056431174 -0.01784877 0.050880287
-0.01332894 -0.024668816 0.045536857 -0.006788986 -0.05099929 0.034862623 -0.024874568 0.044357657
-0.037457503 -0.043442372 -0.015579567 0.046518628 -0.018775985 0.04464087 0.058095567 0.015742555
0.007316353 -0.0015378919 -0.053352907 0.028921168 -0.046975076 0.05380371 -0.045543447 -0.023794193
-0.04283031 -0.019185705 -0.05030559 0.04744807 -0.03916598 -0.0641838 -0.03275813 -0.01850421
-0.010012872 -0.08861076 -0.024081089 0.016794914 -0.0069324104 -0.038838245 -0.011052375 0.04361057
0.018539751 0.059103336 -0.03885021 -0.039700527 -0.04026363 0.022115313 0.057576925 -0.057173982
0.039869543 -0.006033406 -0.02598347 -0.0043620737 -0.047109358 -0.017417155 -0.04465125 0.027265543
-0.002468147 -0.021391504 -0.00211317 0.02759526 0.04552743 0.011922173 -0.016828563 0.012229289
-0.066858664 -0.038425155 0.007497017 -0.084463835 0.077850014 -0.053037208 -0.04869685 0.029990695
