copy_param_ref/checkpoint_critic_min.pth (torch_old, 595273 bytes, 17 tensors)

bn0.weight f4 [24]
000000 66 d9 67 3e 66 bb 6b 3e 8a 4b 44 3e c1 e7 01 3e
       0.22641525 0.23020706 0.19169441 0.12686063
000010 e5 d9 59 3f 74 e8 0d 3f 0d 96 da 3c 1c f0 d3 3a
       0.85098106 0.5543282 0.026682878 0.0016169581
000020 c7 4a 78 3e 66 d0 42 3b db 33 cf 3d dc 2a 53 3d
       0.24247275 0.0029726266 0.101173125 0.051554546
000030 a6 11 82 3e 89 07 37 3f 3a da f5 3d 14 7a c4 3d
       0.2540409 0.7149587 0.12004514 0.09593597
000040 4c a7 89 3e c5 08 76 3e 29 8e f6 3c e1 75 68 3e
       0.2688545 0.24026783 0.030097084 0.22701217
000050 10 a4 09 bf 56 f3 1e 3f 67 28 66 3e 70 2d d2 3d
       -0.53765965 0.6209005 0.2247635 0.10262573

bn0.bias f4 [24]
000000 32 3c 02 3e e1 dd 77 bc cd 9c 4b 3c 49 3f c7 bc
       0.12718275 -0.015128584 0.012427521 -0.024322169
000010 99 f3 cc 3c e1 67 15 3e 7b ec a2 bb 66 e5 a0 3b
       0.0250185 0.14590408 -0.0049720383 0.004910159
000020 19 29 0b 3d 56 dd 5f ba d9 ea 42 3b 0e 15 27 bd
       0.03397474 -0.00085397565 0.002974203 -0.040791564
000030 32 09 c9 3c 33 3e 07 3e d0 c5 d3 bc 61 35 45 bb
       0.024540517 0.13207321 -0.02585116 -0.003009163
000040 05 14 b5 bc da 14 f0 3d 31 ea 51 bc 73 ee 09 be
       -0.022104273 0.11722727 -0.012812183 -0.13469867
000050 ee f1 d6 bc f1 64 ca 3c 52 49 cf bd a7 f5 0e bb
       -0.026238408 0.024706336 -0.101214066 -0.00218139

bn0.running_mean f4 [24]
000000 0a 4d 14 c1 53 a3 56 bf 31 08 0c 3f e5 28 7f bd
       -9.268808 -0.83842963 0.547 -0.06229486
000010 3a 1a 97 3d b9 c2 24 40 31 08 0c 3f e5 28 7f bd
       0.07378049 2.574385 0.547 -0.06229486
000020 3c 3e 14 c1 b9 a7 58 bf 7f 1e 93 3f 03 f6 2d be
       -9.265194 -0.84630924 1.1493682 -0.16988377
000030 6a 83 9a 3d 54 c9 22 40 7f 1e 93 3f 03 f6 2d be
       0.075445965 2.543538 1.1493682 -0.16988377
000040 8f 5f 15 c1 4d c6 5a bf 01 da 52 3f 61 80 e8 bd
       -9.33583 -0.8545883 0.823639 -0.11352611
000050 06 da bb 3d 9d 9b 20 40 01 da 52 3f 61 80 e8 bd
       0.09172444 2.509498 0.823639 -0.11352611

bn0.running_var f4 [24]
000000 92 3d be 40 d7 71 90 3f 2a 5f 3e 43 fa 21 25 41
       5.945016 1.1284741 190.37173 10.320795
000010 ab a6 e4 41 43 4f 54 40 2a 5f 3e 43 fa 21 25 41
       28.58138 3.3173378 190.37173 10.320795
000020 f2 71 ae 40 ce 82 91 3f 31 30 53 43 42 d0 23 41
       5.4514093 1.1368043 211.18825 10.238344
000030 7f ad e5 41 72 6e 59 40 31 30 53 43 42 d0 23 41
       28.709715 3.397366 211.18825 10.238344
000040 81 6e a2 40 e0 c3 90 3f 31 c3 4f 43 ef 41 27 41
       5.0759892 1.1309776 207.76247 10.453597
000050 cb 66 e9 41 9b 83 66 40 31 c3 4f 43 ef 41 27 41
       29.175192 3.6017826 207.76247 10.453597

fcs1.weight f4 [512, 24]
000000 f2 71 28 3d 46 23 e1 3c af 76 90 bd 6b d5 b8 3d
       0.04112429 0.02748264 -0.07053887 0.09025081
000010 f3 73 df bc 4e e1 1a be 14 71 bb bc 67 6a ba bd
       -0.027276969 -0.1512501 -0.022881068 -0.09102326
000020 5f 08 df 3d d7 ea be 3d 3e b8 f4 bd 98 09 de bd
       0.108902685 0.09322136 -0.11949204 -0.108416736
000030 5f b0 8b 3c 63 46 03 bd 94 ba 02 bd 81 07 43 be
       0.017051874 -0.032049548 -0.031916216 -0.19045831
000040 fb 00 90 3d 2a f0 20 3d 04 de f6 bb cb 12 9f 3e
       0.07031437 0.03929154 -0.0075337905 0.31069025
000050 af c3 64 3d e1 b9 29 3d 74 76 41 bd d2 08 77 3e
       0.05585068 0.041437034 -0.047232106 0.24124458
000060 03 cc 50 3e 1b c6 3c bc 45 7d e5 bc 3d dd 83 3c
       0.20390324 -0.011521841 -0.028013835 0.016096706
000070 c1 7b 10 3e bf 7b 2a be 7d 58 6f 3d ef 76 a6 bd
       0.14109708 -0.16648768 0.058434 -0.081281535
000080 ed d6 01 3e e9 d4 10 3d 72 87 50 be c8 12 89 3d
       0.12679644 0.035359297 -0.20364168 0.06693035
000090 1c eb 47 3d 1a 80 02 3e dc 5d 22 be bc 64 63 bd
       0.048808202 0.1274418 -0.15856117 -0.05551599
0000a0 fc 38 0a 3d 97 8f 94 be 6e 69 2a be 62 c0 d4 3b
       0.03374575 -0.290158 -0.1664178 0.0064926604
0000b0 f6 77 74 3d 45 df c5 bd f9 f1 13 be 9d 97 5d bd
       0.059684716 -0.09661726 -0.14447774 -0.054099668
0000c0 ad b7 1f bc 3d 00 21 bc 3e 05 08 bd 68 77 10 3d
       -0.009748382 -0.009826717 -0.033208124 0.035270125
0000d0 83 6f 34 3e 7b f4 b0 39 ed 78 83 3c 27 32 92 3d
       0.17620663 0.00033751488 0.016048873 0.07138472
0000e0 6e 54 0a bb f0 85 06 be b9 c5 86 bc ca af 5d 3a
       -0.0021107453 -0.1313703 -0.016451703 0.00084566756
0000f0 31 3f 50 3e da 5f 0a 3d d9 9f 64 3c 12 9d 7a 3c
       0.20336606 0.033782817 0.013954126 0.015296238
000100 c8 7d 59 3d 67 2c 53 bd 1f 80 2f bc 99 15 9d ba
       0.05309847 -0.051556017 -0.010711699 -0.0011984586
000110 04 51 80 3e 6e 88 51 bd 10 aa 03 bd f7 fb 9c 3c
       0.2506181 -0.0511555 -0.032144606 0.019163115
000120 ef e1 41 bd 6f 1c 80 3b bf d7 e3 bc 35 80 90 3c
       -0.047334608 0.0039096395 -0.027812837 0.017639259
000130 49 3f dd 3d bd 69 11 be 89 c0 c5 3b 0a c6 0f 3b
       0.10803086 -0.14200492 0.006034915 0.002193811
000140 f6 c1 8c 3d 85 99 04 bc 56 e5 ce 3b 99 e1 bf 3d
       0.068729326 -0.0080932425 0.00631396 0.09369201
000150 ab 15 83 3e 32 b8 6a 3c cb 7d fc 3c 37 9b 2a 3d
       0.2560247 0.014326142 0.030821702 0.04165193
000160 a9 75 f2 bb cd e5 af bd 33 ca aa 3d 9a 9f 52 3a
       -0.00739928 -0.08588753 0.08339348 0.0008034647
000170 15 e4 64 3e 13 58 bb 3d e2 1b 27 3c 60 b6 07 be
       0.22352631 0.09147658 0.010199519 -0.13253164
000180 ac 52 49 bf 2a 1e ff 39 00 4f 91 be 95 e1 dc bc
       -0.7864177 0.00048659864 -0.28380585 -0.026963035
000190 2a ce 7e bd 5e ed 1a bd dc ba 28 be 63 f5 cc 3c
       -0.062208332 -0.037824027 -0.16477531 0.025019353
0001a0 4f 43 72 bd 1f 52 74 3d 9c 84 38 3c 0c e7 78 bd
       -0.05914622 0.05964863 0.011262085 -0.06076722
0001b0 e0 13 92 3b 29 5b 01 3d fa 74 c1 3d aa 1f 2c be
       0.0044579357 0.031581078 0.0944614 -0.16808954
0001c0 5a 1d 85 bd f2 0c 7a be f0 12 e7 3c 06 be a5 3c
       -0.06499739 -0.24419 0.028207272 0.020232212
0001d0 73 b4 32 be db f4 95 bc 4f 28 5b bd 81 6c 87 bc
       -0.17451648 -0.018305233 -0.05350524 -0.01653123
0001e0 73 8e 3a bd 20 25 30 be f3 b9 9c 3c f2 9a 99 bd
       -0.045546006 -0.17201662 0.019131636 -0.075002566
0001f0 6a 8b a2 bd d9 85 8e be de fc 21 3d 45 ad 8d bb
       -0.07936747 -0.27836493 0.039547794 -0.004323634
000200 f6 4d b9 3c 18 29 d2 3c a5 e1 d8 bd e1 c5 21 bd
       0.022620182 0.02565436 -0.10589913 -0.039495353
000210 56 3f 58 bd f5 42 e5 3b 1a 12 63 bd db c8 1d bc
       -0.052794777 0.0069965073 -0.055437185 -0.009630407
000220 cf e9 93 bd 2b fb 1b 3e 51 d9 e8 bd 02 bc df 3d
       -0.0722233 0.15232532 -0.11369575 0.109245315
000230 27 69 ed 3d ae 82 ad 3e 7d 31 c1 bd 46 8b 81 3d
       0.11592322 0.33888763 -0.09433267 0.063253924
000240 58 49 a3 3d 34 fa a7 3d 4e 8c 43 be 1b b0 16 3e
       0.079729736 0.08202019 -0.1909649 0.14715616
000250 c1 e6 62 bd f5 bf 81 3c ef 22 ca bd 59 96 9b 3d
       -0.055395845 0.015838603 -0.09869944 0.07597036
000260 63 f8 57 bc 57 63 31 3d 26 ed d9 be 63 c8 af bd
       -0.013181779 0.04330763 -0.42563742 -0.085831426
000270 e2 85 65 3b 68 06 ba bd 13 88 a3 be f2 9a c2 bd
       0.0035022427 -0.09083253 -0.31939754 -0.0950221
000280 af 1a 7b bd b3 5a ed 3d 36 92 2e be 3f ba e5 bd
       -0.061304744 0.11589565 -0.17047963 -0.11217164
000290 56 96 3e 3e 99 7c b4 3d 92 9b 1d be 81 8f 08 be
       0.18612036 0.088128276 -0.15391377 -0.13335992
0002a0 fa 1b 97 bd 29 86 4b bd 91 cc 31 bd bb 11 ef bd
       -0.07378383 -0.049688492 -0.04340798 -0.11673304
0002b0 0f b7 e5 bd a6 e1 0a 3d 1d 22 83 bc 43 09 99 bd
       -0.11216556 0.0339066 -0.016007477 -0.0747247
0002c0 c8 3c 8d 3b 0b 12 1e 3d 31 12 3c bd 04 18 2c bd
       0.004310224 0.038591426 -0.045915786 -0.04201509
0002d0 f2 f4 ef bd d9 9e fb bd 32 7e 5a bd 61 ed c3 bc
       -0.117166415 -0.12286157 -0.053343005 -0.023916902
0002e0 2f f4 27 3d 57 10 c1 3d 2c 9b 22 3d 34 cc d5 3c
       0.041004356 0.09426945 0.039698765 0.026098348
0002f0 79 77 82 be c3 27 43 3d 4c 88 20 bb bd 91 30 b9
       -0.25481775 0.04764534 -0.0024495302 -0.0001683896
000300 1b 96 3a bc 82 65 f1 3c 97 f6 07 3d 42 df 68 bd
       -0.011388327 0.029467348 0.03319415 -0.05685354
000310 f7 b0 e6 3d 6d d8 94 3d b6 a5 3e 3d fc 40 04 bd
       0.11264222 0.072678424 0.046544753 -0.032288536
000320 1c ec ab 3d ea 38 91 3d 01 97 57 bd 56 ef b8 3d
       0.08394644 0.070909336 -0.052634243 0.09030025
000330 01 ed 61 3e 36 af e3 bd cb 9e 0e bd cc b4 5e bb
       0.22063066 -0.11117403 -0.034819406 -0.0033982275
000340 a4 f7 64 bd f7 35 93 3d 80 42 ff bb 57 fa 15 3d
       -0.05590023 0.07188027 -0.00778991 0.036615696
000350 09 9a 3b 3e bb 8f 89 3d 67 33 90 ba fe fd 4b 3d
       0.18320478 0.067168675 -0.0011001647 0.049802773
000360 36 09 86 bd f7 86 2f be 02 aa f4 bc 43 62 15 bd
       -0.065447256 -0.17141329 -0.029866222 -0.036470663
000370 05 20 29 3e 74 f2 7a 3d 6d 08 f5 3c 66 96 db bd
       0.1651612 0.061266378 0.029911244 -0.107220456
000380 76 9c af 3d 77 20 3a bd 0b 76 d1 3d 4d b7 a7 3d
       0.085747644 -0.045441117 0.10227593 0.08189259
000390 b1 4f 0f 3e 59 26 3d 3d de 86 9a 3d b2 e1 69 bd
       0.13995244 0.04617915 0.07545255 -0.057100005
0003a0 b5 9d 94 3d ca 46 78 be e5 7c 01 3b 4c 3e 86 bc
       0.07256643 -0.24245754 0.001975828 -0.016387127
0003b0 11 74 fe 3d 44 19 df 3d 8d a8 81 bd cf fb 10 be
       0.12424482 0.10893491 -0.06330977 -0.14158557
0003c0 81 f5 bf 3d dc ce 79 bd 07 f9 23 3d f9 a3 24 3d
       0.09372998 -0.060988292 0.040032413 0.04019544
0003d0 bf 53 ac 3d e5 3a 21 be 98 96 8d 3b 00 d9 08 3e
       0.08414411 -0.15745123 0.0043209307 0.13364029
0003e0 e3 2f de 3d 1f fc 9e 3b dd d0 26 be 70 4a 02 3e
       0.108489774 0.0048518325 -0.16290613 0.12723708
0003f0 b4 5c 85 3b ef 2b 35 3d 72 b2 2e be 80 81 fe 3d
       0.004069889 0.04423135 -0.17060259 0.12427044

fcs1.bias f4 [512]
000000 56 1c e6 bd 58 80 09 be a7 52 ce bc a2 96 8a 3c
       -0.112358734 -0.13427866 -0.025185896 0.01691753
000010 0c 67 d6 bd 30 ab b5 bd 37 b4 80 be 8b 5a 7d bd
       -0.104688734 -0.08870542 -0.25137493 -0.061853927
000020 69 6d 8f 3c 32 a1 05 be 67 af 48 bd 27 94 c0 3d
       0.017508226 -0.13049772 -0.0489954 0.09403258
000030 93 d9 2f bd be 3d 12 3d 1b a0 fa bd 52 40 43 3d
       -0.042932104 0.035703413 -0.12237569 0.047668763
000040 61 60 d3 be 81 ab 16 be 04 a3 a3 bd a6 5f 00 be
       -0.4128447 -0.14713861 -0.07990077 -0.12536487
000050 d2 e1 25 3d d8 c4 30 be c9 e5 4c bd 0f 42 b5 bd
       0.040498562 -0.1726259 -0.050023828 -0.0885049
000060 c5 71 0e bd 43 65 1d be 8f a6 15 be 94 9b 48 be
       -0.034776468 -0.1537066 -0.14614318 -0.19590598
000070 77 4b 9e be e7 a8 87 bd 71 71 c8 bd c1 2a 20 be
       -0.3091695 -0.066240124 -0.09787262 -0.1564131
000080 61 f4 cb ba fc 5d d4 bd 7a e4 db 3b 0c ba aa bc
       -0.0015560501 -0.103694886 0.006710586 -0.020840667
000090 37 95 d9 bd 6c 20 16 bd 00 30 78 be ce f8 13 3c
       -0.106241636 -0.036652014 -0.2423706 0.009031488
0000a0 65 12 9b be e3 ae 50 be 0a 53 9c be 1a ad 27 be
       -0.3028747 -0.20379214 -0.30532104 -0.16374627
0000b0 91 14 b7 be c9 68 10 bd a6 05 5b bd db 5e 4c bd
       -0.35757878 -0.03525618 -0.053472184 -0.04989515
0000c0 1e 0e 44 be 4a 20 43 be 71 e0 90 be c2 e3 4b be
       -0.1914601 -0.19055286 -0.28296235 -0.19911101
0000d0 40 93 06 be 2c 1e 83 bd 07 f6 8e bd b7 72 1a 3e
       -0.13142109 -0.06402239 -0.0698052 0.15082823
0000e0 64 5e ae bb 05 cc b1 be b9 33 0d bc f1 ed 68 bc
       -0.005321311 -0.34725967 -0.008618289 -0.014216886
0000f0 97 c9 09 bd 94 df 05 be 6d 73 34 be 0b 4c 10 3d
       -0.033639517 -0.1307357 -0.17622156 0.03522877
000100 b7 b6 a1 bd fb 47 2a bd b8 9a 1f be d2 c2 20 3d
       -0.07896178 -0.041572552 -0.15586364 0.039248295
000110 a1 66 c1 bd ee c9 87 bd 60 91 3a be 07 1b 15 be
       -0.09443403 -0.06630312 -0.18219519 -0.14561091
000120 a7 4e 1d bd 7f eb 11 be 26 f4 e5 bd 36 5c e9 bd
       -0.038405087 -0.14249991 -0.11228208 -0.11394541
000130 46 68 df 3b 25 bb 79 bd 44 c2 20 bd 78 55 22 3d
       0.0068178503 -0.06096949 -0.039247766 0.03963229
000140 f7 b4 3d be c0 0f 86 3c 97 64 0d be 17 35 0b bd
       -0.18526064 0.016364932 -0.13807903 -0.033986177
000150 25 38 94 3d c7 ee c8 3c 27 c9 9b be d8 0e 8e be
       0.07237271 0.02452792 -0.30426905 -0.277457
000160 74 92 ab bd cc 2f 3c 3d 92 c2 24 be a4 7c f9 bc
       -0.08377543 0.04594402 -0.16089848 -0.030454941
000170 53 70 e7 bc 2f c2 8e 3d 0d 43 0d be 1e 20 8f be
       -0.028251803 0.06970631 -0.13795109 -0.2795419
000180 64 24 76 bd 87 0c 42 be 78 57 9d 3b 51 93 12 be
       -0.0600933 -0.18950091 0.004801687 -0.14314009
000190 93 13 42 be 91 79 60 bd 1a bd db be 2a 63 23 3d
       -0.1895278 -0.054803435 -0.4291771 0.039889492
0001a0 4f f8 f6 bd 0f 6c 53 be 58 83 ab 3b d7 b0 18 be
       -0.1205908 -0.2064669 0.0052341633 -0.14911209
0001b0 bc 07 93 3d 1d d8 8b bd 37 72 66 be 48 f6 0c be
       0.071792096 -0.0682833 -0.22504507 -0.13765824
0001c0 9a 61 08 be 5a 13 90 bd a3 e6 bc 3c e2 f5 52 3a
       -0.13318482 -0.07034941 0.023059195 0.00080475037
0001d0 36 00 3a be 01 4e cc bd a1 49 3c 3c a6 f5 65 be
       -0.18164143 -0.099758156 0.011492164 -0.22456989
0001e0 bf 45 09 bd b1 26 05 bd bb a7 11 be 1d 10 58 be
       -0.03351378 -0.032507602 -0.1422414 -0.21099897
0001f0 90 da 9b bd ae c6 4c be fa 50 38 be 9d 63 26 be
       -0.07610047 -0.19997665 -0.1799964 -0.16248937
000200 e3 3f 48 be 2f 26 86 bd 17 b8 ac bd 50 6e a4 bd
       -0.19555621 -0.06550252 -0.0843355 -0.08028853
000210 bf f0 dc bd a9 07 8d be e4 6e 83 3d 64 2e 8a be
       -0.10788106 -0.27544907 0.06417635 -0.26988518
000220 b7 10 aa bc 08 4c 1d be 8a 7c 08 be 23 08 2d be
       -0.020759923 -0.15361035 -0.13328758 -0.16897635
000230 f5 a2 14 be a8 59 43 bd de 33 a1 bd 58 96 e9 bd
       -0.14515288 -0.047692925 -0.07871221 -0.11405629
000240 ea 84 ac be 8c 88 80 3d 89 42 92 3d 12 74 57 3d
       -0.33695155 0.06276044 0.07141597 0.052600928
000250 10 c7 ba bc c1 21 01 be f3 4d 3b be 1a ea ad be
       -0.022799999 -0.12610532 -0.18291454 -0.33967668
000260 f9 15 86 bd 30 dd 32 be 2e 78 41 be 3f 3f 5a bd
       -0.0654716 -0.17467189 -0.18893501 -0.053282972
000270 2c 8d 39 be e1 fa f0 bd ca a1 ce bd 61 65 c0 bd
       -0.18120259 -0.11766601 -0.100894526 -0.093943365
000280 1c ef 4c 3e d7 2a 23 3d e7 1f 3d be 7f b3 72 bd
       0.20013088 0.039835777 -0.18469201 -0.059253212
000290 b2 c7 96 be c6 de fe bd 57 e2 1c be e1 2c 95 be
       -0.2944923 -0.124448344 -0.15320717 -0.29135802
0002a0 59 d0 14 3d ee 4e aa bd 6d b0 51 3e 9c cd c6 bd
       0.03633151 -0.08315836 0.20477457 -0.097071856
0002b0 f1 e2 56 bd 4b 18 87 be 84 84 7f be 70 3b b7 bd
       -0.052462522 -0.26385722 -0.24952894 -0.08946884
0002c0 fa 4f 1a be 64 4b a5 bd be bd 58 be ad f7 20 be
       -0.15069571 -0.0807102 -0.21166131 -0.15719481
0002d0 a1 6f 24 be f4 32 c1 bd 28 53 68 bc 75 6b ec bd
       -0.16058208 -0.09433547 -0.014179982 -0.11543933
0002e0 5c c2 11 3c 0c db 97 bd a6 2a a3 bc 94 e6 33 bd
       0.008896437 -0.07414827 -0.019917797 -0.04392107
0002f0 91 5f c6 3d 44 69 48 be b7 8c 5f bd b6 de 2c be
       0.096861966 -0.19571406 -0.054577556 -0.16881832
000300 f8 b5 5e be 6f 20 03 be 55 f5 0a be 91 f7 4d bd
       -0.21749103 -0.12805341 -0.13570149 -0.050284926
000310 f0 d4 68 bc b8 82 52 be 87 b6 49 3e 20 fa 3b be
       -0.0142109245 -0.20557678 0.19698535 -0.18357134
000320 47 eb 7d 3d 10 ae fb bd 27 00 ea bd aa f7 41 be
       0.061991956 -0.12289059 -0.1142581 -0.18942133
000330 15 37 1a be e0 b0 01 be dd f6 cb bd ab 08 1d be
       -0.15060075 -0.12665129 -0.09959195 -0.15335338
000340 af c2 cd bd 2c 81 81 bc e1 29 8f be ee 8d 8a bd
       -0.100468986 -0.015808664 -0.2796164 -0.06765352
000350 ef 98 07 be c0 7c c0 3d 87 48 70 be 31 f6 6a be
       -0.13241933 0.09398794 -0.23465167 -0.22945477
000360 6e 00 93 bd ae cd 2d be 90 e3 64 3d 1c c0 c8 bd
       -0.07177816 -0.16972992 0.055881083 -0.09802267
000370 72 19 8f bc 2b 2c 86 be f1 7b a5 3d e9 ec d8 bd
       -0.017468188 -0.26205572 0.080802806 -0.10592062
000380 00 59 b0 3c 8d d6 a9 be 46 bd a8 be ad 0c 47 be
       0.021526814 -0.33171502 -0.32956904 -0.19438429
000390 a9 0b cb bc 50 c5 1d bd e8 f5 1c be af be 9f bd
       -0.024785833 -0.03851825 -0.15328181 -0.07800042
0003a0 08 a2 ea 3d b0 a5 cf bd d5 53 12 be e0 41 25 be
       0.11456686 -0.10139024 -0.14289792 -0.1613841
0003b0 d2 4e 6f bd 13 45 0a 3d 5b b7 0c bd 99 4d 08 be
       -0.05842478 0.03375728 -0.03435455 -0.13310851
0003c0 83 0b 65 3d 84 46 85 be f5 91 cf bd 47 d8 40 be
       0.05591918 -0.26030362 -0.10135261 -0.18832503
0003d0 18 a9 3d be 24 f6 d5 bd e4 96 d4 bc c6 32 22 be
       -0.18521535 -0.10447338 -0.025950857 -0.15839681
0003e0 3c 8b 16 be 4d 7c 65 bd 38 58 1e be ba cb 50 be
       -0.14701551 -0.056026746 -0.1546334 -0.20390216
0003f0 ae 47 4c bd ef fe 7e bd 1a f1 d5 bd 67 f9 94 be
       -0.049873047 -0.062254842 -0.10446377 -0.2909653

bn1.weight f4 [512]
000000 7f a6 3e 3f 00 4b 1b 3f f1 df 5c 3f 8b 77 63 3f
       0.744728 0.60661316 0.8627921 0.88854283
000010 cb 83 70 3f a7 15 36 3f 1a 36 8e 3e e0 2e 94 3c
       0.939511 0.7112679 0.2777565 0.018088758
000020 d0 3d c6 3e 14 a3 3f 3f c4 f8 e1 3e 5a 31 e8 3e
       0.38719034 0.7485821 0.44135106 0.45350152
000030 38 7d bf 3e bc ef c1 3e ea 4e e2 3e 9c d4 7d 3f
       0.37400222 0.37878215 0.44200832 0.9915254
000040 af a2 19 3f 00 7b 4f 3c 42 7d 12 3f 18 26 74 3e
       0.6001386 0.012663603 0.5722238 0.23842657
000050 ac 6f 2c 3f 28 a2 54 3e 7a 32 a6 3e 58 65 6f 3e
       0.673579 0.20764983 0.32460386 0.23378503
000060 ac e9 84 3e bd 8a 65 3f 2d 8e 78 3f b6 75 a5 3e
       0.25959527 0.8966482 0.97091943 0.3231637
000070 bb e3 5c 3f fb 0b 32 3f f6 cd fe 3e 00 7c 0a 3e
       0.8628499 0.6954953 0.4976651 0.13523865
000080 7d 03 5d 3f 24 49 3f 3e 85 d8 20 3f 7e 9f 19 3f
       0.8633345 0.18680245 0.6283038 0.6000899
000090 96 2b 92 3e 40 9f 61 3f 43 a5 02 3f e4 d4 ea 3e
       0.28548878 0.8813362 0.5103342 0.45865548
0000a0 58 28 21 3f fe 23 e9 3e 90 24 30 3e a0 77 0f 3d
       0.62952185 0.45535272 0.17201447 0.035026193
0000b0 3c bb 7a 3f e4 b1 20 3e d4 75 5a 3e 0e 4b 0e 3f
       0.97941947 0.1569286 0.2133401 0.55583274
0000c0 c4 d6 41 3f b3 66 58 3f 38 67 12 3f 80 53 c1 3c
       0.7571833 0.84531707 0.5718875 0.023599386
0000d0 b5 71 10 3f 1c 91 3a 3e 38 9f 4c 3f 48 f4 7e 3e
       0.56423503 0.18219417 0.7993045 0.24897873
0000e0 80 a7 15 3f 0c 94 ba 3e 84 8a 1d 3f 89 21 4e 3f
       0.5845871 0.36441076 0.61539483 0.8051992
0000f0 8c 10 27 3f ef 58 47 3f a5 76 5a 3f c0 cf 6d 3f
       0.65259624 0.77870077 0.8533729 0.92895126
000100 d6 81 5f 3f c0 d7 4b 3c fe f7 99 3e a8 de 9c 3e
       0.8730749 0.0124415755 0.30072016 0.30638623
000110 67 3a 62 3f 00 58 63 3f bd 5c 22 3f 78 4d 52 3f
       0.88370365 0.8880615 0.6342276 0.8214946
000120 de 8e 76 3f 9b 3e 56 3f e8 5e 7f 3f 82 e7 e6 3e
       0.9631175 0.8368928 0.9975419 0.450985
000130 85 59 3a 3f 80 63 5b 3d e0 e9 89 3d 2e dc d5 3e
       0.72792846 0.053561687 0.06734061 0.41769546
000140 6a 7f 8b 3e f4 ea 12 3f 3e da 0f 3f c8 cd 76 3f
       0.27245647 0.5738976 0.56192386 0.9640775
000150 5a e2 36 3f 67 0a 0f 3f e8 28 e9 3e 7e 0d b8 3e
       0.71439135 0.5587525 0.45539021 0.35947794
000160 e8 2c 53 3e 2a 55 94 3e db 03 0c 3f 0b 99 2c 3f
       0.20622599 0.28971225 0.5469338 0.67421025
000170 d2 ee 27 3f ea 1d 14 3f 0e 54 5d 3f 70 8b 8f 3e
       0.65598786 0.57858145 0.8645638 0.2803607
000180 b8 33 c1 3d 18 8c 41 3e 7a 86 c3 3e 7e 0a 4e 3f
       0.09433693 0.18901098 0.38188535 0.8048476
000190 70 fb 19 3e 38 d0 a3 3e 2e 0a 40 3f 4f f3 30 3f
       0.15037322 0.31994796 0.7501553 0.6912126
0001a0 4a fe 4c 3f 18 38 82 3e d8 c2 7e 3e 20 e5 64 3f
       0.80075514 0.2543342 0.24879014 0.89412117
0001b0 98 46 03 3e 42 19 b3 3e cc 7b 65 3f 84 48 0d 3e
       0.12819898 0.34980208 0.89642024 0.13797194
0001c0 71 2e 23 3f ec 9f 1e 3e 9e fe 6e 3f 28 f4 fb 3e
       0.6374274 0.15490693 0.93357265 0.49209714
0001d0 ee e3 07 3f 32 c5 9c 3e 78 d8 ab 3e 78 1d f6 3e
       0.5308217 0.30619198 0.3356359 0.48069358
0001e0 15 b8 13 3f 64 e3 f6 3e 98 5b 38 3e 32 97 28 3f
       0.5770276 0.4822036 0.1800369 0.65855706
0001f0 7e c7 1f 3f ee 20 d8 3e 1c 27 30 3f db 02 03 3f
       0.62413776 0.42212623 0.68809676 0.5117623
000200 ac 36 12 3e 86 80 7b 3f ce 15 be 3e e6 f1 4d 3f
       0.14278668 0.98242986 0.3712601 0.8044723
000210 28 1d 8e 3e 0e b9 64 3f f3 b1 26 3f 27 6e 43 3f
       0.2775662 0.8934487 0.6511528 0.76339954
000220 b7 04 2d 3f 7a f2 a1 3e b8 81 93 3d c0 cf 7b 3d
       0.6758532 0.31630307 0.07202476 0.061477423
000230 60 32 6b 3e 47 5e 18 3f f4 88 98 3e ad 0c 40 3f
       0.22968435 0.59518856 0.29791987 0.7501934
000240 80 ad 16 3c a3 b7 1f 3f ae dd 3b 3f 2c 23 f0 3e
       0.009196639 0.6238958 0.7338513 0.46901834
000250 81 3a 73 3f d0 b0 13 3d 08 a0 0a 3e 82 9a 95 3e
       0.95011145 0.036057293 0.1353761 0.29219443
000260 0c fb 5c 3f d0 05 3a 3f 66 82 29 3f 34 c3 cc 3e
       0.8632057 0.7266512 0.662146 0.39992678
000270 e8 99 2e 3e ca 04 f9 3e 69 14 45 3f a6 1c a5 3e
       0.17050898 0.48636466 0.7698427 0.3224842
000280 b8 2b 83 3d 18 06 3e 3f e8 4c 13 3e a6 cc b4 3e
       0.06404823 0.7422805 0.14384806 0.35312384
000290 5d 5d 0e 3f a4 93 1b 3f ba 6e cd 3e 98 72 3b 3e
       0.5561121 0.60772157 0.4012354 0.18305433
0002a0 6b ff 43 3f be 14 9c 3e 30 4f c9 3e e4 e5 9c 3e
       0.7656161 0.30484575 0.39318228 0.30644143
0002b0 e0 5f 3c 3e 20 c5 d9 3e 4a 77 3c 3f 14 65 7c 3e
       0.18395948 0.42533207 0.7361952 0.24647933
0002c0 c6 39 fd 3e a0 cc 2c 3f 41 2d 0d 3f dc e9 a1 3e
       0.4945814 0.6749973 0.55147177 0.31623733
0002d0 7e c0 e1 3e 78 36 8b 3d 00 b9 f7 3b 41 53 20 3f
       0.44092172 0.067974985 0.0075598955 0.62627035
0002e0 ee 6c b0 3e 00 c6 0e 3e eb b3 42 3f df dc 00 3f
       0.34458107 0.13942719 0.76055783 0.5033702
0002f0 29 a8 12 3f 8a a4 83 3e 2e 0d 58 3f 4d 06 35 3f
       0.5728784 0.2571147 0.8439511 0.7071274
000300 30 e4 58 3f f0 33 2e 3d b0 20 de 3e 40 d5 8d 3e
       0.84723186 0.04253 0.43384314 0.2770176
000310 1e 78 a2 3e ae 13 a0 3e 96 e9 8f 3e 80 7c cc 3e
       0.31732267 0.31265014 0.281079 0.39938736
000320 92 d4 82 3e ae f8 64 3f ae bd e0 3e 7e f8 2f 3f
       0.25552803 0.89441955 0.43894714 0.68738544
000330 59 2a 65 3f f3 bd 7a 3f 34 ff 5b 3f ae 53 c9 3e
       0.8951774 0.9794609 0.85936284 0.39321655
000340 f2 c6 e5 3e 5c 7b c1 3e fe 28 68 3f c4 b6 87 3e
       0.44878346 0.37789428 0.9068755 0.26506627
000350 10 f5 5c 3e 70 52 31 3d 8a 2f a8 3e 26 cf 5b 3f
       0.21577859 0.04329151 0.3284877 0.8586296
000360 04 35 7e 3e c6 d2 01 3f 88 48 48 3f eb 18 51 3f
       0.24824911 0.5071224 0.78235674 0.81678647
000370 e2 70 e9 3e ea e2 7c 3f e0 8b 36 3f 70 2e 61 3e
       0.45593935 0.98783743 0.7130718 0.21990371
000380 e0 fb e3 3e 3a f8 1d 3f bc 57 5d 3f 48 b2 e4 3e
       0.44528103 0.6170689 0.86462 0.44667268
000390 23 62 76 3f 29 e0 07 3f 14 10 4b 3f 6a 7a e9 3e
       0.96243495 0.53076416 0.7932141 0.45601207
0003a0 24 fc f7 3e 3c 22 0b 3f 45 de 36 3f 38 c5 0a 3e
       0.48434556 0.5434911 0.71432906 0.13551795
0003b0 1c ec 0e 3e 4a 42 f8 3e 7c f2 98 3e 5c c7 04 3e
       0.13957256 0.48488075 0.298725 0.12966675
0003c0 3a 73 83 3e e2 a7 b1 3e 98 d9 4c 3e ae db 0c 3f
       0.25673848 0.34698397 0.2000488 0.55022705
0003d0 b8 54 54 3e 32 10 80 3e dd 0e 21 3f 62 f3 92 3e
       0.20735443 0.25012356 0.62913305 0.2870131
0003e0 30 a5 31 3e 98 81 e7 3d 17 72 7a 3f 54 26 16 3e
       0.1734817 0.11304015 0.9783034 0.14663059
0003f0 93 cd 1c 3f 8c 52 11 3e 38 ba 50 3f 9f 8a 06 3f
       0.6125118 0.14191645 0.8153415 0.5255527

bn1.bias f4 [512]
000000 00 00 00 00 00 00 00 00 00 00 00 00 00 00 00 00
       0.0 0.0 0.0 0.0
000010 00 00 00 00 00 00 00 00 00 00 00 00 00 00 00 00
       0.0 0.0 0.0 0.0
000020 00 00 00 00 00 00 00 00 00 00 00 00 00 00 00 00
       0.0 0.0 0.0 0.0
000030 00 00 00 00 00 00 00 00 00 00 00 00 00 00 00 00
       0.0 0.0 0.0 0.0
000040 00 00 00 00 00 00 00 00 00 00 00 00 00 00 00 00
       0.0 0.0 0.0 0.0
000050 00 00 00 00 00 00 00 00 00 00 00 00 00 00 00 00
       0.0 0.0 0.0 0.0
000060 00 00 00 00 00 00 00 00 00 00 00 00 00 00 00 00
       0.0 0.0 0.0 0.0
000070 00 00 00 00 00 00 00 00 00 00 00 00 00 00 00 00
       0.0 0.0 0.0 0.0
000080 00 00 00 00 00 00 00 00 00 00 00 00 00 00 00 00
       0.0 0.0 0.0 0.0
000090 00 00 00 00 00 00 00 00 00 00 00 00 00 00 00 00
       0.0 0.0 0.0 0.0
0000a0 00 00 00 00 00 00 00 00 00 00 00 00 00 00 00 00
       0.0 0.0 0.0 0.0
0000b0 00 00 00 00 00 00 00 00 00 00 00 00 00 00 00 00
       0.0 0.0 0.0 0.0
0000c0 00 00 00 00 00 00 00 00 00 00 00 00 00 00 00 00
       0.0 0.0 0.0 0.0
0000d0 00 00 00 00 00 00 00 00 00 00 00 00 00 00 00 00
       0.0 0.0 0.0 0.0
0000e0 00 00 00 00 00 00 00 00 00 00 00 00 00 00 00 00
       0.0 0.0 0.0 0.0
0000f0 00 00 00 00 00 00 00 00 00 00 00 00 00 00 00 00
       0.0 0.0 0.0 0.0
000100 00 00 00 00 00 00 00 00 00 00 00 00 00 00 00 00
       0.0 0.0 0.0 0.0
000110 00 00 00 00 00 00 00 00 00 00 00 00 00 00 00 00
       0.0 0.0 0.0 0.0
000120 00 00 00 00 00 00 00 00 00 00 00 00 00 00 00 00
       0.0 0.0 0.0 0.0
000130 00 00 00 00 00 00 00 00 00 00 00 00 00 00 00 00
       0.0 0.0 0.0 0.0
000140 00 00 00 00 00 00 00 00 00 00 00 00 00 00 00 00
       0.0 0.0 0.0 0.0
000150 00 00 00 00 00 00 00 00 00 00 00 00 00 00 00 00
       0.0 0.0 0.0 0.0
000160 00 00 00 00 00 00 00 00 00 00 00 00 00 00 00 00
       0.0 0.0 0.0 0.0
000170 00 00 00 00 00 00 00 00 00 00 00 00 00 00 00 00
       0.0 0.0 0.0 0.0
000180 00 00 00 00 00 00 00 00 00 00 00 00 00 00 00 00
       0.0 0.0 0.0 0.0
000190 00 00 00 00 00 00 00 00 00 00 00 00 00 00 00 00
       0.0 0.0 0.0 0.0
0001a0 00 00 00 00 00 00 00 00 00 00 00 00 00 00 00 00
       0.0 0.0 0.0 0.0
0001b0 00 00 00 00 00 00 00 00 00 00 00 00 00 00 00 00
       0.0 0.0 0.0 0.0
0001c0 00 00 00 00 00 00 00 00 00 00 00 00 00 00 00 00
       0.0 0.0 0.0 0.0
0001d0 00 00 00 00 00 00 00 00 00 00 00 00 00 00 00 00
       0.0 0.0 0.0 0.0
0001e0 00 00 00 00 00 00 00 00 00 00 00 00 00 00 00 00
       0.0 0.0 0.0 0.0
0001f0 00 00 00 00 00 00 00 00 00 00 00 00 00 00 00 00
       0.0 0.0 0.0 0.0
000200 00 00 00 00 00 00 00 00 00 00 00 00 00 00 00 00
       0.0 0.0 0.0 0.0
000210 00 00 00 00 00 00 00 00 00 00 00 00 00 00 00 00
       0.0 0.0 0.0 0.0
000220 00 00 00 00 00 00 00 00 00 00 00 00 00 00 00 00
       0.0 0.0 0.0 0.0
000230 00 00 00 00 00 00 00 00 00 00 00 00 00 00 00 00
       0.0 0.0 0.0 0.0
000240 00 00 00 00 00 00 00 00 00 00 00 00 00 00 00 00
       0.0 0.0 0.0 0.0
000250 00 00 00 00 00 00 00 00 00 00 00 00 00 00 00 00
       0.0 0.0 0.0 0.0
000260 00 00 00 00 00 00 00 00 00 00 00 00 00 00 00 00
       0.0 0.0 0.0 0.0
000270 00 00 00 00 00 00 00 00 00 00 00 00 00 00 00 00
       0.0 0.0 0.0 0.0
000280 00 00 00 00 00 00 00 00 00 00 00 00 00 00 00 00
       0.0 0.0 0.0 0.0
000290 00 00 00 00 00 00 00 00 00 00 00 00 00 00 00 00
       0.0 0.0 0.0 0.0
0002a0 00 00 00 00 00 00 00 00 00 00 00 00 00 00 00 00
       0.0 0.0 0.0 0.0
0002b0 00 00 00 00 00 00 00 00 00 00 00 00 00 00 00 00
       0.0 0.0 0.0 0.0
0002c0 00 00 00 00 00 00 00 00 00 00 00 00 00 00 00 00
       0.0 0.0 0.0 0.0
0002d0 00 00 00 00 00 00 00 00 00 00 00 00 00 00 00 00
       0.0 0.0 0.0 0.0
0002e0 00 00 00 00 00 00 00 00 00 00 00 00 00 00 00 00
       0.0 0.0 0.0 0.0
0002f0 00 00 00 00 00 00 00 00 00 00 00 00 00 00 00 00
       0.0 0.0 0.0 0.0
000300 00 00 00 00 00 00 00 00 00 00 00 00 00 00 00 00
       0.0 0.0 0.0 0.0
000310 00 00 00 00 00 00 00 00 00 00 00 00 00 00 00 00
       0.0 0.0 0.0 0.0
000320 00 00 00 00 00 00 00 00 00 00 00 00 00 00 00 00
       0.0 0.0 0.0 0.0
000330 00 00 00 00 00 00 00 00 00 00 00 00 00 00 00 00
       0.0 0.0 0.0 0.0
000340 00 00 00 00 00 00 00 00 00 00 00 00 00 00 00 00
       0.0 0.0 0.0 0.0
000350 00 00 00 00 00 00 00 00 00 00 00 00 00 00 00 00
       0.0 0.0 0.0 0.0
000360 00 00 00 00 00 00 00 00 00 00 00 00 00 00 00 00
       0.0 0.0 0.0 0.0
000370 00 00 00 00 00 00 00 00 00 00 00 00 00 00 00 00
       0.0 0.0 0.0 0.0
000380 00 00 00 00 00 00 00 00 00 00 00 00 00 00 00 00
       0.0 0.0 0.0 0.0
000390 00 00 00 00 00 00 00 00 00 00 00 00 00 00 00 00
       0.0 0.0 0.0 0.0
0003a0 00 00 00 00 00 00 00 00 00 00 00 00 00 00 00 00
       0.0 0.0 0.0 0.0
0003b0 00 00 00 00 00 00 00 00 00 00 00 00 00 00 00 00
       0.0 0.0 0.0 0.0
0003c0 00 00 00 00 00 00 00 00 00 00 00 00 00 00 00 00
       0.0 0.0 0.0 0.0
0003d0 00 00 00 00 00 00 00 00 00 00 00 00 00 00 00 00
       0.0 0.0 0.0 0.0
0003e0 00 00 00 00 00 00 00 00 00 00 00 00 00 00 00 00
       0.0 0.0 0.0 0.0
0003f0 00 00 00 00 00 00 00 00 00 00 00 00 00 00 00 00
       0.0 0.0 0.0 0.0

bn1.running_mean f4 [512]
000000 00 00 00 00 00 00 00 00 00 00 00 00 00 00 00 00
       0.0 0.0 0.0 0.0
000010 00 00 00 00 00 00 00 00 00 00 00 00 00 00 00 00
       0.0 0.0 0.0 0.0
000020 00 00 00 00 00 00 00 00 00 00 00 00 00 00 00 00
       0.0 0.0 0.0 0.0
000030 00 00 00 00 00 00 00 00 00 00 00 00 00 00 00 00
       0.0 0.0 0.0 0.0
000040 00 00 00 00 00 00 00 00 00 00 00 00 00 00 00 00
       0.0 0.0 0.0 0.0
000050 00 00 00 00 00 00 00 00 00 00 00 00 00 00 00 00
       0.0 0.0 0.0 0.0
000060 00 00 00 00 00 00 00 00 00 00 00 00 00 00 00 00
       0.0 0.0 0.0 0.0
000070 00 00 00 00 00 00 00 00 00 00 00 00 00 00 00 00
       0.0 0.0 0.0 0.0
000080 00 00 00 00 00 00 00 00 00 00 00 00 00 00 00 00
       0.0 0.0 0.0 0.0
000090 00 00 00 00 00 00 00 00 00 00 00 00 00 00 00 00
       0.0 0.0 0.0 0.0
0000a0 00 00 00 00 00 00 00 00 00 00 00 00 00 00 00 00
       0.0 0.0 0.0 0.0
0000b0 00 00 00 00 00 00 00 00 00 00 00 00 00 00 00 00
       0.0 0.0 0.0 0.0
0000c0 00 00 00 00 00 00 00 00 00 00 00 00 00 00 00 00
       0.0 0.0 0.0 0.0
0000d0 00 00 00 00 00 00 00 00 00 00 00 00 00 00 00 00
       0.0 0.0 0.0 0.0
0000e0 00 00 00 00 00 00 00 00 00 00 00 00 00 00 00 00
       0.0 0.0 0.0 0.0
0000f0 00 00 00 00 00 00 00 00 00 00 00 00 00 00 00 00
       0.0 0.0 0.0 0.0
000100 00 00 00 00 00 00 00 00 00 00 00 00 00 00 00 00
       0.0 0.0 0.0 0.0
000110 00 00 00 00 00 00 00 00 00 00 00 00 00 00 00 00
       0.0 0.0 0.0 0.0
000120 00 00 00 00 00 00 00 00 00 00 00 00 00 00 00 00
       0.0 0.0 0.0 0.0
000130 00 00 00 00 00 00 00 00 00 00 00 00 00 00 00 00
       0.0 0.0 0.0 0.0
000140 00 00 00 00 00 00 00 00 00 00 00 00 00 00 00 00
       0.0 0.0 0.0 0.0
000150 00 00 00 00 00 00 00 00 00 00 00 00 00 00 00 00
       0.0 0.0 0.0 0.0
000160 00 00 00 00 00 00 00 00 00 00 00 00 00 00 00 00
       0.0 0.0 0.0 0.0
000170 00 00 00 00 00 00 00 00 00 00 00 00 00 00 00 00
       0.0 0.0 0.0 0.0
000180 00 00 00 00 00 00 00 00 00 00 00 00 00 00 00 00
       0.0 0.0 0.0 0.0
000190 00 00 00 00 00 00 00 00 00 00 00 00 00 00 00 00
       0.0 0.0 0.0 0.0
0001a0 00 00 00 00 00 00 00 00 00 00 00 00 00 00 00 00
       0.0 0.0 0.0 0.0
0001b0 00 00 00 00 00 00 00 00 00 00 00 00 00 00 00 00
       0.0 0.0 0.0 0.0
0001c0 00 00 00 00 00 00 00 00 00 00 00 00 00 00 00 00
       0.0 0.0 0.0 0.0
0001d0 00 00 00 00 00 00 00 00 00 00 00 00 00 00 00 00
       0.0 0.0 0.0 0.0
0001e0 00 00 00 00 00 00 00 00 00 00 00 00 00 00 00 00
       0.0 0.0 0.0 0.0
0001f0 00 00 00 00 00 00 00 00 00 00 00 00 00 00 00 00
       0.0 0.0 0.0 0.0
000200 00 00 00 00 00 00 00 00 00 00 00 00 00 00 00 00
       0.0 0.0 0.0 0.0
000210 00 00 00 00 00 00 00 00 00 00 00 00 00 00 00 00
       0.0 0.0 0.0 0.0
000220 00 00 00 00 00 00 00 00 00 00 00 00 00 00 00 00
       0.0 0.0 0.0 0.0
000230 00 00 00 00 00 00 00 00 00 00 00 00 00 00 00 00
       0.0 0.0 0.0 0.0
000240 00 00 00 00 00 00 00 00 00 00 00 00 00 00 00 00
       0.0 0.0 0.0 0.0
000250 00 00 00 00 00 00 00 00 00 00 00 00 00 00 00 00
       0.0 0.0 0.0 0.0
000260 00 00 00 00 00 00 00 00 00 00 00 00 00 00 00 00
       0.0 0.0 0.0 0.0
000270 00 00 00 00 00 00 00 00 00 00 00 00 00 00 00 00
       0.0 0.0 0.0 0.0
000280 00 00 00 00 00 00 00 00 00 00 00 00 00 00 00 00
       0.0 0.0 0.0 0.0
000290 00 00 00 00 00 00 00 00 00 00 00 00 00 00 00 00
       0.0 0.0 0.0 0.0
0002a0 00 00 00 00 00 00 00 00 00 00 00 00 00 00 00 00
       0.0 0.0 0.0 0.0
0002b0 00 00 00 00 00 00 00 00 00 00 00 00 00 00 00 00
       0.0 0.0 0.0 0.0
0002c0 00 00 00 00 00 00 00 00 00 00 00 00 00 00 00 00
       0.0 0.0 0.0 0.0
0002d0 00 00 00 00 00 00 00 00 00 00 00 00 00 00 00 00
       0.0 0.0 0.0 0.0
0002e0 00 00 00 00 00 00 00 00 00 00 00 00 00 00 00 00
       0.0 0.0 0.0 0.0
0002f0 00 00 00 00 00 00 00 00 00 00 00 00 00 00 00 00
       0.0 0.0 0.0 0.0
000300 00 00 00 00 00 00 00 00 00 00 00 00 00 00 00 00
       0.0 0.0 0.0 0.0
000310 00 00 00 00 00 00 00 00 00 00 00 00 00 00 00 00
       0.0 0.0 0.0 0.0
000320 00 00 00 00 00 00 00 00 00 00 00 00 00 00 00 00
       0.0 0.0 0.0 0.0
000330 00 00 00 00 00 00 00 00 00 00 00 00 00 00 00 00
       0.0 0.0 0.0 0.0
000340 00 00 00 00 00 00 00 00 00 00 00 00 00 00 00 00
       0.0 0.0 0.0 0.0
000350 00 00 00 00 00 00 00 00 00 00 00 00 00 00 00 00
       0.0 0.0 0.0 0.0
000360 00 00 00 00 00 00 00 00 00 00 00 00 00 00 00 00
       0.0 0.0 0.0 0.0
000370 00 00 00 00 00 00 00 00 00 00 00 00 00 00 00 00
       0.0 0.0 0.0 0.0
000380 00 00 00 00 00 00 00 00 00 00 00 00 00 00 00 00
       0.0 0.0 0.0 0.0
000390 00 00 00 00 00 00 00 00 00 00 00 00 00 00 00 00
       0.0 0.0 0.0 0.0
0003a0 00 00 00 00 00 00 00 00 00 00 00 00 00 00 00 00
       0.0 0.0 0.0 0.0
0003b0 00 00 00 00 00 00 00 00 00 00 00 00 00 00 00 00
       0.0 0.0 0.0 0.0
0003c0 00 00 00 00 00 00 00 00 00 00 00 00 00 00 00 00
       0.0 0.0 0.0 0.0
0003d0 00 00 00 00 00 00 00 00 00 00 00 00 00 00 00 00
       0.0 0.0 0.0 0.0
0003e0 00 00 00 00 00 00 00 00 00 00 00 00 00 00 00 00
       0.0 0.0 0.0 0.0
0003f0 00 00 00 00 00 00 00 00 00 00 00 00 00 00 00 00
       0.0 0.0 0.0 0.0

bn1.running_var f4 [512]
000000 00 00 80 3f 00 00 80 3f 00 00 80 3f 00 00 80 3f
       1.0 1.0 1.0 1.0
000010 00 00 80 3f 00 00 80 3f 00 00 80 3f 00 00 80 3f
       1.0 1.0 1.0 1.0
000020 00 00 80 3f 00 00 80 3f 00 00 80 3f 00 00 80 3f
       1.0 1.0 1.0 1.0
000030 00 00 80 3f 00 00 80 3f 00 00 80 3f 00 00 80 3f
       1.0 1.0 1.0 1.0
000040 00 00 80 3f 00 00 80 3f 00 00 80 3f 00 00 80 3f
       1.0 1.0 1.0 1.0
000050 00 00 80 3f 00 00 80 3f 00 00 80 3f 00 00 80 3f
       1.0 1.0 1.0 1.0
000060 00 00 80 3f 00 00 80 3f 00 00 80 3f 00 00 80 3f
       1.0 1.0 1.0 1.0
000070 00 00 80 3f 00 00 80 3f 00 00 80 3f 00 00 80 3f
       1.0 1.0 1.0 1.0
000080 00 00 80 3f 00 00 80 3f 00 00 80 3f 00 00 80 3f
       1.0 1.0 1.0 1.0
000090 00 00 80 3f 00 00 80 3f 00 00 80 3f 00 00 80 3f
       1.0 1.0 1.0 1.0
0000a0 00 00 80 3f 00 00 80 3f 00 00 80 3f 00 00 80 3f
       1.0 1.0 1.0 1.0
0000b0 00 00 80 3f 00 00 80 3f 00 00 80 3f 00 00 80 3f
       1.0 1.0 1.0 1.0
0000c0 00 00 80 3f 00 00 80 3f 00 00 80 3f 00 00 80 3f
       1.0 1.0 1.0 1.0
0000d0 00 00 80 3f 00 00 80 3f 00 00 80 3f 00 00 80 3f
       1.0 1.0 1.0 1.0
0000e0 00 00 80 3f 00 00 80 3f 00 00 80 3f 00 00 80 3f
       1.0 1.0 1.0 1.0
0000f0 00 00 80 3f 00 00 80 3f 00 00 80 3f 00 00 80 3f
       1.0 1.0 1.0 1.0
000100 00 00 80 3f 00 00 80 3f 00 00 80 3f 00 00 80 3f
       1.0 1.0 1.0 1.0
000110 00 00 80 3f 00 00 80 3f 00 00 80 3f 00 00 80 3f
       1.0 1.0 1.0 1.0
000120 00 00 80 3f 00 00 80 3f 00 00 80 3f 00 00 80 3f
       1.0 1.0 1.0 1.0
000130 00 00 80 3f 00 00 80 3f 00 00 80 3f 00 00 80 3f
       1.0 1.0 1.0 1.0
000140 00 00 80 3f 00 00 80 3f 00 00 80 3f 00 00 80 3f
       1.0 1.0 1.0 1.0
000150 00 00 80 3f 00 00 80 3f 00 00 80 3f 00 00 80 3f
       1.0 1.0 1.0 1.0
000160 00 00 80 3f 00 00 80 3f 00 00 80 3f 00 00 80 3f
       1.0 1.0 1.0 1.0
000170 00 00 80 3f 00 00 80 3f 00 00 80 3f 00 00 80 3f
       1.0 1.0 1.0 1.0
000180 00 00 80 3f 00 00 80 3f 00 00 80 3f 00 00 80 3f
       1.0 1.0 1.0 1.0
000190 00 00 80 3f 00 00 80 3f 00 00 80 3f 00 00 80 3f
       1.0 1.0 1.0 1.0
0001a0 00 00 80 3f 00 00 80 3f 00 00 80 3f 00 00 80 3f
       1.0 1.0 1.0 1.0
0001b0 00 00 80 3f 00 00 80 3f 00 00 80 3f 00 00 80 3f
       1.0 1.0 1.0 1.0
0001c0 00 00 80 3f 00 00 80 3f 00 00 80 3f 00 00 80 3f
       1.0 1.0 1.0 1.0
0001d0 00 00 80 3f 00 00 80 3f 00 00 80 3f 00 00 80 3f
       1.0 1.0 1.0 1.0
0001e0 00 00 80 3f 00 00 80 3f 00 00 80 3f 00 00 80 3f
       1.0 1.0 1.0 1.0
0001f0 00 00 80 3f 00 00 80 3f 00 00 80 3f 00 00 80 3f
       1.0 1.0 1.0 1.0
000200 00 00 80 3f 00 00 80 3f 00 00 80 3f 00 00 80 3f
       1.0 1.0 1.0 1.0
000210 00 00 80 3f 00 00 80 3f 00 00 80 3f 00 00 80 3f
       1.0 1.0 1.0 1.0
000220 00 00 80 3f 00 00 80 3f 00 00 80 3f 00 00 80 3f
       1.0 1.0 1.0 1.0
000230 00 00 80 3f 00 00 80 3f 00 00 80 3f 00 00 80 3f
       1.0 1.0 1.0 1.0
000240 00 00 80 3f 00 00 80 3f 00 00 80 3f 00 00 80 3f
       1.0 1.0 1.0 1.0
000250 00 00 80 3f 00 00 80 3f 00 00 80 3f 00 00 80 3f
       1.0 1.0 1.0 1.0
000260 00 00 80 3f 00 00 80 3f 00 00 80 3f 00 00 80 3f
       1.0 1.0 1.0 1.0
000270 00 00 80 3f 00 00 80 3f 00 00 80 3f 00 00 80 3f
       1.0 1.0 1.0 1.0
000280 00 00 80 3f 00 00 80 3f 00 00 80 3f 00 00 80 3f
       1.0 1.0 1.0 1.0
000290 00 00 80 3f 00 00 80 3f 00 00 80 3f 00 00 80 3f
       1.0 1.0 1.0 1.0
0002a0 00 00 80 3f 00 00 80 3f 00 00 80 3f 00 00 80 3f
       1.0 1.0 1.0 1.0
0002b0 00 00 80 3f 00 00 80 3f 00 00 80 3f 00 00 80 3f
       1.0 1.0 1.0 1.0
0002c0 00 00 80 3f 00 00 80 3f 00 00 80 3f 00 00 80 3f
       1.0 1.0 1.0 1.0
0002d0 00 00 80 3f 00 00 80 3f 00 00 80 3f 00 00 80 3f
       1.0 1.0 1.0 1.0
0002e0 00 00 80 3f 00 00 80 3f 00 00 80 3f 00 00 80 3f
       1.0 1.0 1.0 1.0
0002f0 00 00 80 3f 00 00 80 3f 00 00 80 3f 00 00 80 3f
       1.0 1.0 1.0 1.0
000300 00 00 80 3f 00 00 80 3f 00 00 80 3f 00 00 80 3f
       1.0 1.0 1.0 1.0
000310 00 00 80 3f 00 00 80 3f 00 00 80 3f 00 00 80 3f
       1.0 1.0 1.0 1.0
000320 00 00 80 3f 00 00 80 3f 00 00 80 3f 00 00 80 3f
       1.0 1.0 1.0 1.0
000330 00 00 80 3f 00 00 80 3f 00 00 80 3f 00 00 80 3f
       1.0 1.0 1.0 1.0
000340 00 00 80 3f 00 00 80 3f 00 00 80 3f 00 00 80 3f
       1.0 1.0 1.0 1.0
000350 00 00 80 3f 00 00 80 3f 00 00 80 3f 00 00 80 3f
       1.0 1.0 1.0 1.0
000360 00 00 80 3f 00 00 80 3f 00 00 80 3f 00 00 80 3f
       1.0 1.0 1.0 1.0
000370 00 00 80 3f 00 00 80 3f 00 00 80 3f 00 00 80 3f
       1.0 1.0 1.0 1.0
000380 00 00 80 3f 00 00 80 3f 00 00 80 3f 00 00 80 3f
       1.0 1.0 1.0 1.0
000390 00 00 80 3f 00 00 80 3f 00 00 80 3f 00 00 80 3f
       1.0 1.0 1.0 1.0
0003a0 00 00 80 3f 00 00 80 3f 00 00 80 3f 00 00 80 3f
       1.0 1.0 1.0 1.0
0003b0 00 00 80 3f 00 00 80 3f 00 00 80 3f 00 00 80 3f
       1.0 1.0 1.0 1.0
0003c0 00 00 80 3f 00 00 80 3f 00 00 80 3f 00 00 80 3f
       1.0 1.0 1.0 1.0
0003d0 00 00 80 3f 00 00 80 3f 00 00 80 3f 00 00 80 3f
       1.0 1.0 1.0 1.0
0003e0 00 00 80 3f 00 00 80 3f 00 00 80 3f 00 00 80 3f
       1.0 1.0 1.0 1.0
0003f0 00 00 80 3f 00 00 80 3f 00 00 80 3f 00 00 80 3f
       1.0 1.0 1.0 1.0

fc2.weight f4 [256, 514]
000000 ed 78 2a 3c 6e 56 01 3e 81 60 08 3d 1d 28 bf bd
       0.0104048075 0.12630627 0.03329516 -0.09333823
000010 44 8c a9 bc e5 d9 ae 3b ca d7 b0 3e 6d 2b ce be
       -0.020696767 0.0053360336 0.34539634 -0.40267506
000020 58 fb c2 3c 65 13 d2 3b b2 23 b8 be 56 26 95 bd
       0.02380149 0.0064110034 -0.35964733 -0.072827026
000030 9e 71 a1 bd 71 22 91 be 6b 7c 36 bc ff 6c c2 be
       -0.07882999 -0.2834659 -0.011138062 -0.37973782
000040 c5 79 5d be 40 94 fb 3c 5b 33 65 3d eb 50 19 3e
       -0.21628483 0.03071034 0.05595718 0.14972274
000050 8e 4a d4 3d 1f 14 b8 3d ed 00 e6 be 11 ef d1 bc
       0.10365783 0.08988213 -0.4492258 -0.025626691
000060 8b 43 27 be aa 32 f5 be 61 09 34 be 26 57 35 bd
       -0.1633436 -0.47890216 -0.17581703 -0.044272564
000070 e2 ee bd be bb d1 06 bf f3 97 9b 3d 4d 17 b6 3d
       -0.37096316 -0.52663773 0.075973414 0.08891163
000080 4d 24 38 be 98 a7 af be 3e 1a 13 bc a4 e9 d9 3d
       -0.17982598 -0.3430755 -0.008978425 0.106402665
000090 b5 09 d1 bd 42 7d 0a be c5 ba f8 3d df 22 48 3d
       -0.102069296 -0.13524345 0.121449985 0.04886138
0000a0 76 1e f2 be 26 b3 fc bc de fe e3 3c c1 b0 91 be
       -0.47288865 -0.030847143 0.027831491 -0.28455165
0000b0 92 d2 4a bd 88 19 41 3c 8b 39 af 3d 71 4a 5a 3e
       -0.04951722 0.011785872 0.08555897 0.2131746
0000c0 49 da 1c 3d b5 a2 1d bd 61 9e 74 3e 44 78 f4 bc
       0.03829411 -0.038485248 0.23888542 -0.029842503
0000d0 52 72 22 bd 56 bd 32 be 59 7e 36 3d 66 dd a8 bd
       -0.039659806 -0.17455038 0.04455409 -0.082453534
0000e0 32 e8 75 be 46 ce 89 bd 75 99 2a 3e a3 b4 55 be
       -0.24014357 -0.06728797 0.16660102 -0.20869689
0000f0 8e b3 ab 3d 0c d6 d4 be be 11 4a bd 9d 5d 4e bd
       0.08383857 -0.41569555 -0.049333327 -0.050382245
000100 25 9e 05 3d 6f 1f 97 be b0 0c a4 be bf b3 bd bc
       0.03262152 -0.2951617 -0.3204093 -0.023156999
000110 fe 57 d8 3c 8a 10 00 be 81 15 d9 3d 9d bb 5a 3e
       0.026409145 -0.12506309 0.10599805 0.21360631
000120 74 ab 36 be ef 1d b4 3d d8 ee 57 bd 70 1d 92 bd
       -0.17838842 0.08794772 -0.052718014 -0.07134521
000130 e1 0e 04 3e 2a 1c 82 3d aa a2 13 be 83 d1 a1 bd
       0.12896301 0.06353028 -0.1441752 -0.07901289
000140 44 82 cf bc 85 c5 0e 3c 67 c0 a8 bc 93 79 e4 3c
       -0.02533067 0.0087140845 -0.020599557 0.027890002
000150 08 f5 f4 3c c2 0d 43 bd d3 1a 30 3e e7 c1 8f bc
       0.029901996 -0.047620542 0.17197733 -0.017548515
000160 19 ce ea bc 80 40 29 bd 6b e1 90 be 7d 5f 96 bd
       -0.028662728 -0.041321278 -0.2829698 -0.07342432
000170 66 0a 54 3c 3e aa 4b be e3 d2 cf bd 16 d9 1f be
       0.012941932 -0.19889161 -0.10147645 -0.15610155
000180 52 78 24 3e 92 f3 05 be 68 79 bd be 9c ce 35 bd
       0.16061524 -0.13081196 -0.37006688 -0.04438649
000190 b7 86 e2 bd 46 f9 2e 3d d8 30 98 be 02 b4 ad bc
       -0.11060851 0.042718194 -0.29724765 -0.021203998
0001a0 bd 4c 2a 3e a4 2e db bd d7 b0 bc bb bd 43 38 be
       0.16630836 -0.10702255 -0.0057583856 -0.1799459
0001b0 5c b0 c8 3d a3 d3 2c 3e 1c c7 ed bd eb 8b 4c be
       0.09799263 0.16877608 -0.11610243 -0.1997525
0001c0 71 ed 1a 3d 3e 3b a9 be 0f 01 25 be 5e 3a 42 bf
       0.037824098 -0.3305301 -0.16113685 -0.7587031
0001d0 bc e7 7e bd 34 e0 e4 3d 91 8a 48 3d b1 ba d4 be
       -0.062232718 0.11175576 0.048960272 -0.41548684
0001e0 d0 0c d2 be b3 c5 e1 bc e3 b5 59 bd c2 06 44 3e
       -0.410254 -0.02756009 -0.053151976 0.19143203
0001f0 05 50 60 be 19 2e 50 3d 8f 0d 5d bd 8d 51 9b 3d
       -0.21905525 0.050825212 -0.05396801 0.07583914
000200 81 08 f6 bc c6 cc c9 bc b1 14 0b 3e 52 b3 4a be
       -0.030033352 -0.024633776 0.13582112 -0.19794968
000210 e1 d2 be be a3 b0 7e 3c 3a 08 14 3e 0e 9d e8 be
       -0.37270263 0.015545043 0.14456263 -0.45432323
000220 aa 97 b0 be 8d 39 17 bf 89 53 9f 3e 6c 11 14 3e
       -0.3449071 -0.5907219 0.3111842 0.14459771
000230 00 83 7c 3d b7 d5 a0 3d 92 68 be bd 48 21 35 bd
       0.06164837 0.07853263 -0.09297289 -0.044221193
000240 49 d9 c4 bd e8 52 d0 bd 04 38 aa 3d 6d 44 88 bd
       -0.09611756 -0.10172063 0.083114654 -0.06653676
000250 ce 59 a1 be c8 70 33 be 50 25 07 3e ed 57 31 3d
       -0.31513828 -0.17523491 0.13197827 0.043296743
000260 15 04 33 bd 74 02 ce 3c 20 32 0f 3d 79 cd a1 3c
       -0.043705065 0.025147654 0.034959912 0.019751297
000270 9d 2d f8 3d b5 33 a5 3d e8 d5 07 3e 15 b0 0a 3d
       0.12118075 0.08066503 0.13265193 0.03385933
000280 70 74 d3 bd f6 2e ce bc 11 3c 6c b9 34 d1 20 be
       -0.10324943 -0.025168877 -0.0002252909 -0.15704805
000290 20 1d 82 be d4 08 28 3e de 81 40 3e c3 59 3e be
       -0.25412846 0.16409618 0.1879954 -0.18588929
0002a0 4b 92 fe bd 65 8c be be a3 e7 cf 3d e0 9c 3c 3b
       -0.12430247 -0.37216488 0.10151603 0.0028780028
0002b0 37 e9 cc be ca db df 3d f6 c8 3e be 40 39 94 3d
       -0.4002168 0.10930593 -0.18631348 0.07237482
0002c0 05 24 bb bc f0 4b a3 bc 6a 61 15 3d 1d 51 5c be
       -0.022844324 -0.01993367 0.036469854 -0.21515317
0002d0 d7 15 0b bf cf d2 1d 3d 40 80 a4 be 61 d3 2c 3c
       -0.543302 0.03853112 -0.32129097 0.0105484435
0002e0 dc 39 9d be b3 01 95 3d 5e 1e ad bb 98 98 05 3e
       -0.30708206 0.07275715 -0.005283161 0.13046491
0002f0 f2 3d 94 bd 6e e9 ba be c3 16 ce be 6f 2b 86 be
       -0.07238378 -0.36506218 -0.4025174 -0.26205012
000300 5f 61 4b 3d d2 50 7b 3d 67 c7 5a bb 30 0c 87 3d
       0.049653407 0.061356373 -0.0033383013 0.065941215
000310 5e 9e 81 be 36 0d 90 3c ce 0c 50 3b d5 2b 29 3d
       -0.25316137 0.017584424 0.0031745913 0.041301567
000320 98 21 10 be 01 a1 0a 3e b2 e0 a3 be cf 1b fc be
       -0.14075315 0.1353798 -0.32007366 -0.49239966
000330 71 d5 b9 bd 61 a5 f7 3d fe 73 f9 3d 1a 12 a4 ba
       -0.09073914 0.120920904 0.12180327 -0.0012517602
000340 98 a6 84 bc 8c 50 27 3e 0a ad 84 bd 3d 06 ce bd
       -0.01619272 0.1633932 -0.06478317 -0.100597836
000350 19 c5 1b 3e 85 66 65 be 3c a2 72 be 7a b7 df 3d
       0.15211906 -0.2240239 -0.236947 0.10923667
000360 1d 47 8b bd f9 9b 23 3c 43 f6 24 3e bc 0a 91 bd
       -0.06800673 0.009985917 0.16109566 -0.070821255
000370 c8 5b 9c be 62 31 d0 3c bd fb 3b be 2b f8 8b be
       -0.30538774 0.025414173 -0.1835775 -0.27337775
000380 f6 e7 83 be cb 07 9a be 57 b3 5e be 6e f0 72 bc
       -0.2576291 -0.3008407 -0.217481 -0.014827831
000390 a5 a1 dc bd e3 c2 78 3d 03 9d d9 be 47 0d ae bd
       -0.10773019 0.060732733 -0.42502603 -0.08498626
0003a0 f0 1e 9c bd 45 77 17 3d 47 8c 15 be 5b 4a 4c be
       -0.07623088 0.03697898 -0.14604293 -0.1995024
0003b0 63 39 d1 bd 69 27 04 be f9 81 f3 3d 19 23 28 bd
       -0.10216024 -0.12905659 0.11890025 -0.041049097
0003c0 b9 4b 14 3e 0c d8 6f bd ef 76 31 bd 6f 79 4c 3b
       0.14482011 -0.058555648 -0.043326315 0.003120031
0003d0 a6 84 3d 3d 87 d6 68 3d 4a d5 48 be ad 16 8a be
       0.04626908 0.056845214 -0.19612613 -0.26970425
0003e0 0f 84 49 3c 3b 5d 9d bd fc 19 1d 3d a6 85 ed 3d
       0.012299552 -0.07683798 0.03835486 0.11597757
0003f0 07 5c 3d 3a 4d 23 08 3b ee a1 10 bd 73 ad 85 3d
       0.0007223491 0.0020772994 -0.03531068 0.065272234
