copy_param_ref/checkpoint_actorA_min.pth (torch_old, 594250 bytes, 18 tensors)

bn0.weight f4 [24]
0	0x3f1722d8	0.5903754
1	0x3f08ead2	0.5348331
2	0x3f1e37a6	0.6180366
3	0x3f0e9f19	0.55711514
4	0x3f6c1788	0.92223406
5	0x3f4e7ab6	0.8065599
6	0x3ee02cb9	0.4378412
7	0x3e33b8d0	0.17550969
8	0x3f1d1ffa	0.6137692
9	0x3e451458	0.19246042
10	0x3f1ff87d	0.6248854
11	0x3ef99726	0.4874813
12	0x3f0d1bdd	0.5512064
13	0x3f7b257d	0.9810408
14	0x3f170e2a	0.5900599
15	0x3f283675	0.65708095
16	0x3f49a965	0.787741
17	0x3eb01167	0.34388277
18	0x3ed0e69a	0.40800935
19	0x3f81d7ce	1.0143983
20	0x3eb79655	0.35856882
21	0x3f21849e	0.6309298
22	0x3f0d762e	0.5525845
23	0x3f5baa12	0.8580638

bn0.bias f4 [24]
0	0xbd8ff312	-0.07028784
1	0x3bf5d04c	0.0075016376
2	0xbd5327cd	-0.05155163
3	0x3d127203	0.03575326
4	0x3d80ddbe	0.06292294
5	0x3d202421	0.039096955
6	0xbd5c545a	-0.05379138
7	0x3c6526bd	0.013986287
8	0xbd0b0a94	-0.033945635
9	0x3cf17766	0.029475879
10	0x3d87baab	0.06627401
11	0xbc613797	-0.013746164
12	0x3d6e871f	0.05823433
13	0xbbf3e96f	-0.007443599
14	0x3d72c4ff	0.0592699
15	0x3c0eb87c	0.008710977
16	0x3ab85c22	0.0014065544
17	0x3d091b0e	0.033473067
18	0x3d18e19c	0.037324533
19	0xbd6baa0d	-0.05753522
20	0x3cde7d40	0.027159333
21	0xbc7ee89a	-0.015558386
22	0x3cfd52db	0.030923298
23	0xbd2b6d74	-0.04185243

bn0.running_mean f4 [24]
0	0xc1122e59	-9.136315
1	0xbf51a259	-0.8188835
2	0x3f55f2b5	0.83573467
3	0xbe2d0dec	-0.16899842
4	0xbc97a71b	-0.0185123
5	0x4021d8cf	2.528858
6	0x3f55f2b5	0.83573467
7	0xbe2d0dec	-0.16899842
8	0xc113784c	-9.216869
9	0xbf551bbf	-0.8324546
10	0x3f0cda8a	0.55020964
11	0xbe34fdd6	-0.17674956
12	0xbcbdb910	-0.023159534
13	0x402112a6	2.5167632
14	0x3f0cda8a	0.55020964
15	0xbe34fdd6	-0.17674956
16	0xc11479d2	-9.279741
17	0xbf5922ba	-0.84818614
18	0x3f6546a2	0.895609
19	0xbe52f25a	-0.20600262
20	0xbcbf20a0	-0.023330986
21	0x401ef009	2.4834006
22	0x3f6546a2	0.895609
23	0xbe52f25a	-0.20600262

bn0.running_var f4 [24]
0	0x40d05707	6.5106235
1	0x3f9013e8	1.1256075
2	0x434741b8	199.25671
3	0x4128756a	10.528666
4	0x41e916c3	29.136114
5	0x405059d6	3.2554832
6	0x434741b8	199.25671
7	0x4128756a	10.528666
8	0x40b99dea	5.8005266
9	0x3f90b7eb	1.1306127
10	0x434c867a	204.5253
11	0x412aa11c	10.664333
12	0x41eba540	29.455688
13	0x4054ba3e	3.3238673
14	0x434c867a	204.5253
15	0x412aa11c	10.664333
16	0x40a6ef25	5.2166924
17	0x3f9227eb	1.1418432
18	0x434f1111	207.06667
19	0x412aa653	10.6656065
20	0x41eee1cb	29.86025
21	0x40613b78	3.5192547
22	0x434f1111	207.06667
23	0x412aa653	10.6656065

fc1.weight f4 [512, 24]
0	0x3da4c507	0.080453925
1	0xbd6ed6e3	-0.0583104
2	0x3e2bbd94	0.16771537
3	0xbda76704	-0.081739455
4	0x3d5ee1b7	0.054414477
5	0xbcb963a2	-0.022630516
6	0x3e5b642a	0.21424928
7	0xbd928f08	-0.07156187
8	0x3ce99959	0.028515505
9	0xba49f4b5	-0.00077040057
10	0x3d53bc77	0.051693406
11	0xbcf9f2ae	-0.030511227
12	0xbb66e3c9	-0.0035230985
13	0x3d3aaaf9	0.04557321
14	0x3d52dc00	0.05147934
15	0xbcef6c36	-0.029226404
16	0xbd23c75c	-0.039985046
17	0xbacf120a	-0.0015798223
18	0xbdb0d4d5	-0.086343445
19	0x3d6815ad	0.056661297
20	0xbda38b3a	-0.0798554
21	0x3d921f6a	0.07134898
22	0xbdb40776	-0.087904856
23	0x3b36655e	0.0027831416
24	0x3d8c89c8	0.06862217
25	0x3c3e51ed	0.011616212
26	0x3d0baf1a	0.034102537
27	0x3d7de035	0.0619814
28	0x3e5817b2	0.21102789
29	0xbc64e49c	-0.01397052
30	0x3d95c0d4	0.0731217
31	0x3bbb78a3	0.005721168
32	0x3d517fc9	0.051147256
33	0xbd792450	-0.060825646
34	0x3c5155c6	0.012776798
35	0x3d15f91c	0.036614522
36	0x3c151918	0.009100221
37	0x3c861082	0.016365293
38	0xbc49c5f1	-0.012315259
39	0x3c1ee81c	0.009698894
40	0x3da552d8	0.08072442
41	0xbdc9f268	-0.098606884
42	0x3d95521c	0.07291052
43	0x3c8ae6e5	0.016955802
44	0xbe0880fe	-0.13330457
45	0x3d96ae55	0.0735747
46	0x3d5262c2	0.051363714
47	0x3d1e28ca	0.03861312
48	0x3cd8f855	0.026485601
49	0x3d4349ca	0.047677793
50	0x3c04512e	0.008075995
51	0xbd248361	-0.040164355
52	0x3d40a7a1	0.047034863
53	0xbe14f297	-0.14545666
54	0x3b3b556b	0.0028584849
55	0xbda248f8	-0.07924074
56	0xbd1d00c9	-0.038330827
57	0x3c4af6e2	0.012387963
58	0x3c8b3d7e	0.016997095
59	0x3d0e5783	0.034751426
60	0xbc8e89f5	-0.017399767
61	0x3d11bf64	0.035582915
62	0xbd02ea2e	-0.031961612
63	0x3b8dbcc3	0.0043254807
64	0xbd13756e	-0.03600066
65	0xbd0db405	-0.034595508
66	0x3d2c09a6	0.04200139
67	0xbdd87688	-0.10569483
68	0xbe03f774	-0.12887365
69	0x3e1601d1	0.1464913
70	0x3b036656	0.002005001
71	0xbe072be0	-0.1320033
72	0xbb64e579	-0.0034926815
73	0xbc247980	-0.0100387335
74	0x3bbc25c9	0.005741809
75	0xbd68a215	-0.0567952
76	0x3d504361	0.050845508
77	0xbba4e812	-0.0050325477
78	0xbd584d65	-0.052808184
79	0xbd7d4722	-0.061835416
80	0x3d3e8b71	0.0465197
81	0xbd82ce80	-0.06387043
82	0x3c4a518a	0.012348542
83	0xbc1d4345	-0.009598558
84	0xbdd2b373	-0.102881335
85	0x3dbe2ac3	0.092855
86	0x3c6ecb11	0.014574782
87	0xbd0f3a31	-0.034967605
88	0x3bfec05f	0.0077743973
89	0xbdba129a	-0.09085579
90	0xbd221dfc	-0.039579377
91	0x3d2b94a5	0.041889805
92	0xbe425f61	-0.18981697
93	0x3d33e26c	0.043917105
94	0xbc991c3d	-0.018690223
95	0xbbaf406f	-0.0053482573
96	0x3ca2543c	0.019815557
97	0x3c60fb24	0.013731752
98	0x3d603097	0.05473384
99	0xbc1fc832	-0.00975232
100	0x3de852fb	0.11343952
101	0xbdd84e3d	-0.10561798
102	0x3d8c9eae	0.06866203
103	0x38ff05a6	0.000121604
104	0x3d61f9a7	0.055169728
105	0xbc802119	-0.015640782
106	0x3b6a2cd7	0.0035732293
107	0x3aa4e712	0.0012581071
108	0xbcdce9da	-0.026966978
109	0x3cc69cd2	0.0242447
110	0x3cf8e4b5	0.030382494
111	0x3bb1370c	0.0054081734
112	0x3d3b2a0b	0.045694392
113	0xbd08ec40	-0.03342843
114	0x3d6d99b0	0.058007896
115	0x3c573cbe	0.013137041
116	0xbe1a5a58	-0.15073526
117	0x3d64f18e	0.055894427
118	0x3d90a0fd	0.07061956
119	0x3c950e01	0.018195154
120	0x3c5acc56	0.013354382
121	0x3ba44e91	0.0050142487
122	0xbbc8d4c6	-0.00612888
123	0xbcbc49e0	-0.022984445
124	0x3d827aef	0.06371104
125	0xbda57e2e	-0.080807075
126	0x3baa035d	0.005188389
127	0xbd296b42	-0.041362055
128	0x3c85e064	0.01634235
129	0x3c79853d	0.01522952
130	0xbdeec918	-0.11659449
131	0x3c5151d4	0.012775857
132	0xbc32da0d	-0.010916245
133	0xbd9f0140	-0.0776391
134	0xbd879691	-0.06620515
135	0xbd878607	-0.066173606
136	0xbcb30e12	-0.021857295
137	0xbd22e163	-0.039765727
138	0x3c8cafee	0.017173734
139	0xbc8ffd83	-0.017576938
140	0xbc83a2cb	-0.016068837
141	0x3cbf25fe	0.023333546
142	0xbd50af9f	-0.050948735
143	0xbd98c713	-0.074598454
144	0xbc96b991	-0.018399032
145	0xbd04ce6a	-0.032423414
146	0xbb464d65	-0.0030258533
147	0x3cec5935	0.028851131
148	0xbcc93483	-0.024561172
149	0x3c641cf9	0.013922923
150	0xbb58c82e	-0.00330783
151	0x3c56e2da	0.013115609
152	0xbca69ac9	-0.02033748
153	0xbd2848fb	-0.041085225
154	0x3cfc65ee	0.030810323
155	0xbbd5e784	-0.006527843
156	0x3d0ae11c	0.033906087
157	0xbbb1d7e2	-0.0054273466
158	0xbac2efab	-0.0014872452
159	0xbc876d78	-0.016531691
160	0xbc83ac71	-0.016073437
161	0x3d12a47a	0.03580139
162	0x3ce9b6e7	0.028529597
163	0xbd11bf12	-0.03558261
164	0xbcc6dcd1	-0.024275215
165	0xbcfdf6da	-0.031001497
166	0x3d0237cc	0.031791493
167	0x3d0bd67e	0.034140103
168	0x3cafb4f9	0.0214486
169	0x3daa6c28	0.083214104
170	0x3c9d567c	0.019206278
171	0x3ca6079a	0.020267297
172	0x3d106591	0.03525311
173	0xbc9bb5fb	-0.019007673
174	0x3d17d942	0.037072428
175	0xbcec1809	-0.028820055
176	0x3b106b36	0.002203656
177	0x3dab0365	0.08350257
178	0x3d364ad2	0.044504948
179	0x3d177609	0.0369778
180	0x3d344726	0.044013165
181	0xbdf9396a	-0.12169154
182	0x3ccfadbc	0.025351398
183	0x3d382742	0.044959314
184	0x3be27d41	0.006911904
185	0x3e207f2b	0.1567351
186	0xbd1ab57c	-0.037770733
187	0xbc649e0f	-0.0139537
188	0x3e0d2467	0.13783418
189	0xbe0eedc3	-0.13957886
190	0xbd4d26f2	-0.05008597
191	0x3c20c478	0.009812467
192	0xbc6a53da	-0.014302218
193	0x3b0bfde8	0.0021361057
194	0xbd63e3cf	-0.055637177
195	0xbd07135c	-0.032977447
196	0xbc842a63	-0.016133493
197	0xbb31351d	-0.0027039715
198	0x3b55cb23	0.00326223
199	0xbd8588be	-0.06520222
200	0xbca8986b	-0.020580491
201	0xbc14600a	-0.009056101
202	0xbd818c81	-0.06325627
203	0xbd90398e	-0.07042228
204	0x3dda51a7	0.10660105
205	0xbc934317	-0.017976327
206	0xbd0d8663	-0.03455199
207	0xbdcaf6ac	-0.0991033
208	0xbc55ab7e	-0.013041375
209	0x3c7ca899	0.015421056
210	0xbdb22546	-0.086985156
211	0xbd8089fe	-0.0627632
212	0x3e32191b	0.1739239
213	0x3d3f9ed0	0.046782315
214	0xbd8cbc9a	-0.068719104
215	0xbd7d20e4	-0.061798945
216	0x3d3e0cfd	0.046399105
217	0x3d484d52	0.048901863
218	0xbcdab8ec	-0.026699506
219	0xbde745e4	-0.112926275
220	0xbd249436	-0.040180407
221	0xbd58a677	-0.05289313
222	0xbcab7484	-0.020929582
223	0xbdaca1fd	-0.08429334
224	0x3db84fe3	0.08999612
225	0x3d90f69b	0.07078286
226	0xbc9342fa	-0.017976273
227	0xbc383c90	-0.011244908
228	0x3dbc69d9	0.09199876
229	0xbdf30a66	-0.11867218
230	0x3cda2a6d	0.026631558
231	0xbca9baf3	-0.020719027
232	0x3cbeacf4	0.02327583
233	0x3d1682e7	0.036745932
234	0xbc0f9eb0	-0.008765861
235	0x3c8ff6a4	0.017573662
236	0x3e57ae4e	0.21062586
237	0xbd9319e0	-0.0718267
238	0xbcba1921	-0.02271706
239	0x3d22d58d	0.03975444
240	0x3d63829a	0.055544473
241	0x3e06f464	0.13179165
242	0x3d13c81d	0.036079515
243	0xbcde17ab	-0.027110895
244	0xbe024777	-0.12722574
245	0xbbc2e6c1	-0.005947918
246	0x3c7aa1cd	0.015297365
247	0x3d3f08f1	0.046639387
248	0x3d31d6d8	0.04341778
249	0x3c1e9222	0.009678395
250	0x3c09ae2b	0.008403341
251	0xbc8b53fd	-0.017007822
252	0xbd9f45c4	-0.077769786
253	0xbaa5d82d	-0.0012652926
254	0x3d4db664	0.05022277
255	0xbc9a596c	-0.018841468

fc1.bias f4 [512]
0	0x3db54318	0.08850688
1	0x3d9a5b14	0.07536903
2	0x3daaa080	0.08331394
3	0x3e08bda0	0.13353586
4	0x3e0ed2d7	0.13947617
5	0xbd0fb2c1	-0.035082582
6	0xbe538d8c	-0.20659465
7	0x3b616dbc	0.0034397682
8	0x3d724429	0.059147034
9	0x3d02e7b5	0.031959254
10	0xbc8895c5	-0.016672978
11	0x3ddecd88	0.10879046
12	0x3e0d6167	0.13806687
13	0x3d241237	0.040056434
14	0xbbb50076	-0.0055237366
15	0x3d7083dc	0.0587195
16	0xbe7443ec	-0.23854035
17	0xbe0c1dc7	-0.13683234
18	0x3e085750	0.13314557
19	0x3d543620	0.05180943
20	0x3d842373	0.06452074
21	0xbd0bce42	-0.03413225
22	0xbdf99a57	-0.12187641
23	0x3d4a4fbe	0.049392454
24	0x3e23b281	0.15986063
25	0xbd4750b8	-0.048660964
26	0x3db1b50b	0.08677109
27	0xbe717931	-0.23581387
28	0xbd4b01b5	-0.049562175
29	0xbdc730e4	-0.09726122
30	0xbd3da47a	-0.046299435
31	0xbdb51379	-0.08841605
32	0x3d906353	0.070501946
33	0x3ddd2071	0.10797203
34	0x3d94abca	0.07259329
35	0x3c9080fe	0.017639633
36	0xbc6e2b76	-0.014536729
37	0x3d4da662	0.050207503
38	0xbddee9dc	-0.10884449
39	0x3c262f40	0.010143101
40	0xbe3ffff2	-0.18749979
41	0xbd9ddec0	-0.07708502
42	0xbbe6027d	-0.0070193396
43	0xbe22c77e	-0.15896413
44	0xbe02b27b	-0.12763397
45	0x3de7dd6b	0.11321529
46	0x3d99c64e	0.07508527
47	0x3da02460	0.07819438
48	0xbde9ac9d	-0.114098765
49	0x3d952bde	0.072837576
50	0xbc456459	-0.0120478505
51	0xbe291bec	-0.16514558
52	0xbdde82ff	-0.10864829
53	0x3dc285bf	0.09498166
54	0x3d7f5d9d	0.062345136
55	0x3de32f52	0.1109301
56	0x3db281f9	0.087161966
57	0xbe058a4c	-0.13041037
58	0x3d4c37ca	0.049857892
59	0x3c250f9c	0.010074522
60	0x3dd534ee	0.10410486
61	0x3e0d5ece	0.13805696
62	0xbd04f00e	-0.032455496
63	0x3d848704	0.06471065
64	0x3cc75452	0.0243322
65	0x3da2e308	0.07953459
66	0xbd912157	-0.07086437
67	0x3d2f1772	0.04274697
68	0x3c375ac8	0.0111910775
69	0x3da6563d	0.081219174
70	0xbd7c87fe	-0.06165313
71	0xbe2e256a	-0.1700646
72	0x3c35c06b	0.011093239
73	0x3da7cdfd	0.08193586
74	0xbccf9fae	-0.025344696
75	0x3daf88f9	0.08571047
76	0x3c72ac3a	0.01481157
77	0xbcd0fc2a	-0.025510866
78	0xbdbd6232	-0.09247245
79	0x3d6fff70	0.058593214
80	0xbe0a1d90	-0.1348784
81	0xbc9b4e3e	-0.018958207
82	0xbd0e3e45	-0.034727354
83	0x3d0c089a	0.03418789
84	0x3d8b64ab	0.0680631
85	0x3ceef838	0.029171094
86	0xbde44a91	-0.11147035
87	0xbe0cd45e	-0.13752887
88	0xbd1aa5d5	-0.037755806
89	0x3ddc26a4	0.107495576
90	0x3e09cc3f	0.1345682
91	0x3d7146d2	0.05890543
92	0x3e0ef4e6	0.13960609
93	0x3dc6ce90	0.097073674
94	0x3c311ad1	0.010809616
95	0xbe0db2da	-0.13837758
96	0xbc0b8e9a	-0.008517886
97	0xbd2bf57f	-0.04198217
98	0x3c0cb012	0.0085869
99	0xbda67879	-0.08128447
100	0xbdd55d45	-0.104181804
101	0xbd318abc	-0.043345198
102	0xbe1b040f	-0.15138267
103	0x3e0711c8	0.13190377
104	0x3e139b39	0.14414681
105	0xbd9111fd	-0.07083509
106	0x3d6c27eb	0.057655256
107	0x3e439e3f	0.19103335
108	0x3df68ace	0.12038194
109	0x3dc12719	0.094312854
110	0xbe30cfb2	-0.1726673
111	0x3d76b14e	0.060227685
112	0x3df4b9eb	0.119495235
113	0x3c81a3d6	0.015825193
114	0x3dd5c50d	0.10437975
115	0x3bfcb1af	0.007711611
116	0xbd0622f4	-0.032748178
117	0x3dbeab42	0.093100086
118	0x3d8a188b	0.067429624
119	0xbe9d634f	-0.3073983
120	0x3cf0b22f	0.02938184
121	0x3d913418	0.07090014
122	0xbd184eb0	-0.037184417
123	0xbe08bd42	-0.13353446
124	0x3c93561b	0.017985394
125	0xbe1cf84a	-0.1532909
126	0xbe357df7	-0.17723833
127	0xbdeee8dc	-0.11665508
128	0xbe4beac9	-0.19913782
129	0x3da0f0c7	0.07858425
130	0x3d2941ee	0.04132264
131	0xbdef7e74	-0.11694041
132	0x3dea5da1	0.114436395
133	0xbdb89e89	-0.09014613
134	0x3d38e789	0.045142684
135	0xbe4d5299	-0.2005104
136	0x3e00c1cc	0.12573928
137	0xbd9a91a7	-0.07547312
138	0xbd6938bf	-0.056938883
139	0xbe1e01b1	-0.15430333
140	0xbdfa2829	-0.12214691
141	0x3dcecd53	0.10097756
142	0x3df84a51	0.1212355
143	0xbc0bec36	-0.008540204
144	0xbc4c1c68	-0.012457944
145	0x3e0ea2fd	0.13929363
146	0x3d21cd83	0.039502632
147	0x3db0d380	0.086340904
148	0x3c9a1cdb	0.018812587
149	0xbcd56855	-0.026050726
150	0xbe1b9e85	-0.15197189
151	0xbdea359b	-0.11436006
152	0x3d356ea9	0.044294987
153	0xbe44ad6d	-0.19206782
154	0x3b930a47	0.004487309
155	0x3da5a52e	0.08088146
156	0x3d0232d4	0.031786755
157	0x3c787c22	0.015166314
158	0x3d228f0a	0.039687194
159	0x3d9abab1	0.0755514
160	0x3ddb6d57	0.10714214
161	0x3d517ba9	0.051143322
162	0xbdc68cef	-0.0969485
163	0xbda7a8f2	-0.08186521
164	0xbe0e44e3	-0.13893466
165	0x3d422dbd	0.0474069
166	0xbc8595f7	-0.01630686
167	0xbd9cb35b	-0.07651397
168	0x3ced16b7	0.028941495
169	0x3d02c774	0.031928495
170	0x3dadafd5	0.08480803
171	0x3db513b0	0.08841646
172	0xbb79fe6e	-0.0038146037
173	0xbdc7789a	-0.097398
174	0xbdde29bb	-0.10847803
175	0x3dd5f18f	0.10446464
176	0xbe0d04e5	-0.13771398
177	0xbd2d60c7	-0.042328622
178	0xbe879e74	-0.26488078
179	0xbe29b8c8	-0.16574395
180	0xbd58a988	-0.052896053
181	0x3de6e020	0.11273217
182	0x3dca0f46	0.098661944
183	0xbe02e81b	-0.12783854
184	0xbc0b9021	-0.00851825
185	0xbc826507	-0.015917314
186	0x3d1135e9	0.035451803
187	0x3e0051db	0.12531225
188	0x3e125003	0.14288335
189	0xbbb19431	-0.005419277
190	0x3cc03bba	0.02346598
191	0xbd1ad6ac	-0.037802383
192	0xbe3c16bd	-0.18368049
193	0x3cb4ead5	0.022084633
194	0xbd4e0675	-0.050299127
195	0xbcdb5fad	-0.02677902
196	0x3e30bda8	0.17259848
197	0xbd969a74	-0.07353678
198	0x3d8f330d	0.06992159
199	0xbe12a4d1	-0.14320685
200	0x3d994458	0.07483739
201	0xbd8fd15a	-0.070223525
202	0xbd07fc58	-0.033199638
203	0xbdbe63c3	-0.09296372
204	0xbd8dc74c	-0.069227785
205	0x3c4b4fd4	0.012409169
206	0xbe09bc5c	-0.1345076
207	0x3d953912	0.07286276
208	0x3dee24e9	0.11628134
209	0x3d9fff0a	0.07812317
210	0xbd9501ec	-0.07275757
211	0x3df62df7	0.12020486
212	0x3de49b7e	0.1116247
213	0x3df0579e	0.11735462
214	0xbe07fcb7	-0.13279997
215	0xbe230859	-0.15921153
216	0xbd916061	-0.07098461
217	0xbe1c7e59	-0.15282573
218	0x3ca13e8a	0.019683141
219	0x3d8e21cb	0.06940039
220	0xbd3b0caa	-0.045666374
221	0xbe087a0e	-0.1332781
222	0x3d11c8be	0.035591833
223	0x3cfd5925	0.030926296
224	0x3d8ff718	0.07029551
225	0xbe330833	-0.17483597
226	0xbdf05ff4	-0.117370516
227	0xbe289ecf	-0.1646683
228	0x3e093e4a	0.13402668
229	0x3dcdd931	0.100511916
230	0xbd80a6ff	-0.06281852
231	0x3d472c7e	0.048626415
232	0x3e15519e	0.14581916
233	0x3d1a3653	0.037649464
234	0x3ddd6c82	0.10811712
235	0xbdd1d62f	-0.102459304
236	0xbd471bb4	-0.048610404
237	0x3d4c3043	0.049850713
238	0x3d4bddea	0.04977218
239	0xbd437710	-0.04772097
240	0x3dc65487	0.09684091
241	0x3c90ea42	0.017689828
242	0x3dfd7f2a	0.1237777
243	0xbe3a37f7	-0.18185411
244	0xbe1d898a	-0.15384498
245	0x3e03c877	0.1286944
246	0xbd2a4ae6	-0.041575335
247	0xbdb87c9e	-0.09008144
248	0xbe09c5e4	-0.13454396
249	0x3e1b0c5c	0.15141433
250	0xbe2cfb24	-0.16892678
251	0xbcfa1e5a	-0.03053205
252	0x3cadcb3c	0.021215074
253	0x3d1951e8	0.037431628
254	0x3d9a2f48	0.075285494
255	0xbe04aa2d	-0.12955542

bn1.weight f4 [512]
0	0x3f3ea67f	0.744728
1	0x3f1b4b00	0.60661316
2	0x3f5cdff1	0.8627921
3	0x3f63778b	0.88854283
4	0x3f7083cb	0.939511
5	0x3f3615a7	0.7112679
6	0x3e8e361a	0.2777565
7	0x3c942ee0	0.018088758
8	0x3ec63dd0	0.38719034
9	0x3f3fa314	0.7485821
10	0x3ee1f8c4	0.44135106
11	0x3ee8315a	0.45350152
12	0x3ebf7d38	0.37400222
13	0x3ec1efbc	0.37878215
14	0x3ee24eea	0.44200832
15	0x3f7dd49c	0.9915254
16	0x3f19a2af	0.6001386
17	0x3c4f7b00	0.012663603
18	0x3f127d42	0.5722238
19	0x3e742618	0.23842657
20	0x3f2c6fac	0.673579
21	0x3e54a228	0.20764983
22	0x3ea6327a	0.32460386
23	0x3e6f6558	0.23378503
24	0x3e84e9ac	0.25959527
25	0x3f658abd	0.8966482
26	0x3f788e2d	0.97091943
27	0x3ea575b6	0.3231637
28	0x3f5ce3bb	0.8628499
29	0x3f320bfb	0.6954953
30	0x3efecdf6	0.4976651
31	0x3e0a7c00	0.13523865
32	0x3f5d037d	0.8633345
33	0x3e3f4924	0.18680245
34	0x3f20d885	0.6283038
35	0x3f199f7e	0.6000899
36	0x3e922b96	0.28548878
37	0x3f619f40	0.8813362
38	0x3f02a543	0.5103342
39	0x3eead4e4	0.45865548
40	0x3f212858	0.62952185
41	0x3ee923fe	0.45535272
42	0x3e302490	0.17201447
43	0x3d0f77a0	0.035026193
44	0x3f7abb3c	0.97941947
45	0x3e20b1e4	0.1569286
46	0x3e5a75d4	0.2133401
47	0x3f0e4b0e	0.55583274
48	0x3f41d6c4	0.7571833
49	0x3f5866b3	0.84531707
50	0x3f126738	0.5718875
51	0x3cc15380	0.023599386
52	0x3f1071b5	0.56423503
53	0x3e3a911c	0.18219417
54	0x3f4c9f38	0.7993045
55	0x3e7ef448	0.24897873
56	0x3f15a780	0.5845871
57	0x3eba940c	0.36441076
58	0x3f1d8a84	0.61539483
59	0x3f4e2189	0.8051992
60	0x3f27108c	0.65259624
61	0x3f4758ef	0.77870077
62	0x3f5a76a5	0.8533729
63	0x3f6dcfc0	0.92895126
64	0x3f5f81d6	0.8730749
65	0x3c4bd7c0	0.0124415755
66	0x3e99f7fe	0.30072016
67	0x3e9cdea8	0.30638623
68	0x3f623a67	0.88370365
69	0x3f635800	0.8880615
70	0x3f225cbd	0.6342276
71	0x3f524d78	0.8214946
72	0x3f768ede	0.9631175
73	0x3f563e9b	0.8368928
74	0x3f7f5ee8	0.9975419
75	0x3ee6e782	0.450985
76	0x3f3a5985	0.72792846
77	0x3d5b6380	0.053561687
78	0x3d89e9e0	0.06734061
79	0x3ed5dc2e	0.41769546
80	0x3e8b7f6a	0.27245647
81	0x3f12eaf4	0.5738976
82	0x3f0fda3e	0.56192386
83	0x3f76cdc8	0.9640775
84	0x3f36e25a	0.71439135
85	0x3f0f0a67	0.5587525
86	0x3ee928e8	0.45539021
87	0x3eb80d7e	0.35947794
88	0x3e532ce8	0.20622599
89	0x3e94552a	0.28971225
90	0x3f0c03db	0.5469338
91	0x3f2c990b	0.67421025
92	0x3f27eed2	0.65598786
93	0x3f141dea	0.57858145
94	0x3f5d540e	0.8645638
95	0x3e8f8b70	0.2803607
96	0x3dc133b8	0.09433693
97	0x3e418c18	0.18901098
98	0x3ec3867a	0.38188535
99	0x3f4e0a7e	0.8048476
100	0x3e19fb70	0.15037322
101	0x3ea3d038	0.31994796
102	0x3f400a2e	0.7501553
103	0x3f30f34f	0.6912126
104	0x3f4cfe4a	0.80075514
105	0x3e823818	0.2543342
106	0x3e7ec2d8	0.24879014
107	0x3f64e520	0.89412117
108	0x3e034698	0.12819898
109	0x3eb31942	0.34980208
110	0x3f657bcc	0.89642024
111	0x3e0d4884	0.13797194
112	0x3f232e71	0.6374274
113	0x3e1e9fec	0.15490693
114	0x3f6efe9e	0.93357265
115	0x3efbf428	0.49209714
116	0x3f07e3ee	0.5308217
117	0x3e9cc532	0.30619198
118	0x3eabd878	0.3356359
119	0x3ef61d78	0.48069358
120	0x3f13b815	0.5770276
121	0x3ef6e364	0.4822036
122	0x3e385b98	0.1800369
123	0x3f289732	0.65855706
124	0x3f1fc77e	0.62413776
125	0x3ed820ee	0.42212623
126	0x3f30271c	0.68809676
127	0x3f0302db	0.5117623
128	0x3e1236ac	0.14278668
129	0x3f7b8086	0.98242986
130	0x3ebe15ce	0.3712601
131	0x3f4df1e6	0.8044723
132	0x3e8e1d28	0.2775662
133	0x3f64b90e	0.8934487
134	0x3f26b1f3	0.6511528
135	0x3f436e27	0.76339954
136	0x3f2d04b7	0.6758532
137	0x3ea1f27a	0.31630307
138	0x3d9381b8	0.07202476
139	0x3d7bcfc0	0.061477423
140	0x3e6b3260	0.22968435
141	0x3f185e47	0.59518856
142	0x3e9888f4	0.29791987
143	0x3f400cad	0.7501934
144	0x3c16ad80	0.009196639
145	0x3f1fb7a3	0.6238958
146	0x3f3bddae	0.7338513
147	0x3ef0232c	0.46901834
148	0x3f733a81	0.95011145
149	0x3d13b0d0	0.036057293
150	0x3e0aa008	0.1353761
151	0x3e959a82	0.29219443
152	0x3f5cfb0c	0.8632057
153	0x3f3a05d0	0.7266512
154	0x3f298266	0.662146
155	0x3eccc334	0.39992678
156	0x3e2e99e8	0.17050898
157	0x3ef904ca	0.48636466
158	0x3f451469	0.7698427
159	0x3ea51ca6	0.3224842
160	0x3d832bb8	0.06404823
161	0x3f3e0618	0.7422805
162	0x3e134ce8	0.14384806
163	0x3eb4cca6	0.35312384
164	0x3f0e5d5d	0.5561121
165	0x3f1b93a4	0.60772157
166	0x3ecd6eba	0.4012354
167	0x3e3b7298	0.18305433
168	0x3f43ff6b	0.7656161
169	0x3e9c14be	0.30484575
170	0x3ec94f30	0.39318228
171	0x3e9ce5e4	0.30644143
172	0x3e3c5fe0	0.18395948
173	0x3ed9c520	0.42533207
174	0x3f3c774a	0.7361952
175	0x3e7c6514	0.24647933
176	0x3efd39c6	0.4945814
177	0x3f2ccca0	0.6749973
178	0x3f0d2d41	0.55147177
179	0x3ea1e9dc	0.31623733
180	0x3ee1c07e	0.44092172
181	0x3d8b3678	0.067974985
182	0x3bf7b900	0.0075598955
183	0x3f205341	0.62627035
184	0x3eb06cee	0.34458107
185	0x3e0ec600	0.13942719
186	0x3f42b3eb	0.76055783
187	0x3f00dcdf	0.5033702
188	0x3f12a829	0.5728784
189	0x3e83a48a	0.2571147
190	0x3f580d2e	0.8439511
191	0x3f35064d	0.7071274
192	0x3f58e430	0.84723186
193	0x3d2e33f0	0.04253
194	0x3ede20b0	0.43384314
195	0x3e8dd540	0.2770176
196	0x3ea2781e	0.31732267
197	0x3ea013ae	0.31265014
198	0x3e8fe996	0.281079
199	0x3ecc7c80	0.39938736
200	0x3e82d492	0.25552803
201	0x3f64f8ae	0.89441955
202	0x3ee0bdae	0.43894714
203	0x3f2ff87e	0.68738544
204	0x3f652a59	0.8951774
205	0x3f7abdf3	0.9794609
206	0x3f5bff34	0.85936284
207	0x3ec953ae	0.39321655
208	0x3ee5c6f2	0.44878346
209	0x3ec17b5c	0.37789428
210	0x3f6828fe	0.9068755
211	0x3e87b6c4	0.26506627
212	0x3e5cf510	0.21577859
213	0x3d315270	0.04329151
214	0x3ea82f8a	0.3284877
215	0x3f5bcf26	0.8586296
216	0x3e7e3504	0.24824911
217	0x3f01d2c6	0.5071224
218	0x3f484888	0.78235674
219	0x3f5118eb	0.81678647
220	0x3ee970e2	0.45593935
221	0x3f7ce2ea	0.98783743
222	0x3f368be0	0.7130718
223	0x3e612e70	0.21990371
224	0x3ee3fbe0	0.44528103
225	0x3f1df83a	0.6170689
226	0x3f5d57bc	0.86462
227	0x3ee4b248	0.44667268
228	0x3f766223	0.96243495
229	0x3f07e029	0.53076416
230	0x3f4b1014	0.7932141
231	0x3ee97a6a	0.45601207
232	0x3ef7fc24	0.48434556
233	0x3f0b223c	0.5434911
234	0x3f36de45	0.71432906
235	0x3e0ac538	0.13551795
236	0x3e0eec1c	0.13957256
237	0x3ef8424a	0.48488075
238	0x3e98f27c	0.298725
239	0x3e04c75c	0.12966675
240	0x3e83733a	0.25673848
241	0x3eb1a7e2	0.34698397
242	0x3e4cd998	0.2000488
243	0x3f0cdbae	0.55022705
244	0x3e5454b8	0.20735443
245	0x3e801032	0.25012356
246	0x3f210edd	0.62913305
247	0x3e92f362	0.2870131
248	0x3e31a530	0.1734817
249	0x3de78198	0.11304015
250	0x3f7a7217	0.9783034
251	0x3e162654	0.14663059
252	0x3f1ccd93	0.6125118
253	0x3e11528c	0.14191645
254	0x3f50ba38	0.8153415
255	0x3f068a9f	0.5255527

bn1.bias f4 [512]
0	0x00000000	0.0
1	0x00000000	0.0
2	0x00000000	0.0
3	0x00000000	0.0
4	0x00000000	0.0
5	0x00000000	0.0
6	0x00000000	0.0
7	0x00000000	0.0
8	0x00000000	0.0
9	0x00000000	0.0
10	0x00000000	0.0
11	0x00000000	0.0
12	0x00000000	0.0
13	0x00000000	0.0
14	0x00000000	0.0
15	0x00000000	0.0
16	0x00000000	0.0
17	0x00000000	0.0
18	0x00000000	0.0
19	0x00000000	0.0
20	0x00000000	0.0
21	0x00000000	0.0
22	0x00000000	0.0
23	0x00000000	0.0
24	0x00000000	0.0
25	0x00000000	0.0
26	0x00000000	0.0
27	0x00000000	0.0
28	0x00000000	0.0
29	0x00000000	0.0
30	0x00000000	0.0
31	0x00000000	0.0
32	0x00000000	0.0
33	0x00000000	0.0
34	0x00000000	0.0
35	0x00000000	0.0
36	0x00000000	0.0
37	0x00000000	0.0
38	0x00000000	0.0
39	0x00000000	0.0
40	0x00000000	0.0
41	0x00000000	0.0
42	0x00000000	0.0
43	0x00000000	0.0
44	0x00000000	0.0
45	0x00000000	0.0
46	0x00000000	0.0
47	0x00000000	0.0
48	0x00000000	0.0
49	0x00000000	0.0
50	0x00000000	0.0
51	0x00000000	0.0
52	0x00000000	0.0
53	0x00000000	0.0
54	0x00000000	0.0
55	0x00000000	0.0
56	0x00000000	0.0
57	0x00000000	0.0
58	0x00000000	0.0
59	0x00000000	0.0
60	0x00000000	0.0
61	0x00000000	0.0
62	0x00000000	0.0
63	0x00000000	0.0
64	0x00000000	0.0
65	0x00000000	0.0
66	0x00000000	0.0
67	0x00000000	0.0
68	0x00000000	0.0
69	0x00000000	0.0
70	0x00000000	0.0
71	0x00000000	0.0
72	0x00000000	0.0
73	0x00000000	0.0
74	0x00000000	0.0
75	0x00000000	0.0
76	0x00000000	0.0
77	0x00000000	0.0
78	0x00000000	0.0
79	0x00000000	0.0
80	0x00000000	0.0
81	0x00000000	0.0
82	0x00000000	0.0
83	0x00000000	0.0
84	0x00000000	0.0
85	0x00000000	0.0
86	0x00000000	0.0
87	0x00000000	0.0
88	0x00000000	0.0
89	0x00000000	0.0
90	0x00000000	0.0
91	0x00000000	0.0
92	0x00000000	0.0
93	0x00000000	0.0
94	0x00000000	0.0
95	0x00000000	0.0
96	0x00000000	0.0
97	0x00000000	0.0
98	0x00000000	0.0
99	0x00000000	0.0
100	0x00000000	0.0
101	0x00000000	0.0
102	0x00000000	0.0
103	0x00000000	0.0
104	0x00000000	0.0
105	0x00000000	0.0
106	0x00000000	0.0
107	0x00000000	0.0
108	0x00000000	0.0
109	0x00000000	0.0
110	0x00000000	0.0
111	0x00000000	0.0
112	0x00000000	0.0
113	0x00000000	0.0
114	0x00000000	0.0
115	0x00000000	0.0
116	0x00000000	0.0
117	0x00000000	0.0
118	0x00000000	0.0
119	0x00000000	0.0
120	0x00000000	0.0
121	0x00000000	0.0
122	0x00000000	0.0
123	0x00000000	0.0
124	0x00000000	0.0
125	0x00000000	0.0
126	0x00000000	0.0
127	0x00000000	0.0
128	0x00000000	0.0
129	0x00000000	0.0
130	0x00000000	0.0
131	0x00000000	0.0
132	0x00000000	0.0
133	0x00000000	0.0
134	0x00000000	0.0
135	0x00000000	0.0
136	0x00000000	0.0
137	0x00000000	0.0
138	0x00000000	0.0
139	0x00000000	0.0
140	0x00000000	0.0
141	0x00000000	0.0
142	0x00000000	0.0
143	0x00000000	0.0
144	0x00000000	0.0
145	0x00000000	0.0
146	0x00000000	0.0
147	0x00000000	0.0
148	0x00000000	0.0
149	0x00000000	0.0
150	0x00000000	0.0
151	0x00000000	0.0
152	0x00000000	0.0
153	0x00000000	0.0
154	0x00000000	0.0
155	0x00000000	0.0
156	0x00000000	0.0
157	0x00000000	0.0
158	0x00000000	0.0
159	0x00000000	0.0
160	0x00000000	0.0
161	0x00000000	0.0
162	0x00000000	0.0
163	0x00000000	0.0
164	0x00000000	0.0
165	0x00000000	0.0
166	0x00000000	0.0
167	0x00000000	0.0
168	0x00000000	0.0
169	0x00000000	0.0
170	0x00000000	0.0
171	0x00000000	0.0
172	0x00000000	0.0
173	0x00000000	0.0
174	0x00000000	0.0
175	0x00000000	0.0
176	0x00000000	0.0
177	0x00000000	0.0
178	0x00000000	0.0
179	0x00000000	0.0
180	0x00000000	0.0
181	0x00000000	0.0
182	0x00000000	0.0
183	0x00000000	0.0
184	0x00000000	0.0
185	0x00000000	0.0
186	0x00000000	0.0
187	0x00000000	0.0
188	0x00000000	0.0
189	0x00000000	0.0
190	0x00000000	0.0
191	0x00000000	0.0
192	0x00000000	0.0
193	0x00000000	0.0
194	0x00000000	0.0
195	0x00000000	0.0
196	0x00000000	0.0
197	0x00000000	0.0
198	0x00000000	0.0
199	0x00000000	0.0
200	0x00000000	0.0
201	0x00000000	0.0
202	0x00000000	0.0
203	0x00000000	0.0
204	0x00000000	0.0
205	0x00000000	0.0
206	0x00000000	0.0
207	0x00000000	0.0
208	0x00000000	0.0
209	0x00000000	0.0
210	0x00000000	0.0
211	0x00000000	0.0
212	0x00000000	0.0
213	0x00000000	0.0
214	0x00000000	0.0
215	0x00000000	0.0
216	0x00000000	0.0
217	0x00000000	0.0
218	0x00000000	0.0
219	0x00000000	0.0
220	0x00000000	0.0
221	0x00000000	0.0
222	0x00000000	0.0
223	0x00000000	0.0
224	0x00000000	0.0
225	0x00000000	0.0
226	0x00000000	0.0
227	0x00000000	0.0
228	0x00000000	0.0
229	0x00000000	0.0
230	0x00000000	0.0
231	0x00000000	0.0
232	0x00000000	0.0
233	0x00000000	0.0
234	0x00000000	0.0
235	0x00000000	0.0
236	0x00000000	0.0
237	0x00000000	0.0
238	0x00000000	0.0
239	0x00000000	0.0
240	0x00000000	0.0
241	0x00000000	0.0
242	0x00000000	0.0
243	0x00000000	0.0
244	0x00000000	0.0
245	0x00000000	0.0
246	0x00000000	0.0
247	0x00000000	0.0
248	0x00000000	0.0
249	0x00000000	0.0
250	0x00000000	0.0
251	0x00000000	0.0
252	0x00000000	0.0
253	0x00000000	0.0
254	0x00000000	0.0
255	0x00000000	0.0

bn1.running_mean f4 [512]
0	0x00000000	0.0
1	0x00000000	0.0
2	0x00000000	0.0
3	0x00000000	0.0
4	0x00000000	0.0
5	0x00000000	0.0
6	0x00000000	0.0
7	0x00000000	0.0
8	0x00000000	0.0
9	0x00000000	0.0
10	0x00000000	0.0
11	0x00000000	0.0
12	0x00000000	0.0
13	0x00000000	0.0
14	0x00000000	0.0
15	0x00000000	0.0
16	0x00000000	0.0
17	0x00000000	0.0
18	0x00000000	0.0
19	0x00000000	0.0
20	0x00000000	0.0
21	0x00000000	0.0
22	0x00000000	0.0
23	0x00000000	0.0
24	0x00000000	0.0
25	0x00000000	0.0
26	0x00000000	0.0
27	0x00000000	0.0
28	0x00000000	0.0
29	0x00000000	0.0
30	0x00000000	0.0
31	0x00000000	0.0
32	0x00000000	0.0
33	0x00000000	0.0
34	0x00000000	0.0
35	0x00000000	0.0
36	0x00000000	0.0
37	0x00000000	0.0
38	0x00000000	0.0
39	0x00000000	0.0
40	0x00000000	0.0
41	0x00000000	0.0
42	0x00000000	0.0
43	0x00000000	0.0
44	0x00000000	0.0
45	0x00000000	0.0
46	0x00000000	0.0
47	0x00000000	0.0
48	0x00000000	0.0
49	0x00000000	0.0
50	0x00000000	0.0
51	0x00000000	0.0
52	0x00000000	0.0
53	0x00000000	0.0
54	0x00000000	0.0
55	0x00000000	0.0
56	0x00000000	0.0
57	0x00000000	0.0
58	0x00000000	0.0
59	0x00000000	0.0
60	0x00000000	0.0
61	0x00000000	0.0
62	0x00000000	0.0
63	0x00000000	0.0
64	0x00000000	0.0
65	0x00000000	0.0
66	0x00000000	0.0
67	0x00000000	0.0
68	0x00000000	0.0
69	0x00000000	0.0
70	0x00000000	0.0
71	0x00000000	0.0
72	0x00000000	0.0
73	0x00000000	0.0
74	0x00000000	0.0
75	0x00000000	0.0
76	0x00000000	0.0
77	0x00000000	0.0
78	0x00000000	0.0
79	0x00000000	0.0
80	0x00000000	0.0
81	0x00000000	0.0
82	0x00000000	0.0
83	0x00000000	0.0
84	0x00000000	0.0
85	0x00000000	0.0
86	0x00000000	0.0
87	0x00000000	0.0
88	0x00000000	0.0
89	0x00000000	0.0
90	0x00000000	0.0
91	0x00000000	0.0
92	0x00000000	0.0
93	0x00000000	0.0
94	0x00000000	0.0
95	0x00000000	0.0
96	0x00000000	0.0
97	0x00000000	0.0
98	0x00000000	0.0
99	0x00000000	0.0
100	0x00000000	0.0
101	0x00000000	0.0
102	0x00000000	0.0
103	0x00000000	0.0
104	0x00000000	0.0
105	0x00000000	0.0
106	0x00000000	0.0
107	0x00000000	0.0
108	0x00000000	0.0
109	0x00000000	0.0
110	0x00000000	0.0
111	0x00000000	0.0
112	0x00000000	0.0
113	0x00000000	0.0
114	0x00000000	0.0
115	0x00000000	0.0
116	0x00000000	0.0
117	0x00000000	0.0
118	0x00000000	0.0
119	0x00000000	0.0
120	0x00000000	0.0
121	0x00000000	0.0
122	0x00000000	0.0
123	0x00000000	0.0
124	0x00000000	0.0
125	0x00000000	0.0
126	0x00000000	0.0
127	0x00000000	0.0
128	0x00000000	0.0
129	0x00000000	0.0
130	0x00000000	0.0
131	0x00000000	0.0
132	0x00000000	0.0
133	0x00000000	0.0
134	0x00000000	0.0
135	0x00000000	0.0
136	0x00000000	0.0
137	0x00000000	0.0
138	0x00000000	0.0
139	0x00000000	0.0
140	0x00000000	0.0
141	0x00000000	0.0
142	0x00000000	0.0
143	0x00000000	0.0
144	0x00000000	0.0
145	0x00000000	0.0
146	0x00000000	0.0
147	0x00000000	0.0
148	0x00000000	0.0
149	0x00000000	0.0
150	0x00000000	0.0
151	0x00000000	0.0
152	0x00000000	0.0
153	0x00000000	0.0
154	0x00000000	0.0
155	0x00000000	0.0
156	0x00000000	0.0
157	0x00000000	0.0
158	0x00000000	0.0
159	0x00000000	0.0
160	0x00000000	0.0
161	0x00000000	0.0
162	0x00000000	0.0
163	0x00000000	0.0
164	0x00000000	0.0
165	0x00000000	0.0
166	0x00000000	0.0
167	0x00000000	0.0
168	0x00000000	0.0
169	0x00000000	0.0
170	0x00000000	0.0
171	0x00000000	0.0
172	0x00000000	0.0
173	0x00000000	0.0
174	0x00000000	0.0
175	0x00000000	0.0
176	0x00000000	0.0
177	0x00000000	0.0
178	0x00000000	0.0
179	0x00000000	0.0
180	0x00000000	0.0
181	0x00000000	0.0
182	0x00000000	0.0
183	0x00000000	0.0
184	0x00000000	0.0
185	0x00000000	0.0
186	0x00000000	0.0
187	0x00000000	0.0
188	0x00000000	0.0
189	0x00000000	0.0
190	0x00000000	0.0
191	0x00000000	0.0
192	0x00000000	0.0
193	0x00000000	0.0
194	0x00000000	0.0
195	0x00000000	0.0
196	0x00000000	0.0
197	0x00000000	0.0
198	0x00000000	0.0
199	0x00000000	0.0
200	0x00000000	0.0
201	0x00000000	0.0
202	0x00000000	0.0
203	0x00000000	0.0
204	0x00000000	0.0
205	0x00000000	0.0
206	0x00000000	0.0
207	0x00000000	0.0
208	0x00000000	0.0
209	0x00000000	0.0
210	0x00000000	0.0
211	0x00000000	0.0
212	0x00000000	0.0
213	0x00000000	0.0
214	0x00000000	0.0
215	0x00000000	0.0
216	0x00000000	0.0
217	0x00000000	0.0
218	0x00000000	0.0
219	0x00000000	0.0
220	0x00000000	0.0
221	0x00000000	0.0
222	0x00000000	0.0
223	0x00000000	0.0
224	0x00000000	0.0
225	0x00000000	0.0
226	0x00000000	0.0
227	0x00000000	0.0
228	0x00000000	0.0
229	0x00000000	0.0
230	0x00000000	0.0
231	0x00000000	0.0
232	0x00000000	0.0
233	0x00000000	0.0
234	0x00000000	0.0
235	0x00000000	0.0
236	0x00000000	0.0
237	0x00000000	0.0
238	0x00000000	0.0
239	0x00000000	0.0
240	0x00000000	0.0
241	0x00000000	0.0
242	0x00000000	0.0
243	0x00000000	0.0
244	0x00000000	0.0
245	0x00000000	0.0
246	0x00000000	0.0
247	0x00000000	0.0
248	0x00000000	0.0
249	0x00000000	0.0
250	0x00000000	0.0
251	0x00000000	0.0
252	0x00000000	0.0
253	0x00000000	0.0
254	0x00000000	0.0
255	0x00000000	0.0

bn1.running_var f4 [512]
0	0x3f800000	1.0
1	0x3f800000	1.0
2	0x3f800000	1.0
3	0x3f800000	1.0
4	0x3f800000	1.0
5	0x3f800000	1.0
6	0x3f800000	1.0
7	0x3f800000	1.0
8	0x3f800000	1.0
9	0x3f800000	1.0
10	0x3f800000	1.0
11	0x3f800000	1.0
12	0x3f800000	1.0
13	0x3f800000	1.0
14	0x3f800000	1.0
15	0x3f800000	1.0
16	0x3f800000	1.0
17	0x3f800000	1.0
18	0x3f800000	1.0
19	0x3f800000	1.0
20	0x3f800000	1.0
21	0x3f800000	1.0
22	0x3f800000	1.0
23	0x3f800000	1.0
24	0x3f800000	1.0
25	0x3f800000	1.0
26	0x3f800000	1.0
27	0x3f800000	1.0
28	0x3f800000	1.0
29	0x3f800000	1.0
30	0x3f800000	1.0
31	0x3f800000	1.0
32	0x3f800000	1.0
33	0x3f800000	1.0
34	0x3f800000	1.0
35	0x3f800000	1.0
36	0x3f800000	1.0
37	0x3f800000	1.0
38	0x3f800000	1.0
39	0x3f800000	1.0
40	0x3f800000	1.0
41	0x3f800000	1.0
42	0x3f800000	1.0
43	0x3f800000	1.0
44	0x3f800000	1.0
45	0x3f800000	1.0
46	0x3f800000	1.0
47	0x3f800000	1.0
48	0x3f800000	1.0
49	0x3f800000	1.0
50	0x3f800000	1.0
51	0x3f800000	1.0
52	0x3f800000	1.0
53	0x3f800000	1.0
54	0x3f800000	1.0
55	0x3f800000	1.0
56	0x3f800000	1.0
57	0x3f800000	1.0
58	0x3f800000	1.0
59	0x3f800000	1.0
60	0x3f800000	1.0
61	0x3f800000	1.0
62	0x3f800000	1.0
63	0x3f800000	1.0
64	0x3f800000	1.0
65	0x3f800000	1.0
66	0x3f800000	1.0
67	0x3f800000	1.0
68	0x3f800000	1.0
69	0x3f800000	1.0
70	0x3f800000	1.0
71	0x3f800000	1.0
72	0x3f800000	1.0
73	0x3f800000	1.0
74	0x3f800000	1.0
75	0x3f800000	1.0
76	0x3f800000	1.0
77	0x3f800000	1.0
78	0x3f800000	1.0
79	0x3f800000	1.0
80	0x3f800000	1.0
81	0x3f800000	1.0
82	0x3f800000	1.0
83	0x3f800000	1.0
84	0x3f800000	1.0
85	0x3f800000	1.0
86	0x3f800000	1.0
87	0x3f800000	1.0
88	0x3f800000	1.0
89	0x3f800000	1.0
90	0x3f800000	1.0
91	0x3f800000	1.0
92	0x3f800000	1.0
93	0x3f800000	1.0
94	0x3f800000	1.0
95	0x3f800000	1.0
96	0x3f800000	1.0
97	0x3f800000	1.0
98	0x3f800000	1.0
99	0x3f800000	1.0
100	0x3f800000	1.0
101	0x3f800000	1.0
102	0x3f800000	1.0
103	0x3f800000	1.0
104	0x3f800000	1.0
105	0x3f800000	1.0
106	0x3f800000	1.0
107	0x3f800000	1.0
108	0x3f800000	1.0
109	0x3f800000	1.0
110	0x3f800000	1.0
111	0x3f800000	1.0
112	0x3f800000	1.0
113	0x3f800000	1.0
114	0x3f800000	1.0
115	0x3f800000	1.0
116	0x3f800000	1.0
117	0x3f800000	1.0
118	0x3f800000	1.0
119	0x3f800000	1.0
120	0x3f800000	1.0
121	0x3f800000	1.0
122	0x3f800000	1.0
123	0x3f800000	1.0
124	0x3f800000	1.0
125	0x3f800000	1.0
126	0x3f800000	1.0
127	0x3f800000	1.0
128	0x3f800000	1.0
129	0x3f800000	1.0
130	0x3f800000	1.0
131	0x3f800000	1.0
132	0x3f800000	1.0
133	0x3f800000	1.0
134	0x3f800000	1.0
135	0x3f800000	1.0
136	0x3f800000	1.0
137	0x3f800000	1.0
138	0x3f800000	1.0
139	0x3f800000	1.0
140	0x3f800000	1.0
141	0x3f800000	1.0
142	0x3f800000	1.0
143	0x3f800000	1.0
144	0x3f800000	1.0
145	0x3f800000	1.0
146	0x3f800000	1.0
147	0x3f800000	1.0
148	0x3f800000	1.0
149	0x3f800000	1.0
150	0x3f800000	1.0
151	0x3f800000	1.0
152	0x3f800000	1.0
153	0x3f800000	1.0
154	0x3f800000	1.0
155	0x3f800000	1.0
156	0x3f800000	1.0
157	0x3f800000	1.0
158	0x3f800000	1.0
159	0x3f800000	1.0
160	0x3f800000	1.0
161	0x3f800000	1.0
162	0x3f800000	1.0
163	0x3f800000	1.0
164	0x3f800000	1.0
165	0x3f800000	1.0
166	0x3f800000	1.0
167	0x3f800000	1.0
168	0x3f800000	1.0
169	0x3f800000	1.0
170	0x3f800000	1.0
171	0x3f800000	1.0
172	0x3f800000	1.0
173	0x3f800000	1.0
174	0x3f800000	1.0
175	0x3f800000	1.0
176	0x3f800000	1.0
177	0x3f800000	1.0
178	0x3f800000	1.0
179	0x3f800000	1.0
180	0x3f800000	1.0
181	0x3f800000	1.0
182	0x3f800000	1.0
183	0x3f800000	1.0
184	0x3f800000	1.0
185	0x3f800000	1.0
186	0x3f800000	1.0
187	0x3f800000	1.0
188	0x3f800000	1.0
189	0x3f800000	1.0
190	0x3f800000	1.0
191	0x3f800000	1.0
192	0x3f800000	1.0
193	0x3f800000	1.0
194	0x3f800000	1.0
195	0x3f800000	1.0
196	0x3f800000	1.0
197	0x3f800000	1.0
198	0x3f800000	1.0
199	0x3f800000	1.0
200	0x3f800000	1.0
201	0x3f800000	1.0
202	0x3f800000	1.0
203	0x3f800000	1.0
204	0x3f800000	1.0
205	0x3f800000	1.0
206	0x3f800000	1.0
207	0x3f800000	1.0
208	0x3f800000	1.0
209	0x3f800000	1.0
210	0x3f800000	1.0
211	0x3f800000	1.0
212	0x3f800000	1.0
213	0x3f800000	1.0
214	0x3f800000	1.0
215	0x3f800000	1.0
216	0x3f800000	1.0
217	0x3f800000	1.0
218	0x3f800000	1.0
219	0x3f800000	1.0
220	0x3f800000	1.0
221	0x3f800000	1.0
222	0x3f800000	1.0
223	0x3f800000	1.0
224	0x3f800000	1.0
225	0x3f800000	1.0
226	0x3f800000	1.0
227	0x3f800000	1.0
228	0x3f800000	1.0
229	0x3f800000	1.0
230	0x3f800000	1.0
231	0x3f800000	1.0
232	0x3f800000	1.0
233	0x3f800000	1.0
234	0x3f800000	1.0
235	0x3f800000	1.0
236	0x3f800000	1.0
237	0x3f800000	1.0
238	0x3f800000	1.0
239	0x3f800000	1.0
240	0x3f800000	1.0
241	0x3f800000	1.0
242	0x3f800000	1.0
243	0x3f800000	1.0
244	0x3f800000	1.0
245	0x3f800000	1.0
246	0x3f800000	1.0
247	0x3f800000	1.0
248	0x3f800000	1.0
249	0x3f800000	1.0
250	0x3f800000	1.0
251	0x3f800000	1.0
252	0x3f800000	1.0
253	0x3f800000	1.0
254	0x3f800000	1.0
255	0x3f800000	1.0

fc2.weight f4 [256, 512]
0	0x3d6acdfa	0.05732534
1	0xbd1e2db6	-0.038617812
2	0x3cc292f9	0.023751723
3	0x3d17c993	0.03705747
4	0xbd032f37	-0.03202745
5	0x3a81fb4d	0.0009916812
6	0x3d24816a	0.04016248
7	0x3d084fad	0.03327911
8	0xbc66de18	-0.014091037
9	0x3cc21d57	0.023695631
10	0x3d5dd64d	0.05415945
11	0x3da7a36c	0.08185467
12	0x3d3e33e1	0.046436194
13	0x3d3a5d27	0.045498993
14	0xbd4e3cab	-0.050350826
15	0x3d645b36	0.055751048
16	0x3dc54b72	0.09633531
17	0x3d3704b0	0.044682205
18	0x3e0541c0	0.13013363
19	0x3ad28d80	0.0016063899
20	0x3d412074	0.04715009
21	0xbd2603e8	-0.04053107
22	0x3ddb2cf1	0.10701931
23	0xb8c9581d	-9.600839e-05
24	0xbd68277e	-0.056678288
25	0x3cd27b99	0.025693702
26	0x3d66bf1a	0.056334592
27	0x3cda09be	0.026615974
28	0xbdaf8189	-0.08569629
29	0x3d86e889	0.06587321
30	0x3d74f3e2	0.059802897
31	0xbdc95bc1	-0.09831954
32	0x3e019205	0.12653358
33	0x3d078e3c	0.03309463
34	0x3c23bdc2	0.009993972
35	0x3bb4a12b	0.005512377
36	0xbd2d47d0	-0.042304814
37	0x3d4b4a78	0.049631566
38	0xbddec9dc	-0.10878345
39	0x3d8534e7	0.06504231
40	0xbc20135e	-0.0097702425
41	0xbe3cd427	-0.18440305
42	0x3da201ee	0.07910524
43	0x3d8bdd5c	0.0682933
44	0x3d1f5bf5	0.038906056
45	0x3dd4654c	0.10370883
46	0x3da5d0b1	0.08096445
47	0x3cba7473	0.022760605
48	0x3c58c3cb	0.013230274
49	0x3d9ecf13	0.0775434
50	0xbda660ba	-0.08123918
51	0x3e18f8d9	0.14938678
52	0x3e4c8205	0.19971474
53	0xbd30e6bd	-0.0431888
54	0x3d7f9b69	0.06240407
55	0xbd789c37	-0.060695853
56	0x3df9e1b7	0.12201255
57	0xbd034eb5	-0.032057483
58	0x3cf93bd6	0.03042404
59	0x3d0ccea4	0.034376755
60	0x3bd1ed0c	0.006406432
61	0xbbd00a9a	-0.00634892
62	0xbb83a5b1	-0.0040175547
63	0xbcba76c1	-0.022761704
64	0xbda245b1	-0.07923449
65	0x3dc92d1e	0.098230585
66	0xbd5995be	-0.05312132
67	0x3ce84f33	0.028358078
68	0x3dacbf5a	0.08434935
69	0x3dccdf59	0.10003538
70	0x3df43ebe	0.119260296
71	0xbc37bd8f	-0.011214628
72	0xbcf1e5fa	-0.029528607
73	0x3bbe777f	0.005812585
74	0x3cba22af	0.022721617
75	0xbb344107	-0.002750458
76	0x3d7998b2	0.060936637
77	0xbd9e6501	-0.07734109
78	0x3cd081e0	0.025452554
79	0x3d0a00ad	0.03369205
80	0x3dc98332	0.09839477
81	0x3db809e0	0.089862585
82	0xbde32ce7	-0.11092549
83	0x3d1c4542	0.038151987
84	0x3ce11b64	0.027478881
85	0x3cabb113	0.020958459
86	0xbcd6dd2d	-0.026228512
87	0x3cb950b9	0.0226215
88	0x3ddb6a38	0.10713619
89	0xbd944b39	-0.0724091
90	0x3d8e6640	0.069530964
91	0xbdd1545a	-0.10221167
92	0x3d461248	0.048357278
93	0x3d840730	0.064466834
94	0x3d4b9c45	0.049709577
95	0xbc9191ed	-0.017769778
96	0x3cf95030	0.030433744
97	0x3da9e6af	0.082959525
98	0x3e0b0bec	0.13578767
99	0xbc9ee6a9	-0.019397097
100	0x3d67dba2	0.056605943
101	0x3b02ce3c	0.001995935
102	0x3df6f4f2	0.12058438
103	0x3cbce6dd	0.023059303
104	0x3d999b1a	0.075002864
105	0xbd0861fb	-0.033296566
106	0x3db9d360	0.0907352
107	0x3c832d7c	0.0160129
108	0x3d4611ee	0.048356943
109	0xbd88cdb1	-0.066798575
110	0x3dac2238	0.08404964
111	0xbd2d6b75	-0.042338807
112	0x3d3b76c4	0.04576756
113	0x3d95788d	0.07298384
114	0x3d78816d	0.060670305
115	0xbd73c960	-0.059518218
116	0x3c0113c8	0.007878251
117	0x3cb300fa	0.021851052
118	0x3db82672	0.08991708
119	0x3d8083f2	0.062751666
120	0x3d03702b	0.032089394
121	0x3d33cea5	0.043898243
122	0x3dde5df9	0.108577676
123	0x3d5f6338	0.05453798
124	0x3cbde525	0.023180554
125	0xbd9e5f0e	-0.07732974
126	0xbe0db7b6	-0.13839611
127	0x3cdb6b34	0.026784517
128	0xbde2c174	-0.110720545
129	0xba67ff82	-0.00088500243
130	0x3ce5be80	0.028044939
131	0x3d6a788b	0.057243865
132	0x3d2189ef	0.039438184
133	0x3e2d090a	0.1689798
134	0xbb2225e9	-0.0024741834
135	0xbda51344	-0.08060315
136	0x3c962631	0.018328758
137	0x3db38665	0.08765868
138	0xbce2aec2	-0.027671222
139	0x3bc867eb	0.0061159036
140	0x3d91acd2	0.07113041
141	0x3d3a408f	0.045471724
142	0x3c116b86	0.008875733
143	0xbd5cb67a	-0.05388496
144	0xbc56d822	-0.0131130535
145	0xbd5b0a7d	-0.0534768
146	0x3d5e32a4	0.054247513
147	0x3d320b1f	0.043467637
148	0x3ce6c6fe	0.028171059
149	0x3d99770e	0.07493411
150	0xbd9856b7	-0.074384145
151	0xbd502a12	-0.05082137
152	0x3d5863a5	0.052829403
153	0xbe029eb7	-0.12755857
154	0x3cc22cf1	0.02370307
155	0xbbc271a4	-0.005933957
156	0xbd24c6fd	-0.040228833
157	0x3d9f54d6	0.07779853
158	0xbd2b8708	-0.041876823
159	0x3d3daf20	0.04630959
160	0x3ccf2401	0.025285723
161	0x3c7c16bd	0.015386281
162	0xbe53a9d1	-0.20670249
163	0xbd7f5e84	-0.062345996
164	0x3d2ba7a5	0.041907925
165	0x3d56ee2a	0.052473225
166	0x3cedfcc6	0.029051196
167	0x3dd347cf	0.10316431
168	0x3d76b0fd	0.060227383
169	0x3d24d41e	0.040241353
170	0x3d6f4070	0.05841106
171	0xbdb4aae7	-0.088216595
172	0xbc9eebbf	-0.019399522
173	0x3dfb1ba6	0.12261133
174	0x3e13ca33	0.14432602
175	0x3c735827	0.01485256
176	0x3d10edc8	0.035383016
177	0x3d6389d5	0.05555137
178	0xbd944127	-0.07238989
179	0xbc2d2496	-0.010567805
180	0x3b94e745	0.004544171
181	0x3d81709f	0.06320309
182	0x3bbb9cbd	0.005725472
183	0xbdb796e0	-0.08964324
184	0x3d4b0353	0.049563717
185	0xbcaada93	-0.020856177
186	0x3ddd998b	0.108203016
187	0xbcff8ad7	-0.031194134
188	0xbc95a262	-0.018265907
189	0xbd09c3c4	-0.033633962
190	0xbd59d651	-0.053182904
191	0xbd673584	-0.05644752
192	0x3d0450fe	0.032303803
193	0x3dea207a	0.11431976
194	0xbcddd0d8	-0.027077124
195	0xbd595511	-0.05305964
196	0xbc6a9099	-0.014316701
197	0x3c8e8dda	0.017401624
198	0x3c76d3f2	0.01506518
199	0x3cbe3184	0.02321697
200	0x3d751875	0.059837777
201	0x3c1a2963	0.009409281
202	0xbd7db962	-0.061944373
203	0xbdcea464	-0.10089949
204	0xbd968c6e	-0.073510036
205	0x3c70404e	0.014663769
206	0xbd01e03c	-0.031707987
207	0xbbb3d881	-0.0054884558
208	0x3df047fb	0.11732479
209	0xbd25930a	-0.04042343
210	0xbd770fd7	-0.06031784
211	0x3c859753	0.016307509
212	0x3d9d4612	0.076793805
213	0x3d42b1ed	0.047532964
214	0xbdf9b99c	-0.12193605
215	0x3df2edac	0.118617386
216	0x3d377d31	0.044797126
217	0x3bb7e131	0.0056115617
218	0x3c8e0b62	0.017339412
219	0xbc0cf42a	-0.008603135
220	0xbbd2bbd8	-0.006431084
221	0x3e3e2d24	0.18571907
222	0xbd9ffb29	-0.07811577
223	0xbd8e5e40	-0.069515705
224	0x3d0dff31	0.034667198
225	0x3d88c94f	0.066790216
226	0x3d6fa17d	0.058503617
227	0x3c0f3f58	0.00874313
228	0x3dc218a5	0.09477357
229	0x3cefe69c	0.029284768
230	0x3d20f007	0.039291408
231	0x3cbd6450	0.023119122
232	0x3d757d91	0.059934203
233	0x3d893bb6	0.06700842
234	0x3d550d6e	0.05201476
235	0x3cf0eca2	0.02940971
236	0x3dcf7a77	0.1013078
237	0x3d8c7624	0.06858471
238	0x3dcf77d7	0.101302795
239	0x3cb1f369	0.021722512
240	0xbc319f41	-0.010841192
241	0xbc5ddfd7	-0.013542137
242	0x3d859b80	0.065238
243	0x3ccdb494	0.02511052
244	0x3c463d71	0.01209961
245	0x3bf9fc4c	0.007628953
246	0xbcda525e	-0.026650604
247	0x3cf4f48b	0.029901763
248	0x3d976404	0.07392123
249	0xbcd6a01b	-0.026199391
250	0x3d1fd7a6	0.039024018
251	0xbdb0044b	-0.08594569
252	0x3d6ab0cb	0.05729751
253	0x3cb66612	0.022265468
254	0xbb7944ca	-0.0038035386
255	0x3d539465	0.051655192
