copy_param_ref/checkpoint_actorB_min.pth (torch_old, 594250 bytes, 18 tensors)

bn0.weight f4 [24]
0.5984047 0.5294001 0.6258205 0.54114836 0.92784756 0.8043665 0.40829173 0.17396025
0.61353856 0.18999033 0.6064796 0.47422013 0.5479405 0.9822411 0.60093766 0.6569611
0.78810006 0.34512502 0.40632927 1.0074499 0.35741264 0.658927 0.54503316 0.892325
00000000: 0d31 193f c486 073f c635 203f b388 0a3f
00000010: 6b87 6d3f f7ea 4d3f 9d0b d13e a322 323e
00000020: dd10 1d3f d38c 423e 3f42 1b3f fbcc f23e
00000030: d445 0c3f 2774 7b3f 0dd7 193f 9a2e 283f
00000040: edc0 493f 3ab4 b03e 640a d03e 1ef4 803f
00000050: cafe b63e 71af 283f 4b87 0b3f 696f 643f

bn0.bias f4 [24]
-0.06871786 -0.010371621 -0.048435394 0.046074774 0.069517806 0.027883777 -0.0383486 0.042078346
-0.042950805 -0.007651791 0.04514441 -0.013532671 0.0672832 -0.0083772745 0.068449594 0.015340086
-0.0012623232 0.029479936 0.015971411 -0.007626692 0.026057689 -0.014249047 0.004192142 -0.025218286
00000000: f3bb 8cbd bbed 29bc 3164 46bd e7b8 3c3d
00000010: 5a5f 8e3d 856c e43c 6c13 1dbd 585a 2c3d
00000020: 2fed 2fbd e0bb fabb 58e9 383d 23b8 5dbc
00000030: c6cb 893d d640 09bc 4d2f 8c3d fc54 7b3c
00000040: 8a74 a5ba e87f f13c 7ad6 823c 54e9 f9bb
00000050: ef76 d53c d674 69bc 3c5e 893b 9496 cebc

bn0.running_mean f4 [24]
-9.212196 -0.83885807 0.61769956 -0.06313187 0.064533986 2.5630271 0.61769956 -0.06313187
-9.24162 -0.85003865 1.2397476 -0.1631082 0.07909023 2.560469 1.2397476 -0.1631082
-9.316827 -0.85869926 0.84562624 -0.09679369 0.095776066 2.5463948 0.84562624 -0.09679369
00000000: 2865 13c1 67bf 56bf 8f21 1e3f 484b 81bd
00000010: 652a 843d a308 2440 8f21 1e3f 484b 81bd
00000020: addd 13c1 229c 59bf 0db0 9e3f d605 27be
00000030: 0ffa a13d b9de 2340 0db0 9e3f d605 27be
00000040: b911 15c1 b7d3 5bbf f67a 583f c53b c6bd
00000050: 3e26 c43d 22f8 2240 f67a 583f c53b c6bd

bn0.running_var f4 [24]
6.3608484 1.1202517 191.49219 10.2876005 28.206724 3.3134882 191.49219 10.2876005
5.524671 1.1257409 206.09926 10.213891 28.603952 3.3780656 206.09926 10.213891
4.978845 1.1189262 212.66827 10.358662 29.163471 3.4923596 212.66827 10.358662
00000000: 128c cb40 6864 8f3f 007e 3f43 039a 2441
00000010: 5fa7 e141 3110 5440 007e 3f43 039a 2441
00000020: 1bca b040 4718 903f 6919 4e43 196c 2341
00000030: e5d4 e441 3a32 5840 6919 4e43 196c 2341
00000040: b352 9f40 f938 8f3f 14ab 5443 14bd 2541
00000050: ca4e e941 d282 5f40 14ab 5443 14bd 2541

fc1.weight f4 [512, 24]
0.04197526 -0.024578437 0.047849856 -0.110378504 0.014691674 -0.0408611 0.09427095 -0.111921795
-0.007899932 0.040879674 0.0010895525 -0.055816565 -0.048134543 0.027843725 0.0002547356 -0.054701593
-0.015649911 0.008215386 0.027195608 -0.015220501 -0.12243359 0.07269018 0.02466134 -0.06903392
0.03407916 -0.054852374 -0.007913261 0.0008620586 0.23949772 -0.000105964384 0.027721297 -0.05691492
0.044496566 -0.13765079 0.090331584 -0.017366115 0.038119547 -0.0022840886 0.064275235 -0.042028215
0.04334243 -0.19404845 -0.018256072 -0.052150015 -0.107620105 -0.023678092 -0.04224086 -0.02979706
0.03712361 0.03802597 0.002100795 -0.060537066 0.06285835 -0.1382128 -0.002805456 -0.09699762
-0.027018167 -0.010432271 0.048956826 0.026611095 0.0001872486 0.053363718 6.81078e-05 -0.0064495453
-0.007974287 -0.045663707 0.042891927 -0.11487761 -0.11430982 0.13881381 0.0036754785 -0.14090906
0.03035525 -0.031403422 -0.009044589 -0.058243856 0.013632436 -0.09576161 -0.065092444 -0.072060645
0.056382097 -0.077705674 -0.0074295807 0.00027129543 -0.12255973 0.07348627 -0.0074169356 -0.025814122
0.00029388347 -0.10150324 -0.05285942 0.046654563 -0.18821493 0.07305134 -0.031721495 4.6673675e-05
0.035518657 -0.013930068 0.036536213 -0.0065086815 0.093866915 -0.06017439 0.049298026 -0.002638735
0.059281193 -0.045215312 -0.024011007 -0.007681107 -0.02813734 0.047750615 0.0010465886 -0.0045906454
0.05309382 -0.071222045 0.02889528 -0.014578977 -0.13662499 0.034497116 0.03897845 -0.009052424
-0.032344393 0.05303671 -0.0048618023 0.034118567 0.21109875 -0.023631038 0.0077797966 0.011035182
0.0043570665 0.08912014 -0.057850413 0.049013495 0.062872924 -0.06788109 -0.0076882155 -0.029407296
-0.035420217 0.034013256 0.005713563 0.013579318 -0.00045602955 0.05561522 -0.061437793 -0.043078825
-0.0031700719 -0.007466494 -0.034659073 0.008659235 -0.13630915 -0.08448928 -0.038866524 -0.012148989
-0.013636638 -0.02719555 0.07399301 0.0049387068 -0.004755949 -0.08817639 0.04094035 -0.0038532366
0.014417022 0.06818852 0.08615635 0.009260183 0.026496222 -0.06967426 0.09156854 0.07912158
0.051671688 0.07706498 0.034473073 0.03101507 0.033714958 -0.027083067 0.052376065 -0.02046227
0.016506469 0.08404657 0.022040436 0.04418471 0.039565664 -0.1287539 0.0026999065 0.051743276
-0.008900898 0.12964703 -0.042971406 -0.027207758 0.13663681 -0.10944677 -0.056311615 -0.0030209345
-0.03053509 0.05096098 -0.04223535 0.02122503 -0.062378127 -0.005510682 0.017309438 -0.013157672
-0.008321773 0.057904083 -0.018597685 -0.009824045 0.052568678 -0.05236088 0.010238892 -0.038738195
0.011947314 0.06694861 -0.024216566 -0.017285781 0.12093247 0.029409941 -0.0064228787 -0.015845897
0.0181382 0.071672015 -0.035440616 -0.025185714 -0.008439189 -0.097352184 -0.03076777 -0.00011955441
0.060873266 0.10076161 -0.02351642 0.018756567 0.1139904 -0.15067177 0.02088303 0.008845712
-0.024075884 0.026002677 -0.0026682077 0.0016813375 0.23311104 -0.012185314 -0.018010398 0.023927549
0.057652254 0.110303335 -0.0040271254 -0.006389517 -0.10140645 0.06805885 -0.022954065 0.06473865
0.033612628 0.00035034725 0.014565512 0.020430312 -0.0069747684 0.043295622 0.056264922 0.021941775
00000000: 40ee 2b3d b858 c9bc 36fe 433d 200e e2bd
00000010: 59b5 703c f85d 27bd 2111 c13d 4137 e5bd
00000020: b76e 01bc 7271 273d 51cf 8e3a e99f 64bd
00000030: ba28 45bd 8618 e43c 098e 8539 c70e 60bd
00000040: 3e34 80bc d499 063c 53c9 de3c 695f 79bc
00000050: 76be fabd 97de 943d 9406 ca3c a861 8dbd
00000060: 9796 0b3d e2ac 60bd 9fa6 01bc c6fb 613a
00000070: e43e 753e 3239 deb8 c617 e33c 9f1f 69bd
00000080: 0842 363d 54f4 0cbe c4ff b83d 6243 8ebc
00000090: 3e23 1c3d a6b0 15bb bca2 833d c725 2cbd
000000a0: d587 313d a3b4 46be c28d 95bc 419b 55bd
000000b0: ee67 dcbd 8ff8 c1bc c104 2dbd f718 f4bc
000000c0: ed0e 183d 1fc1 1b3d 7ead 093b b7f5 77bd
000000d0: e1bb 803d a887 0dbe bedb 37bb b0a6 c6bd
000000e0: 3455 ddbc 1eec 2abc f486 483d 83ff d93c
000000f0: 2a58 4439 ea93 5a3d 19d5 8e38 b556 d3bb
00000100: 95a6 02bc de09 3bbd 72af 2f3d f444 ebbd
00000110: 441b eabd 3525 0e3e 4ce0 703b 774a 10be
00000120: 93ab f83c e0a0 00bd c12f 14bc 1c91 6ebd
00000130: 955a 5f3c aa1e c4bd 304f 85bd 8894 93bd
00000140: eaf0 663d 2724 9fbd d773 f3bb a83c 8e39
00000150: 9900 fbbd f87f 963d c409 f3bb 2378 d3bc
00000160: 5f14 9a39 eee0 cfbd 1f83 58bd db18 3f3d
00000170: 6abb 40be f19b 953d 66ee 01bd 7ac3 4338
00000180: 037c 113d f13a 64bc ffa6 153d c746 d5bb
00000190: 4c3d c03d 6c79 76bd baec 493d a1ee 2cbb
000001a0: d6d0 723d b133 39bd bbb2 c4bc ccb1 fbbb
000001b0: 4780 e6bc 2696 433d b02d 893a 206d 96bb
000001c0: e878 593d dddc 91bd cbb5 ec3c a9dc 6ebc
000001d0: 6ce7 0bbe d94c 0d3d dea7 1f3d 9e50 14bc
000001e0: 8e7b 04bd 053d 593d c14f 9fbb e9bf 0b3d
000001f0: 452a 583e e195 c1bc aaed fe3b e8cc 343c
00000200: b9c5 8e3b 9f84 b63d 8ef4 6cbd 60c2 483d
00000210: 85c3 803d 3e05 8bbd 6ded fbbb 92e7 f0bc
00000220: ca14 11bd 7c51 0b3d d738 bb3b ca7b 5e3c
00000230: 4017 efb9 c9cc 633d 32a6 7bbd 6c73 30bd
00000240: fbc0 4fbb 7ea9 f4bb acf6 0dbd 77df 0d3c
00000250: a094 0bbe b708 adbd 8132 1fbd 8e0c 47bc
00000260: 356c 5fbc 34c9 debc a689 973d e0d4 a13b
00000270: cbd7 9bbb d395 b4bd 12b1 273d 9586 7cbb
00000280: 5f35 6c3c 6ca6 8b3d be72 b03d 06b8 173c
00000290: 9b0e d93c 61b1 8ebd 4988 bb3d 7f0a a23d
000002a0: b1a5 533d 3fd4 9d3d a333 0d3d 5113 fe3c
000002b0: b218 0a3d 4fdd ddbc 4988 563d 7ea0 a7bc
000002c0: 9338 873c 9c20 ac3d 258e b43c 07fb 343d
000002d0: 9b0f 223d 10d8 03be eaf0 303b c2f0 533d
000002e0: 12d5 11bc 31c2 043e c902 30bd cee2 debc
000002f0: 85ea 0b3e a125 e0bd 02a7 66bd dffa 45bb
00000300: ba24 fabc 76bc 503d f9fe 2cbd 1de0 ad3c
00000310: 3580 7fbd f392 b4bb 86cc 8d3c 4793 57bc
00000320: 0c58 08bc d52c 6d3d 2c5a 98bc 08f5 20bc
00000330: 4152 573d 5d78 56bd 07c1 273c f1ab 1ebd
00000340: abbe 433c 5a1c 893d d261 c6bc e99a 8dbc
00000350: 71ab f73d 1eed f03c 0377 d2bb 41cf 81bc
00000360: 9096 943c c7c8 923d 2e2a 11bd 4552 cebc
00000370: 8644 0abc 9560 c7bd b10c fcbc 49b9 fab8
00000380: 3f56 793d 1a5c ce3d 82a5 c0bc 5fa7 993c
00000390: cd73 e93d b349 1abe e312 ab3c 9bed 103c
000003a0: ca3a c5bc 9103 d53c 19dd 2ebb 5360 dc3a
000003b0: a9b4 6e3e e9a4 47bc 8b8a 93bc b503 c43c
000003c0: c524 6c3d b7e6 e13d faf5 83bb 275f d1bb
000003d0: 2fae cfbd 7062 8b3d 2a0a bcbc b395 843d
000003e0: 65ad 093d d0ae b739 2fa4 6e3c 785d a73c
000003f0: 998c e4bb c056 313d 0c76 663d 3dbf b33c

fc1.bias f4 [512]
0.09606145 0.122281305 0.070760876 0.09500383 0.13727003 -0.053087816 -0.18207651 0.015621707
0.055577055 0.052231804 -0.015991202 0.1418661 0.114885695 0.02013593 0.0023836372 0.07066647
-0.2603931 -0.1713577 0.13324189 0.041523047 0.059292894 -0.032846548 -0.016029561 0.05180667
0.16349003 -0.06624867 0.05672737 -0.18932346 -0.13774022 -0.11984106 -0.054910142 -0.14738294
0.096613616 0.07021495 0.027958434 0.026405066 -0.044786885 0.08742091 -0.089233056 -0.0013710719
-0.1937587 0.017285142 -0.025424877 -0.15658107 -0.11755986 0.12390173 0.0790812 0.070649736
-0.12816492 0.09418276 -0.11767587 -0.18931296 -0.09513371 0.09672441 0.062966526 0.12800373
0.057809114 -0.12693228 0.034198184 0.048001252 0.09837011 0.12240963 -0.12991172 0.016712269
0.02686898 0.11900417 -0.07391991 0.07954563 0.010919784 0.12186288 -0.1408977 -0.1069038
0.04639395 0.06610538 -0.022738025 0.1182093 0.050724037 -0.010504546 -0.06620742 0.089829266
-0.1124094 0.010769178 -0.10520002 0.04334585 0.05918341 0.0496853 -0.12235977 -0.1835484
0.034884837 0.12125489 0.12409316 0.04095368 0.14540364 0.07972685 0.016155733 -0.058924563
-0.014556676 -0.012061307 0.052408863 -0.06313341 -0.103621095 -0.008347349 -0.18038648 0.1304391
0.14752546 -0.059830308 0.096449405 0.18531032 0.1229923 0.08482795 -0.1662871 0.08537287
0.1223533 0.016043263 0.11591886 -0.0066114115 0.029781044 0.08899783 0.076778024 -0.2642006
0.060534246 0.07044029 -0.026859028 -0.15701929 0.045737986 -0.12046982 -0.15860817 -0.07505895
-0.16233465 0.072495714 0.019486463 -0.17035013 0.088839374 -0.086946815 0.09008505 -0.18011856
0.11564475 -0.055314064 -0.015528217 -0.08417277 -0.10210048 0.10462694 0.08360652 0.00797986
-0.07186537 0.1164159 0.011150086 0.10236014 0.030662265 -0.039531406 -0.107922226 -0.15315174
0.016606472 -0.119596824 -0.029069044 0.118296795 0.02891141 0.008339857 0.026018903 0.12580784
0.13396893 0.02639792 -0.09243329 -0.11245389 -0.088985935 -0.077619776 -0.03287644 -0.07894854
0.015719077 0.117334336 0.08635345 0.039037626 0.01654231 -0.06957647 0.0026686718 0.11258303
-0.16007197 0.026188117 -0.2024774 -0.20682509 -0.12385668 0.02593073 0.09691929 -0.07856703
0.03227921 -4.4986347e-05 0.057602465 0.10358035 0.123769574 -0.006573339 0.03625951 -0.032390125
-0.28192022 0.018350359 -0.044496875 -0.053265415 0.15036887 -0.072542995 0.056990698 -0.124126434
0.05759188 -0.0059701847 -0.025502263 -0.11338799 -0.060317993 -0.00011586161 -0.12683298 0.059078638
0.10318818 0.07737797 -0.08679723 0.118953295 0.07373421 0.13690302 -0.18615171 -0.119685695
-0.034288414 -0.15640621 0.026762817 0.07192478 -0.059479054 -0.21393973 0.0965356 0.04312806
0.11103271 -0.14895341 -0.07175337 -0.19428301 0.13195433 0.10057046 -0.083886944 0.07367963
0.14417644 0.012317073 0.10569965 -0.07373058 0.008321075 -5.72524e-06 0.06868088 -0.05437958
0.08555128 0.010880952 0.10307498 -0.18908958 -0.17505273 0.10067007 -0.030718623 -0.06971808
-0.11289888 0.1127645 -0.19434753 -0.16082695 0.0324904 0.022843612 0.08324996 -0.19763936
00000000: debb c43d 9f6e fa3d 14eb 903d 5e91 c23d
00000010: 8490 0c3e 9c72 59bd 4472 3abe 30f2 7f3c
00000020: c4a4 633d 04f1 553d fbff 82bc 5945 113e
00000030: 3149 eb3d 1bf4 a43c cc36 1c3b 95b9 903d
00000040: 3f52 85be 6578 2fbe 9070 083e 1214 2a3d
00000050: 1bdd 723d 1a8a 06bd 6d50 83bc 3b33 543d
00000060: ee69 273e 62ad 87bd f55a 683d 02de 41be
00000070: c60b 0dbe 3b6f f5bd 75e9 60bd 8eeb 16be
00000080: 5cdd c53d dbcc 8f3d 1609 e53c 704f d83c
00000090: 7472 37bd bc09 b33d d2bf b6bd 8ab5 b3ba
000000a0: ae68 46be 9299 8d3c d547 d0bc ca56 20be
000000b0: 39c3 f0bd 31c0 fd3d 53f5 a13d cfb0 903d
000000c0: aa3d 03be e4e2 c03d 0c00 f1bd 42db 41be
000000d0: 76d5 c2bd 7317 c63d 98f4 803d 6913 033e
000000e0: 40c9 6c3d 89fa 01be 6513 0c3d f69c 443d
000000f0: 4576 c93d e6b1 fa3d 9407 05be 2be8 883c
00000100: 561c dc3c 75b8 f33d 5263 97bd d2e8 a23d
00000110: e5e8 323c 3f93 f93d 7d47 10be 61f0 dabd
00000120: 9507 3e3d 4262 873d 1845 babc b817 f23d
00000130: 02c4 4f3d 421b 2cbc c197 87bd 68f8 b73d
00000140: e636 e6bd 3571 303c 1c73 d7bd 6b8b 313d
00000150: 4e6a 723d d082 4b3d c297 fabd 1df4 3bbe
00000160: 67e3 0e3d 7c54 f83d 8e24 fe3d 0cbf 273d
00000170: b1e4 143e d547 a33d 0759 843c e25a 71bd
00000180: 207f 6ebc ca9c 45bc adaa 563d 174c 81bd
00000190: 4c37 d4bd 52c3 08bc 3cb7 38be d491 053e
000001a0: ea10 173e a010 75bd 4487 c53d fdc1 3d3e
000001b0: 63e3 fb3d 47ba ad3d 2a47 2abe f9d7 ae3d
000001c0: 5e94 fa3d 296d 833c de66 ed3d 8aa4 d8bb
000001d0: 60f7 f33c 7f44 b63d cc3d 9d3d 4d45 87be
000001e0: c2f2 773d 0043 903d 7707 dcbc aac9 20be
000001f0: c157 3b3d e2b8 f6bd 2e6a 22be 82b8 99bd
00000200: 0e3b 26be a278 943d 13a2 9f3c 4470 2ebe
00000210: 6bf1 b53d 2c11 b2bd 837e b83d 0071 38be
00000220: 28d7 ec3d 0091 62bd 106a 7ebc c662 acbd
00000230: 0e1a d1bd a646 d63d e539 ab3d f5bd 023c
00000240: 272e 93bd 766b ee3d daae 363c 31a2 d13d
00000250: 6e2f fb3c afeb 21bd 5406 ddbd cfd3 1cbe
00000260: 4c0a 883c 2eef f4bd 3422 eebc 9745 f23d
00000270: 9fd7 ec3c e5a3 083c 9825 d53c c5d3 003e
00000280: 272f 093e 7340 d83c aa4d bdbd 3a4e e6bd
00000290: 423e b6bd 1ef7 9ebd 72a9 06bd c6af a1bd
000002a0: 4bc5 803c fc4c f03d 14da b03d ebe5 1f3d
000002b0: bd83 873c 1c7e 8ebd e2e4 2e3b ee91 e63d
000002c0: e8e9 23be 7688 d63c 3c56 4fbe f5c9 53be
000002d0: 92a8 fdbd af6c d43c 9f7d c63d c0e7 a0bd
000002e0: 3437 043d b9af 3cb8 90f0 6b3d ef21 d43d
000002f0: e77a fd3d 2a65 d7bb da84 143d 82ab 04bd
00000300: d957 90be 7e53 963c 5b42 36bd d62c 5abd
00000310: 4cfa 193e 6c91 94bd 146f 693d 0036 febd
00000320: 77e5 6b3d 8aa1 c3bb 1fea d0bc f637 e8bd
00000330: 0010 77bd bafa f2b8 81e0 01be 71fc 713d
00000340: 5354 d33d 5778 9e3d bfc2 b1bd c99d f33d
00000350: f601 973d 4e30 0c3e 8e9e 3ebe c61d f5bd
00000360: 0272 0cbd f328 20be b23d db3c 4d4d 933d
00000370: 4fa0 73bd 0413 5bbe 75b4 c53d 0ca7 303d
00000380: 1e65 e33d 3e87 18be 6ef3 92bd 20f2 46be
00000390: 091f 073e e3f7 cd3d ebcc abbd 59e5 963d
000003a0: fda2 133e 8ccd 493c 0f79 d83d 0f00 97bd
000003b0: 1e55 083c 701b c0b6 90a8 8c3d 1fbd 5ebd
000003c0: 8235 af3d 0546 323c fa18 d33d b3a0 41be
000003d0: 0641 33be 1c2c ce3d 9fa5 fbbc 5ac8 8ebd
000003e0: 8737 e7bd 13f1 e63d 0a03 47be d2af 24be
000003f0: a714 053d 8722 bb3c f47e aa3d f961 4abe

bn1.weight f4 [512]
0.744728 0.60661316 0.8627921 0.88854283 0.939511 0.7112679 0.2777565 0.018088758
0.38719034 0.7485821 0.44135106 0.45350152 0.37400222 0.37878215 0.44200832 0.9915254
0.6001386 0.012663603 0.5722238 0.23842657 0.673579 0.20764983 0.32460386 0.23378503
0.25959527 0.8966482 0.97091943 0.3231637 0.8628499 0.6954953 0.4976651 0.13523865
0.8633345 0.18680245 0.6283038 0.6000899 0.28548878 0.8813362 0.5103342 0.45865548
0.62952185 0.45535272 0.17201447 0.035026193 0.97941947 0.1569286 0.2133401 0.55583274
0.7571833 0.84531707 0.5718875 0.023599386 0.56423503 0.18219417 0.7993045 0.24897873
0.5845871 0.36441076 0.61539483 0.8051992 0.65259624 0.77870077 0.8533729 0.92895126
0.8730749 0.0124415755 0.30072016 0.30638623 0.88370365 0.8880615 0.6342276 0.8214946
0.9631175 0.8368928 0.9975419 0.450985 0.72792846 0.053561687 0.06734061 0.41769546
0.27245647 0.5738976 0.56192386 0.9640775 0.71439135 0.5587525 0.45539021 0.35947794
0.20622599 0.28971225 0.5469338 0.67421025 0.65598786 0.57858145 0.8645638 0.2803607
0.09433693 0.18901098 0.38188535 0.8048476 0.15037322 0.31994796 0.7501553 0.6912126
0.80075514 0.2543342 0.24879014 0.89412117 0.12819898 0.34980208 0.89642024 0.13797194
0.6374274 0.15490693 0.93357265 0.49209714 0.5308217 0.30619198 0.3356359 0.48069358
0.5770276 0.4822036 0.1800369 0.65855706 0.62413776 0.42212623 0.68809676 0.5117623
0.14278668 0.98242986 0.3712601 0.8044723 0.2775662 0.8934487 0.6511528 0.76339954
0.6758532 0.31630307 0.07202476 0.061477423 0.22968435 0.59518856 0.29791987 0.7501934
0.009196639 0.6238958 0.7338513 0.46901834 0.95011145 0.036057293 0.1353761 0.29219443
0.8632057 0.7266512 0.662146 0.39992678 0.17050898 0.48636466 0.7698427 0.3224842
0.06404823 0.7422805 0.14384806 0.35312384 0.5561121 0.60772157 0.4012354 0.18305433
0.7656161 0.30484575 0.39318228 0.30644143 0.18395948 0.42533207 0.7361952 0.24647933
0.4945814 0.6749973 0.55147177 0.31623733 0.44092172 0.067974985 0.0075598955 0.62627035
0.34458107 0.13942719 0.76055783 0.5033702 0.5728784 0.2571147 0.8439511 0.7071274
0.84723186 0.04253 0.43384314 0.2770176 0.31732267 0.31265014 0.281079 0.39938736
0.25552803 0.89441955 0.43894714 0.68738544 0.8951774 0.9794609 0.85936284 0.39321655
0.44878346 0.37789428 0.9068755 0.26506627 0.21577859 0.04329151 0.3284877 0.8586296
0.24824911 0.5071224 0.78235674 0.81678647 0.45593935 0.98783743 0.7130718 0.21990371
0.44528103 0.6170689 0.86462 0.44667268 0.96243495 0.53076416 0.7932141 0.45601207
0.48434556 0.5434911 0.71432906 0.13551795 0.13957256 0.48488075 0.298725 0.12966675
0.25673848 0.34698397 0.2000488 0.55022705 0.20735443 0.25012356 0.62913305 0.2870131
0.1734817 0.11304015 0.9783034 0.14663059 0.6125118 0.14191645 0.8153415 0.5255527
00000000: 7fa6 3e3f 004b 1b3f f1df 5c3f 8b77 633f
00000010: cb83 703f a715 363f 1a36 8e3e e02e 943c
00000020: d03d c63e 14a3 3f3f c4f8 e13e 5a31 e83e
00000030: 387d bf3e bcef c13e ea4e e23e 9cd4 7d3f
00000040: afa2 193f 007b 4f3c 427d 123f 1826 743e
00000050: ac6f 2c3f 28a2 543e 7a32 a63e 5865 6f3e
00000060: ace9 843e bd8a 653f 2d8e 783f b675 a53e
00000070: bbe3 5c3f fb0b 323f f6cd fe3e 007c 0a3e
00000080: 7d03 5d3f 2449 3f3e 85d8 203f 7e9f 193f
00000090: 962b 923e 409f 613f 43a5 023f e4d4 ea3e
000000a0: 5828 213f fe23 e93e 9024 303e a077 0f3d
000000b0: 3cbb 7a3f e4b1 203e d475 5a3e 0e4b 0e3f
000000c0: c4d6 413f b366 583f 3867 123f 8053 c13c
000000d0: b571 103f 1c91 3a3e 389f 4c3f 48f4 7e3e
000000e0: 80a7 153f 0c94 ba3e 848a 1d3f 8921 4e3f
000000f0: 8c10 273f ef58 473f a576 5a3f c0cf 6d3f
00000100: d681 5f3f c0d7 4b3c fef7 993e a8de 9c3e
00000110: 673a 623f 0058 633f bd5c 223f 784d 523f
00000120: de8e 763f 9b3e 563f e85e 7f3f 82e7 e63e
00000130: 8559 3a3f 8063 5b3d e0e9 893d 2edc d53e
00000140: 6a7f 8b3e f4ea 123f 3eda 0f3f c8cd 763f
00000150: 5ae2 363f 670a 0f3f e828 e93e 7e0d b83e
00000160: e82c 533e 2a55 943e db03 0c3f 0b99 2c3f
00000170: d2ee 273f ea1d 143f 0e54 5d3f 708b 8f3e
00000180: b833 c13d 188c 413e 7a86 c33e 7e0a 4e3f
00000190: 70fb 193e 38d0 a33e 2e0a 403f 4ff3 303f
000001a0: 4afe 4c3f 1838 823e d8c2 7e3e 20e5 643f
000001b0: 9846 033e 4219 b33e cc7b 653f 8448 0d3e
000001c0: 712e 233f ec9f 1e3e 9efe 6e3f 28f4 fb3e
000001d0: eee3 073f 32c5 9c3e 78d8 ab3e 781d f63e
000001e0: 15b8 133f 64e3 f63e 985b 383e 3297 283f
000001f0: 7ec7 1f3f ee20 d83e 1c27 303f db02 033f
00000200: ac36 123e 8680 7b3f ce15 be3e e6f1 4d3f
00000210: 281d 8e3e 0eb9 643f f3b1 263f 276e 433f
00000220: b704 2d3f 7af2 a13e b881 933d c0cf 7b3d
00000230: 6032 6b3e 475e 183f f488 983e ad0c 403f
00000240: 80ad 163c a3b7 1f3f aedd 3b3f 2c23 f03e
00000250: 813a 733f d0b0 133d 08a0 0a3e 829a 953e
00000260: 0cfb 5c3f d005 3a3f 6682 293f 34c3 cc3e
00000270: e899 2e3e ca04 f93e 6914 453f a61c a53e
00000280: b82b 833d 1806 3e3f e84c 133e a6cc b43e
00000290: 5d5d 0e3f a493 1b3f ba6e cd3e 9872 3b3e
000002a0: 6bff 433f be14 9c3e 304f c93e e4e5 9c3e
000002b0: e05f 3c3e 20c5 d93e 4a77 3c3f 1465 7c3e
000002c0: c639 fd3e a0cc 2c3f 412d 0d3f dce9 a13e
000002d0: 7ec0 e13e 7836 8b3d 00b9 f73b 4153 203f
000002e0: ee6c b03e 00c6 0e3e ebb3 423f dfdc 003f
000002f0: 29a8 123f 8aa4 833e 2e0d 583f 4d06 353f
00000300: 30e4 583f f033 2e3d b020 de3e 40d5 8d3e
00000310: 1e78 a23e ae13 a03e 96e9 8f3e 807c cc3e
00000320: 92d4 823e aef8 643f aebd e03e 7ef8 2f3f
00000330: 592a 653f f3bd 7a3f 34ff 5b3f ae53 c93e
00000340: f2c6 e53e 5c7b c13e fe28 683f c4b6 873e
00000350: 10f5 5c3e 7052 313d 8a2f a83e 26cf 5b3f
00000360: 0435 7e3e c6d2 013f 8848 483f eb18 513f
00000370: e270 e93e eae2 7c3f e08b 363f 702e 613e
00000380: e0fb e33e 3af8 1d3f bc57 5d3f 48b2 e43e
00000390: 2362 763f 29e0 073f 1410 4b3f 6a7a e93e
000003a0: 24fc f73e 3c22 0b3f 45de 363f 38c5 0a3e
000003b0: 1cec 0e3e 4a42 f83e 7cf2 983e 5cc7 043e
000003c0: 3a73 833e e2a7 b13e 98d9 4c3e aedb 0c3f
000003d0: b854 543e 3210 803e dd0e 213f 62f3 923e
000003e0: 30a5 313e 9881 e73d 1772 7a3f 5426 163e
000003f0: 93cd 1c3f 8c52 113e 38ba 503f 9f8a 063f

bn1.bias f4 [512]
0.0 0.0 0.0 0.0 0.0 0.0 0.0 0.0
0.0 0.0 0.0 0.0 0.0 0.0 0.0 0.0
0.0 0.0 0.0 0.0 0.0 0.0 0.0 0.0
0.0 0.0 0.0 0.0 0.0 0.0 0.0 0.0
0.0 0.0 0.0 0.0 0.0 0.0 0.0 0.0
0.0 0.0 0.0 0.0 0.0 0.0 0.0 0.0
0.0 0.0 0.0 0.0 0.0 0.0 0.0 0.0
0.0 0.0 0.0 0.0 0.0 0.0 0.0 0.0
0.0 0.0 0.0 0.0 0.0 0.0 0.0 0.0
0.0 0.0 0.0 0.0 0.0 0.0 0.0 0.0
0.0 0.0 0.0 0.0 0.0 0.0 0.0 0.0
0.0 0.0 0.0 0.0 0.0 0.0 0.0 0.0
0.0 0.0 0.0 0.0 0.0 0.0 0.0 0.0
0.0 0.0 0.0 0.0 0.0 0.0 0.0 0.0
0.0 0.0 0.0 0.0 0.0 0.0 0.0 0.0
0.0 0.0 0.0 0.0 0.0 0.0 0.0 0.0
0.0 0.0 0.0 0.0 0.0 0.0 0.0 0.0
0.0 0.0 0.0 0.0 0.0 0.0 0.0 0.0
0.0 0.0 0.0 0.0 0.0 0.0 0.0 0.0
0.0 0.0 0.0 0.0 0.0 0.0 0.0 0.0
0.0 0.0 0.0 0.0 0.0 0.0 0.0 0.0
0.0 0.0 0.0 0.0 0.0 0.0 0.0 0.0
0.0 0.0 0.0 0.0 0.0 0.0 0.0 0.0
0.0 0.0 0.0 0.0 0.0 0.0 0.0 0.0
0.0 0.0 0.0 0.0 0.0 0.0 0.0 0.0
0.0 0.0 0.0 0.0 0.0 0.0 0.0 0.0
0.0 0.0 0.0 0.0 0.0 0.0 0.0 0.0
0.0 0.0 0.0 0.0 0.0 0.0 0.0 0.0
0.0 0.0 0.0 0.0 0.0 0.0 0.0 0.0
0.0 0.0 0.0 0.0 0.0 0.0 0.0 0.0
0.0 0.0 0.0 0.0 0.0 0.0 0.0 0.0
0.0 0.0 0.0 0.0 0.0 0.0 0.0 0.0
00000000: 0000 0000 0000 0000 0000 0000 0000 0000
00000010: 0000 0000 0000 0000 0000 0000 0000 0000
00000020: 0000 0000 0000 0000 0000 0000 0000 0000
00000030: 0000 0000 0000 0000 0000 0000 0000 0000
00000040: 0000 0000 0000 0000 0000 0000 0000 0000
00000050: 0000 0000 0000 0000 0000 0000 0000 0000
00000060: 0000 0000 0000 0000 0000 0000 0000 0000
00000070: 0000 0000 0000 0000 0000 0000 0000 0000
00000080: 0000 0000 0000 0000 0000 0000 0000 0000
00000090: 0000 0000 0000 0000 0000 0000 0000 0000
000000a0: 0000 0000 0000 0000 0000 0000 0000 0000
000000b0: 0000 0000 0000 0000 0000 0000 0000 0000
000000c0: 0000 0000 0000 0000 0000 0000 0000 0000
000000d0: 0000 0000 0000 0000 0000 0000 0000 0000
000000e0: 0000 0000 0000 0000 0000 0000 0000 0000
000000f0: 0000 0000 0000 0000 0000 0000 0000 0000
00000100: 0000 0000 0000 0000 0000 0000 0000 0000
00000110: 0000 0000 0000 0000 0000 0000 0000 0000
00000120: 0000 0000 0000 0000 0000 0000 0000 0000
00000130: 0000 0000 0000 0000 0000 0000 0000 0000
00000140: 0000 0000 0000 0000 0000 0000 0000 0000
00000150: 0000 0000 0000 0000 0000 0000 0000 0000
00000160: 0000 0000 0000 0000 0000 0000 0000 0000
00000170: 0000 0000 0000 0000 0000 0000 0000 0000
00000180: 0000 0000 0000 0000 0000 0000 0000 0000
00000190: 0000 0000 0000 0000 0000 0000 0000 0000
000001a0: 0000 0000 0000 0000 0000 0000 0000 0000
000001b0: 0000 0000 0000 0000 0000 0000 0000 0000
000001c0: 0000 0000 0000 0000 0000 0000 0000 0000
000001d0: 0000 0000 0000 0000 0000 0000 0000 0000
000001e0: 0000 0000 0000 0000 0000 0000 0000 0000
000001f0: 0000 0000 0000 0000 0000 0000 0000 0000
00000200: 0000 0000 0000 0000 0000 0000 0000 0000
00000210: 0000 0000 0000 0000 0000 0000 0000 0000
00000220: 0000 0000 0000 0000 0000 0000 0000 0000
00000230: 0000 0000 0000 0000 0000 0000 0000 0000
00000240: 0000 0000 0000 0000 0000 0000 0000 0000
00000250: 0000 0000 0000 0000 0000 0000 0000 0000
00000260: 0000 0000 0000 0000 0000 0000 0000 0000
00000270: 0000 0000 0000 0000 0000 0000 0000 0000
00000280: 0000 0000 0000 0000 0000 0000 0000 0000
00000290: 0000 0000 0000 0000 0000 0000 0000 0000
000002a0: 0000 0000 0000 0000 0000 0000 0000 0000
000002b0: 0000 0000 0000 0000 0000 0000 0000 0000
000002c0: 0000 0000 0000 0000 0000 0000 0000 0000
000002d0: 0000 0000 0000 0000 0000 0000 0000 0000
000002e0: 0000 0000 0000 0000 0000 0000 0000 0000
000002f0: 0000 0000 0000 0000 0000 0000 0000 0000
00000300: 0000 0000 0000 0000 0000 0000 0000 0000
00000310: 0000 0000 0000 0000 0000 0000 0000 0000
00000320: 0000 0000 0000 0000 0000 0000 0000 0000
00000330: 0000 0000 0000 0000 0000 0000 0000 0000
00000340: 0000 0000 0000 0000 0000 0000 0000 0000
00000350: 0000 0000 0000 0000 0000 0000 0000 0000
00000360: 0000 0000 0000 0000 0000 0000 0000 0000
00000370: 0000 0000 0000 0000 0000 0000 0000 0000
00000380: 0000 0000 0000 0000 0000 0000 0000 0000
00000390: 0000 0000 0000 0000 0000 0000 0000 0000
000003a0: 0000 0000 0000 0000 0000 0000 0000 0000
000003b0: 0000 0000 0000 0000 0000 0000 0000 0000
000003c0: 0000 0000 0000 0000 0000 0000 0000 0000
000003d0: 0000 0000 0000 0000 0000 0000 0000 0000
000003e0: 0000 0000 0000 0000 0000 0000 0000 0000
000003f0: 0000 0000 0000 0000 0000 0000 0000 0000

bn1.running_mean f4 [512]
0.0 0.0 0.0 0.0 0.0 0.0 0.0 0.0
0.0 0.0 0.0 0.0 0.0 0.0 0.0 0.0
0.0 0.0 0.0 0.0 0.0 0.0 0.0 0.0
0.0 0.0 0.0 0.0 0.0 0.0 0.0 0.0
0.0 0.0 0.0 0.0 0.0 0.0 0.0 0.0
0.0 0.0 0.0 0.0 0.0 0.0 0.0 0.0
0.0 0.0 0.0 0.0 0.0 0.0 0.0 0.0
0.0 0.0 0.0 0.0 0.0 0.0 0.0 0.0
0.0 0.0 0.0 0.0 0.0 0.0 0.0 0.0
0.0 0.0 0.0 0.0 0.0 0.0 0.0 0.0
0.0 0.0 0.0 0.0 0.0 0.0 0.0 0.0
0.0 0.0 0.0 0.0 0.0 0.0 0.0 0.0
0.0 0.0 0.0 0.0 0.0 0.0 0.0 0.0
0.0 0.0 0.0 0.0 0.0 0.0 0.0 0.0
0.0 0.0 0.0 0.0 0.0 0.0 0.0 0.0
0.0 0.0 0.0 0.0 0.0 0.0 0.0 0.0
0.0 0.0 0.0 0.0 0.0 0.0 0.0 0.0
0.0 0.0 0.0 0.0 0.0 0.0 0.0 0.0
0.0 0.0 0.0 0.0 0.0 0.0 0.0 0.0
0.0 0.0 0.0 0.0 0.0 0.0 0.0 0.0
0.0 0.0 0.0 0.0 0.0 0.0 0.0 0.0
0.0 0.0 0.0 0.0 0.0 0.0 0.0 0.0
0.0 0.0 0.0 0.0 0.0 0.0 0.0 0.0
0.0 0.0 0.0 0.0 0.0 0.0 0.0 0.0
0.0 0.0 0.0 0.0 0.0 0.0 0.0 0.0
0.0 0.0 0.0 0.0 0.0 0.0 0.0 0.0
0.0 0.0 0.0 0.0 0.0 0.0 0.0 0.0
0.0 0.0 0.0 0.0 0.0 0.0 0.0 0.0
0.0 0.0 0.0 0.0 0.0 0.0 0.0 0.0
0.0 0.0 0.0 0.0 0.0 0.0 0.0 0.0
0.0 0.0 0.0 0.0 0.0 0.0 0.0 0.0
0.0 0.0 0.0 0.0 0.0 0.0 0.0 0.0
00000000: 0000 0000 0000 0000 0000 0000 0000 0000
00000010: 0000 0000 0000 0000 0000 0000 0000 0000
00000020: 0000 0000 0000 0000 0000 0000 0000 0000
00000030: 0000 0000 0000 0000 0000 0000 0000 0000
00000040: 0000 0000 0000 0000 0000 0000 0000 0000
00000050: 0000 0000 0000 0000 0000 0000 0000 0000
00000060: 0000 0000 0000 0000 0000 0000 0000 0000
00000070: 0000 0000 0000 0000 0000 0000 0000 0000
00000080: 0000 0000 0000 0000 0000 0000 0000 0000
00000090: 0000 0000 0000 0000 0000 0000 0000 0000
000000a0: 0000 0000 0000 0000 0000 0000 0000 0000
000000b0: 0000 0000 0000 0000 0000 0000 0000 0000
000000c0: 0000 0000 0000 0000 0000 0000 0000 0000
000000d0: 0000 0000 0000 0000 0000 0000 0000 0000
000000e0: 0000 0000 0000 0000 0000 0000 0000 0000
000000f0: 0000 0000 0000 0000 0000 0000 0000 0000
00000100: 0000 0000 0000 0000 0000 0000 0000 0000
00000110: 0000 0000 0000 0000 0000 0000 0000 0000
00000120: 0000 0000 0000 0000 0000 0000 0000 0000
00000130: 0000 0000 0000 0000 0000 0000 0000 0000
00000140: 0000 0000 0000 0000 0000 0000 0000 0000
00000150: 0000 0000 0000 0000 0000 0000 0000 0000
00000160: 0000 0000 0000 0000 0000 0000 0000 0000
00000170: 0000 0000 0000 0000 0000 0000 0000 0000
00000180: 0000 0000 0000 0000 0000 0000 0000 0000
00000190: 0000 0000 0000 0000 0000 0000 0000 0000
000001a0: 0000 0000 0000 0000 0000 0000 0000 0000
000001b0: 0000 0000 0000 0000 0000 0000 0000 0000
000001c0: 0000 0000 0000 0000 0000 0000 0000 0000
000001d0: 0000 0000 0000 0000 0000 0000 0000 0000
000001e0: 0000 0000 0000 0000 0000 0000 0000 0000
000001f0: 0000 0000 0000 0000 0000 0000 0000 0000
00000200: 0000 0000 0000 0000 0000 0000 0000 0000
00000210: 0000 0000 0000 0000 0000 0000 0000 0000
00000220: 0000 0000 0000 0000 0000 0000 0000 0000
00000230: 0000 0000 0000 0000 0000 0000 0000 0000
00000240: 0000 0000 0000 0000 0000 0000 0000 0000
00000250: 0000 0000 0000 0000 0000 0000 0000 0000
00000260: 0000 0000 0000 0000 0000 0000 0000 0000
00000270: 0000 0000 0000 0000 0000 0000 0000 0000
00000280: 0000 0000 0000 0000 0000 0000 0000 0000
00000290: 0000 0000 0000 0000 0000 0000 0000 0000
000002a0: 0000 0000 0000 0000 0000 0000 0000 0000
000002b0: 0000 0000 0000 0000 0000 0000 0000 0000
000002c0: 0000 0000 0000 0000 0000 0000 0000 0000
000002d0: 0000 0000 0000 0000 0000 0000 0000 0000
000002e0: 0000 0000 0000 0000 0000 0000 0000 0000
000002f0: 0000 0000 0000 0000 0000 0000 0000 0000
00000300: 0000 0000 0000 0000 0000 0000 0000 0000
00000310: 0000 0000 0000 0000 0000 0000 0000 0000
00000320: 0000 0000 0000 0000 0000 0000 0000 0000
00000330: 0000 0000 0000 0000 0000 0000 0000 0000
00000340: 0000 0000 0000 0000 0000 0000 0000 0000
00000350: 0000 0000 0000 0000 0000 0000 0000 0000
00000360: 0000 0000 0000 0000 0000 0000 0000 0000
00000370: 0000 0000 0000 0000 0000 0000 0000 0000
00000380: 0000 0000 0000 0000 0000 0000 0000 0000
00000390: 0000 0000 0000 0000 0000 0000 0000 0000
000003a0: 0000 0000 0000 0000 0000 0000 0000 0000
000003b0: 0000 0000 0000 0000 0000 0000 0000 0000
000003c0: 0000 0000 0000 0000 0000 0000 0000 0000
000003d0: 0000 0000 0000 0000 0000 0000 0000 0000
000003e0: 0000 0000 0000 0000 0000 0000 0000 0000
000003f0: 0000 0000 0000 0000 0000 0000 0000 0000

bn1.running_var f4 [512]
1.0 1.0 1.0 1.0 1.0 1.0 1.0 1.0
1.0 1.0 1.0 1.0 1.0 1.0 1.0 1.0
1.0 1.0 1.0 1.0 1.0 1.0 1.0 1.0
1.0 1.0 1.0 1.0 1.0 1.0 1.0 1.0
1.0 1.0 1.0 1.0 1.0 1.0 1.0 1.0
1.0 1.0 1.0 1.0 1.0 1.0 1.0 1.0
1.0 1.0 1.0 1.0 1.0 1.0 1.0 1.0
1.0 1.0 1.0 1.0 1.0 1.0 1.0 1.0
1.0 1.0 1.0 1.0 1.0 1.0 1.0 1.0
1.0 1.0 1.0 1.0 1.0 1.0 1.0 1.0
1.0 1.0 1.0 1.0 1.0 1.0 1.0 1.0
1.0 1.0 1.0 1.0 1.0 1.0 1.0 1.0
1.0 1.0 1.0 1.0 1.0 1.0 1.0 1.0
1.0 1.0 1.0 1.0 1.0 1.0 1.0 1.0
1.0 1.0 1.0 1.0 1.0 1.0 1.0 1.0
1.0 1.0 1.0 1.0 1.0 1.0 1.0 1.0
1.0 1.0 1.0 1.0 1.0 1.0 1.0 1.0
1.0 1.0 1.0 1.0 1.0 1.0 1.0 1.0
1.0 1.0 1.0 1.0 1.0 1.0 1.0 1.0
1.0 1.0 1.0 1.0 1.0 1.0 1.0 1.0
1.0 1.0 1.0 1.0 1.0 1.0 1.0 1.0
1.0 1.0 1.0 1.0 1.0 1.0 1.0 1.0
1.0 1.0 1.0 1.0 1.0 1.0 1.0 1.0
1.0 1.0 1.0 1.0 1.0 1.0 1.0 1.0
1.0 1.0 1.0 1.0 1.0 1.0 1.0 1.0
1.0 1.0 1.0 1.0 1.0 1.0 1.0 1.0
1.0 1.0 1.0 1.0 1.0 1.0 1.0 1.0
1.0 1.0 1.0 1.0 1.0 1.0 1.0 1.0
1.0 1.0 1.0 1.0 1.0 1.0 1.0 1.0
1.0 1.0 1.0 1.0 1.0 1.0 1.0 1.0
1.0 1.0 1.0 1.0 1.0 1.0 1.0 1.0
1.0 1.0 1.0 1.0 1.0 1.0 1.0 1.0
00000000: 0000 803f 0000 803f 0000 803f 0000 803f
00000010: 0000 803f 0000 803f 0000 803f 0000 803f
00000020: 0000 803f 0000 803f 0000 803f 0000 803f
00000030: 0000 803f 0000 803f 0000 803f 0000 803f
00000040: 0000 803f 0000 803f 0000 803f 0000 803f
00000050: 0000 803f 0000 803f 0000 803f 0000 803f
00000060: 0000 803f 0000 803f 0000 803f 0000 803f
00000070: 0000 803f 0000 803f 0000 803f 0000 803f
00000080: 0000 803f 0000 803f 0000 803f 0000 803f
00000090: 0000 803f 0000 803f 0000 803f 0000 803f
000000a0: 0000 803f 0000 803f 0000 803f 0000 803f
000000b0: 0000 803f 0000 803f 0000 803f 0000 803f
000000c0: 0000 803f 0000 803f 0000 803f 0000 803f
000000d0: 0000 803f 0000 803f 0000 803f 0000 803f
000000e0: 0000 803f 0000 803f 0000 803f 0000 803f
000000f0: 0000 803f 0000 803f 0000 803f 0000 803f
00000100: 0000 803f 0000 803f 0000 803f 0000 803f
00000110: 0000 803f 0000 803f 0000 803f 0000 803f
00000120: 0000 803f 0000 803f 0000 803f 0000 803f
00000130: 0000 803f 0000 803f 0000 803f 0000 803f
00000140: 0000 803f 0000 803f 0000 803f 0000 803f
00000150: 0000 803f 0000 803f 0000 803f 0000 803f
00000160: 0000 803f 0000 803f 0000 803f 0000 803f
00000170: 0000 803f 0000 803f 0000 803f 0000 803f
00000180: 0000 803f 0000 803f 0000 803f 0000 803f
00000190: 0000 803f 0000 803f 0000 803f 0000 803f
000001a0: 0000 803f 0000 803f 0000 803f 0000 803f
000001b0: 0000 803f 0000 803f 0000 803f 0000 803f
000001c0: 0000 803f 0000 803f 0000 803f 0000 803f
000001d0: 0000 803f 0000 803f 0000 803f 0000 803f
000001e0: 0000 803f 0000 803f 0000 803f 0000 803f
000001f0: 0000 803f 0000 803f 0000 803f 0000 803f
00000200: 0000 803f 0000 803f 0000 803f 0000 803f
00000210: 0000 803f 0000 803f 0000 803f 0000 803f
00000220: 0000 803f 0000 803f 0000 803f 0000 803f
00000230: 0000 803f 0000 803f 0000 803f 0000 803f
00000240: 0000 803f 0000 803f 0000 803f 0000 803f
00000250: 0000 803f 0000 803f 0000 803f 0000 803f
00000260: 0000 803f 0000 803f 0000 803f 0000 803f
00000270: 0000 803f 0000 803f 0000 803f 0000 803f
00000280: 0000 803f 0000 803f 0000 803f 0000 803f
00000290: 0000 803f 0000 803f 0000 803f 0000 803f
000002a0: 0000 803f 0000 803f 0000 803f 0000 803f
000002b0: 0000 803f 0000 803f 0000 803f 0000 803f
000002c0: 0000 803f 0000 803f 0000 803f 0000 803f
000002d0: 0000 803f 0000 803f 0000 803f 0000 803f
000002e0: 0000 803f 0000 803f 0000 803f 0000 803f
000002f0: 0000 803f 0000 803f 0000 803f 0000 803f
00000300: 0000 803f 0000 803f 0000 803f 0000 803f
00000310: 0000 803f 0000 803f 0000 803f 0000 803f
00000320: 0000 803f 0000 803f 0000 803f 0000 803f
00000330: 0000 803f 0000 803f 0000 803f 0000 803f
00000340: 0000 803f 0000 803f 0000 803f 0000 803f
00000350: 0000 803f 0000 803f 0000 803f 0000 803f
00000360: 0000 803f 0000 803f 0000 803f 0000 803f
00000370: 0000 803f 0000 803f 0000 803f 0000 803f
00000380: 0000 803f 0000 803f 0000 803f 0000 803f
00000390: 0000 803f 0000 803f 0000 803f 0000 803f
000003a0: 0000 803f 0000 803f 0000 803f 0000 803f
000003b0: 0000 803f 0000 803f 0000 803f 0000 803f
000003c0: 0000 803f 0000 803f 0000 803f 0000 803f
000003d0: 0000 803f 0000 803f 0000 803f 0000 803f
000003e0: 0000 803f 0000 803f 0000 803f 0000 803f
000003f0: 0000 803f 0000 803f 0000 803f 0000 803f

fc2.weight f4 [256, 512]
0.052228548 0.043372907 0.06111594 0.04598623 -0.023777891 -0.035221007 0.018363997 0.016770102
-0.013529265 -0.021873208 -0.011227707 0.048211 0.061312716 0.0128814 -0.085385 0.0513122
0.04774444 0.0061990204 0.081128255 0.034952186 0.061264917 -0.07231945 0.09996819 0.037553113
-0.05204291 0.108880684 0.029330485 0.048515256 -0.059205256 0.11505582 0.053768642 -0.10738724
0.107749924 0.086253025 0.0038355284 0.028598357 -0.060338628 0.052410312 -0.115921654 0.06323314
-0.057628702 -0.08414327 -0.029918855 0.0744146 0.0032095457 0.07296762 0.09529728 0.031199252
0.0006719025 0.044036545 -0.0737453 0.14501798 0.14712133 -0.034126785 0.06995895 -0.039988067
0.03209403 0.19279301 -0.018574728 0.02590881 0.02216358 -0.0065889573 0.13768598 0.013308979
-0.012699155 0.063268036 -0.068468176 0.058592673 0.06147946 0.06116748 -0.123382 0.0021834613
-0.05144487 0.027976194 0.007385588 0.013875999 0.08402709 -0.11067274 0.044169 0.031666268
0.12422285 0.070111305 -0.07481774 -0.002711212 0.03268324 0.014225703 -0.032380607 0.023715826
0.1289464 -0.05946191 0.081201196 -0.03526375 0.04730729 0.09474124 0.032900788 0.109222315
0.042002864 0.06939384 0.07129221 -0.026526056 0.052667838 -0.09112962 0.07882462 0.04002031
0.062255267 -0.020703956 0.10939249 0.035438232 0.045260496 -0.03230074 0.08945305 0.052870616
0.12061914 0.048529763 0.044407625 -0.037937906 0.06258956 -0.007889178 0.08638855 0.008728058
0.010759164 0.056850057 0.012818374 0.02098081 -0.0037559827 0.032427125 -0.13559571 0.02981235
-0.1191203 -0.0514777 0.025358988 0.05007318 0.004629124 0.103502825 -0.017870605 0.025792548
0.04651924 0.08968862 -0.013583198 0.0037718315 0.011021461 0.01751569 -0.022149697 -0.03985934
-0.08303774 -0.04785787 0.035962626 0.066027924 0.030600406 0.054905135 -0.08419981 -0.0685784
0.027892232 -0.07935885 -0.013883804 0.023639347 -0.03059768 0.08538819 0.06057135 0.09526925
0.04166687 0.04443672 -0.04571333 -0.14533728 0.0015299614 0.018519828 0.07322086 0.09773284
0.08421851 0.044293404 0.047615625 -0.07602015 -0.0130405435 0.118865296 0.12760001 0.008115377
0.013976051 0.04739144 -0.062057145 0.054076336 -0.008912594 0.06902054 -0.013050619 0.050503563
0.045837022 -0.11816864 0.09331014 -0.018084962 0.03586015 -0.004543299 -0.081712805 -0.08382923
0.15208481 0.086037606 -0.018450536 -0.060419798 -0.01975617 0.06884281 -0.011471851 -0.019853078
0.06635766 0.010823318 -0.05605166 -0.120930865 -0.089950025 0.0010532152 -0.062248457 -0.0037539327
0.078372255 -0.026906954 0.12059645 0.007234218 -0.042852625 0.04291548 -0.19537579 0.011617309
0.025447201 -0.0013794744 0.08359378 -0.019578278 0.013323602 0.18860567 0.004707026 -0.018403988
0.074646786 0.0049298033 0.05043009 -0.046350513 0.08134048 -0.0071124653 0.04608651 -0.053795062
0.088591635 0.0072153434 0.09179002 0.11099051 -0.037164122 0.08999885 0.07967847 0.0009780349
0.007536271 -0.010920121 0.06681617 0.06489142 0.018396033 0.031036275 -0.101512775 0.056625355
0.021686515 -0.021884013 -0.020816652 -0.071985796 0.053389743 0.015011196 -0.02370319 -0.012987379
00000000: 9aed 553d caa7 313d b554 7a3d 0f5c 3c3d
00000010: dac9 c2bc e743 10bd 1870 963c 7461 893c
00000020: daa9 5dbc 712f b3bc 6bf4 37bc e678 453d
00000030: 0b23 7b3d 820c 533c 55de aebd be2c 523d
00000040: ad8f 433d 2721 cb3b 9226 a63d 062a 0f3d
00000050: ecf0 7a3d 381c 94bd 1fbc cc3d 4bd1 193d
00000060: f22a 55bd d6fc de3d 7c46 f03c efb7 463d
00000070: 3681 72bd 63a2 eb3d 823c 5c3d d7ed dbbd
00000080: feab dc3d 6da5 b03d 7d5d 7b3b 1a47 ea3c
00000090: a325 77bd 32ac 563d 5568 edbd 6080 813d
000000a0: 130c 6cbd 4f53 acbd 6318 f5bc af66 983d
000000b0: 3e57 523b 0c70 953d 382b c33d 9395 ff3c
000000c0: 9d22 303a aa5f 343d c707 97bd 987f 143e
000000d0: f9a6 163e 87c8 0bbd a346 8f3d 87ca 23bd
000000e0: 0875 033d 886b 453e 072a 98bc b63e d43c
000000f0: 6590 b53c 2ee8 d7bb 8efd 0c3e e70d 5a3c
00000100: 1e10 50bc ac92 813d 0b39 8cbd dffe 6f3d
00000110: e3d1 7b3d c08a 7a3d b4af fcbd 6718 0f3b
00000120: dbb7 52bd 552e e53c cd02 f23b 2858 633c
00000130: 6516 ac3d 64a8 e2bd 8eea 343d 7db4 013d
00000140: 8d68 fe3d 8496 8f3d 0b3a 99bd 97ae 31bb
00000150: dcde 053d ec12 693c 87a1 04bd b147 c23c
00000160: 860a 043e 558e 73bd d04c a63d b970 10bd
00000170: 4ac5 413d b207 c23d fac2 063d f3af df3d
00000180: 320b 2c3d 5c1e 8e3d a601 923d 2c4d d9bc
00000190: 3bba 573d 2ba2 babd cd6e a13d 56ec 233d
000001a0: 61ff 7e3d 589b a9bc 2b09 e03d ae27 113d
000001b0: 1263 393d c84d 04bd 2933 b73d dc8e 583d
000001c0: 2b07 f73d 25c7 463d c5e4 353d c764 1bbd
000001d0: f52e 803d 9c41 01bc 7bec b03d 2100 0f3c
000001e0: 3447 303c 9bdb 683d 2804 523c f3df ab3c
000001f0: ef26 76bb 4ed2 043d 9ad9 0abe 0839 f43c
00000200: 58f5 f3bd 48da 52bd a7bd cf3c 8919 4d3d
00000210: e8af 973b 4af9 d33d 6065 92bc e54a d33c
00000220: f58a 3e3d abae b73d 108c 5ebc d530 773b
00000230: 5c93 343c 107d 8f3c 4873 b5bc 8c43 23bd
00000240: b10f aabd 9d06 44bd 8c4d 133d a639 873d
00000250: b4ad fa3c 35e4 603d f370 acbd d572 8cbd
00000260: 407e e43c e586 a2bd e578 63bc 4ea7 c13c
00000270: fca7 fabc 01e0 ae3d aa19 783d 861c c33d
00000280: e1aa 2a3d 4703 363d e73d 3bbd 4cd3 14be
00000290: fc88 c83a e5b6 973c d1f4 953d 2828 c83d
000002a0: c17a ac3d 006d 353d 9a08 433d 74b0 9bbd
000002b0: 01a8 55bc a66f f33d 94a9 023e 5cf6 043c
000002c0: cefb 643c 871d 423d a22f 7ebd 267f 5d3d
000002d0: 2106 12bc a45a 8d3d 43d2 55bc d3dc 4e3d
000002e0: 9abf 3b3d 6602 f2bd 6319 bf3d ea26 94bc
000002f0: 18e2 123d f4df 94bb 0b59 a7bd a9ae abbd
00000300: 1fbc 1b3e 7c34 b03d 9425 97bc c07a 77bd
00000310: b1d7 a1bc 76fd 8c3d 6ef4 3bbc eca2 a2bc
00000320: 86e6 873d 4954 313c 6d96 65bd 9aaa f7bd
00000330: b837 b8bd 0a0c 8a3a 3df8 7ebd 8a04 76bb
00000340: a281 a03d f96b dcbc 46fb f63d 050d ed3b
00000350: 3c86 2fbd 24c8 2f3d 9710 48be 8756 3e3c
00000360: a676 d03c 7bcf b4ba 3733 ab3d a062 a0bc
00000370: 3d4b 5a3c d821 413e 653d 9a3b f6c3 96bc
00000380: 6ae0 983d 308a a13b c88f 4e3d 09da 3dbd
00000390: d695 a63d af0f e9bb 35c5 3c3d 3658 5cbd
000003a0: 886f b53d b06e ec3b 68fc bb3d fe4e e33d
000003b0: 6839 18bd 5151 b83d 772e a33d 6831 803a
000003c0: d3f2 f63b 4fea 32bc ebd6 883d cbe5 843d
000003d0: 47b3 963c c93f fe3c eee5 cfbd fdef 673d
000003e0: eba7 b13c 1a46 b3bc af87 aabc 4a6d 93bd
000003f0: 34af 5a3d 85f1 753c 312d c2bc 04c9 54bc

fc2.bias f4 [256]
0.038948625 -0.0332229 0.013243561 0.0010886407 0.039543085 0.011511753 0.044243295 0.02361019
0.014013829 0.008312993 0.005382196 0.013403221 0.018300962 0.0021986053 -0.007857864 0.032142475
0.022891149 0.01856825 0.0504086 0.021487802 0.04554101 0.027633898 0.0008238042 0.012373985
-0.040001355 0.016701315 0.05960218 0.059234686 0.054692615 -0.038285006 -0.0137927625 0.015499006
0.05713823 -0.00017272992 0.024688503 0.031794056 -0.008485143 0.0020640017 0.06745913 -0.054825284
0.045651402 -0.027534788 -0.038277805 0.03441094 0.030123156 -0.019622214 0.04217784 -0.033779778
0.051428623 0.0077249706 0.015750406 -0.027535783 -0.008516092 0.073914476 0.010283854 0.03595213
0.0132605415 0.0015865305 0.010586182 0.020733206 0.04485494 -0.035622638 0.03347272 -0.03342536
0.02962773 -0.0014604614 -0.030026393 -0.012399885 -0.0078067663 -0.023496857 0.0001322655 0.02795042
0.02493165 0.048036214 0.018724302 0.028942712 -0.01774371 -0.026425974 0.040883865 -0.010348797
0.043091778 -0.011793727 0.05330012 0.024126502 -0.021255981 0.07448733 0.012062036 0.035178207
-0.049044583 0.022431508 0.041090794 0.031628463 -0.004579205 0.009863315 0.03897864 -0.0050359364
0.018882735 0.046887968 0.023389516 0.040467937 -0.005591004 0.013595706 0.024809338 0.036727935
-0.016157178 0.004155993 0.03835886 0.054598443 0.058934566 0.016487528 -0.0020717566 0.028453924
-0.051598348 0.07015735 -0.04894706 -0.047531616 -0.009152233 -0.0013641568 0.053962976 0.011562288
-0.018229334 0.05002971 0.0022849615 0.026019018 0.023280267 0.017321235 -0.03576581 0.024815375
0.03282514 0.023555355 0.023600105 0.01247762 0.01600924 -0.010547397 0.035846118 0.03634762
0.041085508 0.0071529583 0.06405702 0.026114823 0.09125317 -0.00029199757 0.03818987 0.021706512
0.014386603 0.025173241 0.02673121 -0.03358926 -0.04139711 0.0074054752 -0.0087950025 0.025505442
0.07079331 0.042750202 0.003571401 0.06349401 0.0053431415 -0.021853643 0.0009304832 0.0017364407
0.014062562 0.05003258 0.0005611622 -0.004036327 -0.01984559 0.024534686 0.021123832 0.021980152
-0.012410279 0.0032908502 0.018279389 0.002427724 -0.034702748 -0.012887227 -0.026693486 0.025813352
-0.01597944 0.040092856 -0.027488502 0.030056331 0.013053675 0.02139097 0.014412335 -0.0025168695
-0.035529535 0.024123559 -0.009074169 -0.015715756 0.093711875 0.023262583 0.029903214 0.06656709
0.014903158 0.0592689 -0.018244522 0.031978488 -0.025181953 0.035435162 0.026656372 -0.026107792
-0.014364578 0.042326123 0.010721049 0.05030665 0.020755641 0.019818025 -0.023698261 -0.019966573
-0.05230533 0.03565187 -0.0045448965 -0.013148747 0.012333572 0.002616643 0.011698264 0.037404608
0.0044616526 0.0042624148 0.005433318 0.034586433 -0.010386455 0.010440745 0.012476683 0.029152887
-0.0014039533 -0.0041212095 -0.030075941 0.037074473 0.044782855 -0.007391037 0.003877161 0.02103217
-0.001047935 0.016512226 0.020775992 -0.019935243 0.046809483 -0.0264111 -0.022626305 -0.021798538
0.038694434 -0.00566026 0.0350082 0.028905667 -0.002802392 0.019194704 0.002524259 0.01957914
0.056693766 0.07380553 -0.010524219 0.012168542 0.044883754 -0.015331973 -0.006862943 0.05950701
00000000: 9888 1f3d bc14 08bd 85fb 583c b8b0 8e3a
00000010: eef7 213d cb9b 3c3c 7538 353d 286a c13c
00000020: 429a 653c 3833 083c 225d b03b 2f99 5b3c
00000030: e6eb 953c 7a16 103b 45be 00bc d4a7 033d
00000040: 3886 bb3c 711c 983c 4079 4e3d 3007 b03c
00000050: 3689 3a3d 7c60 e23c 90f4 573a 41bc 4a3c
00000060: 76d8 23bd 32d1 883c 6a21 743d 12a0 723d
00000070: 5d05 603d bdd0 1cbd 0afb 61bc 8bef 7d3c
00000080: c709 6a3d d61e 35b9 8b3f ca3c 7c3a 023d
00000090: 4505 0bbc 3444 073b 0328 8a3d 7a90 60bd
000000a0: f7fc 3a3d a390 e1bc 30c9 1cbd 7cf2 0c3d
000000b0: d6c4 f63c c4be a0bc acc2 2c3d aa5c 0abd
000000c0: d2a6 523d c021 fd3b ff06 813c b992 e1bc
000000d0: 1487 0bbc 7960 973d 9c7d 283c 8a42 133d
000000e0: be42 593c 21f3 cf3a aa71 2d3c afd8 a93c
000000f0: d0b9 373d 0be9 11bd b11a 093d 08e9 08bd
00000100: dab5 f23c f46c bfba e9f9 f5bc e328 4bbc
00000110: e7cf ffbb 7b7c c0bc c0b0 0a39 47f8 e43c
00000120: 763d cc3c 9fc1 443d b563 993c 4419 ed3c
00000130: 425b 91bc 497b d8bc d775 273d 008e 29bc
00000140: 0181 303d 7a3a 41bc 3a51 5a3d f1a4 c53c
00000150: 0621 aebc d08c 983d d99f 453c 0617 103d
00000160: f9e2 48bd 48c2 b73c d24e 283d d98c 013d
00000170: 280d 96bb be99 213c 11a8 1f3d 7f04 a5bb
00000180: f7af 9a3c 990d 403d 5f9b bf3c b5c1 253d
00000190: be34 b7bb 86c0 5e3c f43c cb3c 0870 163d
000001a0: 0f5c 84bc ff2e 883b 2e1e 1d3d 9ea2 5f3d
000001b0: 5f65 713d da10 873c 4fc6 07bb 3418 e93c
000001c0: ca58 53bd a8ae 8f3d b67c 48bd 83b0 42bd
000001d0: 3ff3 15bc 82cd b2ba 4808 5d3d c06f 3d3c
000001e0: af55 95bc f4eb 4c3d 4bbf 153b d625 d53c
000001f0: 42b6 be3c 43e5 8d3c 2c7f 12bd 9d49 cb3c
00000200: a773 063d 29f7 c03c 0255 c13c ee6e 4c3c
00000210: cf25 833c fdce 2cbc 61d3 123d 3ee1 143d
00000220: 4749 283d 5d63 ea3b 5430 833d c1ee d53c
00000230: f1e2 ba3d 4017 99b9 fb6c 1c3d dbd1 b13c
00000240: c9b5 6b3c 1d38 ce3c 69fb da3c e494 09bd
00000250: 0490 29bd a1a9 f23b ea18 10bc caf0 d03c
00000260: 15fc 903d d61a 2f3d 2a0e 6a3b 2609 823d
00000270: 8515 af3b 6906 b3bc aceb 733a 4899 e33a
00000280: a966 663c f6ee 4c3d f51a 133a 2a43 84bb
00000290: 3893 a2bc f7fc c83c e30b ad3c b80f b43c
000002a0: 7c54 4bbc 4eab 573b a8be 953c 731a 1f3b
000002b0: 7824 0ebd f324 53bc 4cac dabc 8676 d33c
000002c0: 51e7 82bc 6838 243d 912f e1bc b238 f63c
000002d0: 15df 553c 1e3c af3c b721 6c3c 10f2 24bb
000002e0: 6b87 11bd c59e c53c d3ab 14bc 54be 80bc
000002f0: 03ec bf3d 2c91 be3c 96f7 f43c 5454 883d
00000300: 602c 743c f2c3 723d 8975 95bc e0fb 023d
00000310: 624a cebc 7624 113d 775e da3c 02e0 d5bc
00000320: 6859 6bbc 285e 2d3d 57a7 2f3c 590e 4e3d
00000330: bc07 aa3c 6959 a23c db22 c2bc f090 a3bc
00000340: 1d3e 56bd b207 123d 5bed 94bb d86d 57bc
00000350: c012 4a3c fc7b 2b3b 13aa 3f3c 9335 193d
00000360: 0e33 923b baab 8b3b fa09 b23b 81aa 0d3d
00000370: f32b 2abc a90f 2b3c 006b 4c3c 09d2 ee3c
00000380: db04 b8ba 360b 87bb d261 f6bc 67db 173d
00000390: 3a6e 373d 8330 f2bb f817 7e3b a84b ac3c
000003a0: dd5a 89ba a644 873c 6a32 aa3c 3c4f a3bc
000003b0: 4dbb 3f3d 175c d8bc cd5a b9bc d992 b2bc
000003c0: 0e7e 1e3d b479 b9bb c264 0f3d 94cb ec3c
000003d0: 56a8 37bb 363e 9d3c 0a6e 253b 6f64 a03c
000003e0: b937 683d 5b27 973d c66d 2cbc 905e 473c
000003f0: 07d8 373d f532 7bbc 8ae2 e0bb 9fbd 733d
