update_every_multiple_steps/checkpoint_critic_TAU_1e-1_update30.pth (torch_old, 539401 bytes, 17 tensors)

bn0.weight f4 [24]
000000 ea be 21 3f 3a 54 eb 3e 61 38 01 3f 99 31 0b 3f
       0.63181937 0.45962697 0.5047665 0.54372555
000010 31 d2 4c 3f 74 0c 2f 3f f6 bf bf 3e 57 8c 2a 3e
       0.80008227 0.68378377 0.37451142 0.16655098
000020 fd 9d 20 3f de b2 63 3e d0 73 f2 3e a6 82 12 3f
       0.6274107 0.22236201 0.47353983 0.57230604
000030 60 96 f8 3e 29 25 7a 3f 6c f6 ea 3e a5 cd 3d 3f
       0.48552227 0.9771295 0.4589113 0.74141914
000040 b7 6d 3a 3f 53 a3 a6 3e 0a 8d 91 3e 7d 5f 87 3f
       0.7282366 0.32546481 0.28427917 1.0576016
000050 76 0d 3e 3e 2d c4 10 3f e8 9b d3 3e 60 7e 6f 3f
       0.18559822 0.5654934 0.41329885 0.9355221

bn0.bias f4 [24]
000000 b7 23 07 bd 79 4c 3d 3c 09 0b e9 bc 6b 35 82 bc
       -0.032993045 0.011553877 -0.028447645 -0.015894612
000010 0a fc a5 3c 37 b9 a7 3c 58 56 c1 3c 5e db bd bc
       0.020261783 0.02047406 0.023600742 -0.023175891
000020 9b 17 0e bd 33 92 58 3c 2a e8 48 bd d2 bf a0 bc
       -0.03469048 0.01321845 -0.049049534 -0.019622717
000030 51 94 27 3c 75 e3 e3 3b af b1 33 3c e6 95 72 bd
       0.0102282325 0.006954605 0.010967656 -0.059224986
000040 f7 a1 71 bd ec 4a 05 3c c4 21 08 3c 0b 95 2d bd
       -0.058992352 0.008135539 0.008308832 -0.042378467
000050 7e b9 c5 3b ed fc ff 3a 88 0f ad bc a0 60 14 bd
       0.0060340753 0.0019530334 -0.02112557 -0.03622496

bn0.running_mean f4 [24]
000000 8f e4 08 c1 3b c6 b2 be b5 48 19 3f a0 a6 44 3e
       -8.5558 -0.34916863 0.5987657 0.19204187
000010 bb 56 3f 3d 26 e5 67 40 b5 48 19 3f a0 a6 44 3e
       0.046713572 3.623361 0.5987657 0.19204187
000020 c9 ea 0b c1 a5 32 b4 be 21 ce 48 3f 65 57 3d 3e
       -8.744821 -0.3519489 0.7843953 0.1849037
000030 bd dd 1d 3c e4 85 68 40 21 ce 48 3f 65 57 3d 3e
       0.009635386 3.633172 0.7843953 0.1849037
000040 91 cd 0e c1 cb 59 b7 be a7 23 4f 3f a5 13 0b 3e
       -8.925187 -0.35810694 0.80913776 0.13581713
000050 4e 4a 76 3b b0 f5 67 40 a7 23 4f 3f a5 13 0b 3e
       0.003758091 3.6243706 0.80913776 0.13581713

bn0.running_var f4 [24]
000000 dd 92 10 41 58 10 6b 3f 46 96 61 43 e5 80 60 41
       9.035855 0.91821814 225.587 14.031468
000010 62 d5 02 42 50 40 4c 40 46 96 61 43 e5 80 60 41
       32.70838 3.1914253 225.587 14.031468
000020 73 2a ee 40 e4 bb 6e 3f 3f 98 6a 43 4a e3 67 41
       7.442682 0.9325545 234.59471 14.4929905
000030 cb 03 0b 42 0b c8 4e 40 3f 98 6a 43 4a e3 67 41
       34.753704 3.2309597 234.59471 14.4929905
000040 da 19 b7 40 8b 7b 73 3f e9 75 74 43 df c4 6e 41
       5.7219057 0.95110387 244.46059 14.923064
000050 c5 f8 13 42 79 75 5c 40 e9 75 74 43 df c4 6e 41
       36.99294 3.44467 244.46059 14.923064

fcs1.weight f4 [400, 24]
000000 06 fe f0 bc 96 6e 63 3d 85 a4 42 bc 3d 09 1a bc
       -0.029418003 0.055525385 -0.011880045 -0.009401617
000010 da a2 4b 3c a7 eb be bd ff 0f 12 3c aa 4d 3e 3b
       0.012428964 -0.09322291 0.008914947 0.002903799
000020 fa ec 01 ba 2b f2 07 3b 26 15 86 3c c9 67 ee bc
       -0.0004956272 0.0020743709 0.016367506 -0.029102223
000030 f6 92 0a 3d 20 23 73 3c b0 0b 47 bc 15 e3 b4 bc
       0.03383156 0.014839917 -0.012148783 -0.022080937
000040 41 14 0e 3d a7 e0 bd 3a 9c 2e c4 bc c0 87 9a 3d
       0.034687284 0.0014486507 -0.023948006 0.075454235
000050 6f 3e a3 3c e3 aa f1 3d 5d ba a0 3c 78 fc 2c 3d
       0.019927232 0.11800172 0.019620115 0.04223296
000060 1f 57 42 3c 60 73 13 bd 8e b3 e2 bc 4a 1c 92 3d
       0.011861592 -0.035998702 -0.027673509 0.07134302
000070 c2 7d 1e 3c ad 1c b0 3c 00 58 d4 3c c4 e3 35 3c
       0.009673538 0.021498049 0.025920868 0.011101667
000080 f5 b8 cb 3b b6 70 3d bc 75 91 f3 3c 47 fa 17 bc
       0.006217117 -0.011562517 0.029732445 -0.009275979
000090 f0 2f b3 bc e8 6f 1f bd 4f 24 b8 3c 37 5f 1d 3d
       -0.021873444 -0.03892508 0.02247825 0.038420882
0000a0 4c 63 a0 3d 87 99 be 3c ea fd 1a bd e7 bd 2e 3d
       0.078314394 0.023266567 -0.037839808 0.042661574
0000b0 ed fd cb 3c a3 62 58 bd 27 18 4a bd cb 06 55 3d
       0.024901355 -0.052828442 -0.04933944 0.05200843
0000c0 50 b8 05 bd 35 9e d3 bc 07 c0 02 bd a8 4b 76 bd
       -0.032646477 -0.025832275 -0.031921413 -0.060130745
0000d0 fc 8f 20 bc c2 67 be bc c3 db 14 3d 8a 9a 67 bb
       -0.009799954 -0.023242835 0.036342394 -0.0035339915
0000e0 ed 6d 1f 3d 11 cb 4b bd c1 4c 3f bd 8c 58 5d bd
       0.038923193 -0.049754206 -0.046704058 -0.054039523
0000f0 c7 dd 4a 3c c7 22 1c 3d 5a b8 4c 3c 42 c9 a0 bd
       0.012381977 0.038119104 0.012495125 -0.07850887
000100 cd bd 14 3d 41 1f 26 bd 6d 6f 03 bd 10 7f 7a bd
       0.03631382 -0.04055715 -0.032088686 -0.061156332
000110 06 2a c4 bb 4d fd 73 3d 27 fe 35 3c a2 5a 45 3c
       -0.005986455 0.05956774 0.011107958 0.012045534
000120 8a ef 2f bd 11 9e 33 bc 60 3f a1 3b 49 ae 0b 3c
       -0.04295305 -0.010962979 0.004920885 0.00852544
000130 a0 a9 46 bc 50 c0 08 3d 07 a3 fa 3b 71 f0 02 3d
       -0.012125403 0.03338653 0.007648829 0.031967584
000140 13 3b 68 3b 53 61 e7 bc ea 70 b0 bc 5f 30 97 3c
       0.0035435602 -0.02824465 -0.021538217 0.018455682
000150 4e 1b ae bd 7b f7 12 3c 69 fa e5 3b 19 13 96 bc
       -0.08501302 0.008970137 0.0070183766 -0.018319653
000160 7a 79 a5 bb 79 e8 08 3d ae 1b 99 bc 49 ca 66 3d
       -0.0050498815 0.03342483 -0.018689957 0.056345258
000170 64 af 06 be e5 9f 76 3d bc 7b 79 bc f1 40 44 bc
       -0.13152844 0.06021108 -0.0152272545 -0.011978374
000180 cb 36 a8 3b 4f 64 23 3d ba cc e6 bc 00 93 6f bc
       0.005133485 0.039890584 -0.028173793 -0.01462245
000190 e3 77 6c 3c bb c6 d7 3c 2b 99 fd 3a 0f a3 20 3d
       0.01443288 0.02633988 0.0019348016 0.039218005
0001a0 e5 c3 d6 bc 0e b4 a0 3c 31 e3 ab bc 35 72 34 bd
       -0.026216457 0.019617107 -0.020982357 -0.04405423
0001b0 4b d9 25 3c 9b 94 3a 3c ef 79 e1 3c 59 8b a0 3c
       0.010122607 0.011387969 0.027523963 0.019597696
0001c0 70 ab c2 bc a6 57 38 3c 8b a4 9a 3c cd f9 e1 bc
       -0.023763388 0.011251366 0.018877288 -0.027584935
0001d0 85 47 5d bc b3 5d 9a bb 37 ff 40 bd 31 0c 02 3d
       -0.013505821 -0.004710877 -0.04711839 0.031749908
0001e0 36 37 29 bc e8 76 41 3d f2 4b 7e 39 e9 59 3b 3c
       -0.010328105 0.04723254 0.0002425162 0.0114350105
0001f0 2e 65 02 3d 27 8c c5 bc 9c eb d8 ba 00 4e b4 3c
       0.031834774 -0.024114681 -0.0016549709 0.02200985
000200 7e 72 9e bc 8e 4f 94 ba 4a 5e c8 bc b8 e3 f8 bc
       -0.019341704 -0.0011315213 -0.024459023 -0.030382022
000210 32 b5 17 bd a8 4c 8e 3d e3 26 53 3c 45 6d 18 bb
       -0.037038036 0.06948215 0.012887689 -0.002325849
000220 1b 40 b1 3c 62 76 09 3d 99 b9 c5 bc e5 e2 10 3c
       0.021637013 0.033560164 -0.024136351 0.008843158
000230 88 c3 ab bd 30 a7 7d 3d 1a e5 22 3d 9f 7d 1d bd
       -0.08386904 0.06192702 0.03976927 -0.03844988
000240 41 e4 80 bd d5 dc 88 3d 5f cd 61 3c f7 00 56 3d
       -0.06293536 0.06682745 0.013781874 0.052247014
000250 06 c6 11 bd 81 59 9e bc 04 a8 c9 bb 47 b3 31 bb
       -0.03558924 -0.019329788 -0.006154062 -0.0027114914
000260 2d df 05 bd 36 1e 18 3e 0b d2 d6 3c 85 98 cb bc
       -0.03268354 0.14855275 0.026223203 -0.024853
000270 1d 3f 5a bb a9 b6 85 3a c1 0c 01 bd ea 54 9b bc
       -0.0033301779 0.0010201532 -0.031506304 -0.018961389
000280 12 58 de bc bc 0b 1d 3e 33 f3 5c 3c ca 05 50 bc
       -0.027141605 0.15336508 0.013485718 -0.012696693
000290 9a 5b b0 3d fa 17 db 3c 72 e9 0c bd bf cc 8a bd
       0.086112216 0.026744831 -0.03440232 -0.067773335
0002a0 d3 58 b7 3c dd f0 fa 3c 6d 45 89 3c 3f 90 8d 3c
       0.022381222 0.03063243 0.016756738 0.017280696
0002b0 3e 43 3f bd d1 d4 a9 3c 76 55 fd bc 97 f1 30 bd
       -0.046694987 0.020731362 -0.03092454 -0.043199148
0002c0 2e c5 50 3d 15 c9 26 bd e5 4a 06 3d 9b 90 b0 3c
       0.050969295 -0.04071911 0.03278627 0.021553328
0002d0 c1 e0 18 3d ba 05 bc 3c 30 a8 30 bd 90 0f c7 bc
       0.037323717 0.02295195 -0.043129146 -0.024299413
0002e0 a1 35 ce bb 8d 56 6a 3d c6 de 0a bd fe ac 91 bc
       -0.006293014 0.057211448 -0.03390386 -0.017782684
0002f0 e0 9c 24 bd ff cf a3 3d 77 66 17 3d 50 f7 ea 3c
       -0.04018867 0.079986565 0.036962952 0.02868238
000300 67 62 91 ba dd ac fb 3b 9c f1 b9 bc 0d aa fa 3c
       -0.0011091948 0.007680519 -0.022698216 0.030598665
000310 02 79 9c 3d a7 a5 28 bc e5 a7 57 bc 15 73 88 3c
       0.07640268 -0.010293401 -0.013162588 0.016656438
000320 05 01 95 3d c9 d3 a9 3c 08 c5 8f bd 25 3b 81 3d
       0.07275585 0.02073087 -0.070200026 0.06310109
000330 66 2a 93 bd d7 9f 85 bd 75 39 cb 3b 1b 48 01 3d
       -0.07185821 -0.06524628 0.006201918 0.031562906
000340 ef 2c f5 bc be c5 4b bc 73 9e 27 3d de f8 41 3d
       -0.029928653 -0.012437282 0.040922593 0.04735648
000350 79 d6 85 bd 90 bc 5f 3d 2d 60 b5 3b 62 f9 0a bc
       -0.06535048 0.054623187 0.0055351467 -0.008482309
000360 9e 7f b8 3a dc d8 34 bc e0 ae 16 bc 51 77 7c 3a
       0.0014076119 -0.011038031 -0.009196967 0.00096308166
000370 d7 4c 43 bd ce 56 b6 bc ac 10 64 bb 43 ef 37 3b
       -0.047680702 -0.022258189 -0.0034799976 0.0028066195
000380 de 7b 1b bc 75 43 e7 3c d1 cf 63 bd cc 2c 26 3c
       -0.009489981 0.028230408 -0.05561811 0.010142516
000390 9d 66 fb bc c7 83 ce 3b 5b 15 e4 3c 4d 26 42 3d
       -0.030688578 0.00630233 0.027842214 0.047399808
0003a0 b5 5f 11 bc 10 14 9b bb cb f8 18 3b 4c 7f 4d bc
       -0.008872916 -0.0047326162 0.0023341652 -0.012542557
0003b0 8a 46 f2 bd b6 a7 94 3d 92 65 00 bd de ae fc bc
       -0.118298605 0.07258551 -0.031346865 -0.030845102
0003c0 13 20 76 bd f6 3f ab 3c b6 be 8f bd dc 35 03 3d
       -0.060089182 0.020904522 -0.07018797 0.032033786
0003d0 03 f3 d2 bd 23 d9 ce ba 66 ab 73 bd d1 01 b5 3c
       -0.10300257 -0.0015781265 -0.05948963 0.022095593
0003e0 bf 8c da bc 78 84 11 3c 59 40 41 bc 4d 2b 4e 3c
       -0.026678441 0.008881681 -0.011795127 0.012583566
0003f0 9e b0 d6 3c e0 78 9e bb be 1f 3f 3d f3 8f 96 3c
       0.026207265 -0.0048361868 0.04666113 0.018379187

fcs1.bias f4 [400]
000000 12 44 87 3d a0 c6 b0 bd 92 d9 42 bd 60 0a d3 ba
       0.0660478 -0.08631635 -0.047570772 -0.0016101114
000010 c3 26 2c be 2a a5 f4 3c 36 9e 41 be cc 10 4a 3e
       -0.16811661 0.029863913 -0.18908009 0.1973297
000020 20 4f dd 3c 63 02 46 3e 7e bc e7 bd 95 49 eb bd
       0.027015269 0.19336848 -0.11315249 -0.11488644
000030 af 70 15 3e 0e b2 32 be 32 06 aa 3d 98 fe 28 be
       0.14593767 -0.17450735 0.08301963 -0.1650337
000040 08 23 e6 3d 77 7d 19 be 0a c4 4d 3e 75 b0 3f 3e
       0.112371504 -0.14989267 0.20094314 0.18719657
000050 5c 28 b3 bc 38 0f 8d bd 84 9a 21 3e 81 fc d2 3d
       -0.02186983 -0.06887668 0.157816 0.103020675
000060 9c f1 1e 3e fc 6e 18 3e f0 95 19 3e 41 43 33 3e
       0.15521854 0.14886087 0.14998603 0.17506124
000070 14 13 05 bd 96 2d 13 be 8d 8d 91 3d e6 0f d4 3d
       -0.032488897 -0.14372858 0.07107077 0.10354595
000080 2a 66 e0 bd 59 2c b4 bd f1 91 9a 3d af 0d 18 bc
       -0.10956986 -0.08797521 0.07547367 -0.009280606
000090 15 d3 95 3d 64 c2 45 be c4 c9 e4 bd 5d 6c 48 3d
       0.07315651 -0.19312435 -0.11171296 0.04893147
0000a0 88 6f b8 3d 12 35 03 bd 51 34 8b 3d ac dd a4 3d
       0.09005648 -0.032033034 0.06797088 0.08050093
0000b0 ca 95 ef bd 7a c5 1f 3e 60 35 b5 3d d0 da 2f 3e
       -0.11698492 0.15602675 0.08848071 0.17173314
0000c0 9a 69 f1 3b 6f 1c f0 3d d9 b5 88 bd f6 6c fa bc
       0.007367325 0.11724173 -0.0667531 -0.030569535
0000d0 f1 5e 10 be e5 5e 09 3e 32 a8 a2 3d 6b d5 3e 3e
       -0.14098717 0.13415106 0.07942237 0.186361
0000e0 2b 9a 49 3e 5e 03 41 bd d3 b2 43 3d 64 a2 2b 3e
       0.19687717 -0.04712235 0.047777962 0.16761166
0000f0 a2 90 04 be 82 62 2c 3e 7e 41 e9 3c 10 8d 35 be
       -0.12945798 0.16834453 0.028473612 -0.17729592
000100 73 b2 2a be 7e d1 aa 3d a2 c7 8c bd 54 45 cb 3d
       -0.16669635 0.08340739 -0.068740144 0.09925333
000110 85 ae 1b 3e 31 4f a0 3d bf 32 3f bc 12 a3 6c 3d
       0.15203293 0.078276046 -0.011669814 0.057772703
000120 f1 8e 9f 3d 20 5c 20 3e 2f 35 6a 3d 94 5a 37 be
       0.07790936 0.15660143 0.057179626 -0.17905647
000130 89 f7 e5 3d 63 f0 be bc 68 da 86 3b c0 e9 e3 bd
       0.11228854 -0.023307985 0.0041153915 -0.11128569
000140 f6 07 36 3e f8 e0 12 bb 4c cf 74 3d a5 90 45 3e
       0.17776474 -0.0022411924 0.059768006 0.19293459
000150 b0 be 23 be 3b ac 1c 3e a5 13 82 3d 3e ea 32 be
       -0.1599071 0.15300076 0.06351403 -0.17472169
000160 7b 31 ee bd 2f 0c 41 3d 53 ea 8c bd bf c1 46 be
       -0.116305314 0.04713076 -0.06880631 -0.19409846
000170 cc bc d9 bc c6 cc 80 3d d4 70 e4 bd 1d d4 01 be
       -0.026579283 0.062890574 -0.11154333 -0.12678571
000180 e5 b5 b5 3d 61 79 e8 bc 89 39 22 be d4 63 37 be
       0.08872584 -0.02837819 -0.1584226 -0.17909175
000190 7a 23 bd bd 7c 66 26 be d1 e1 f4 3d 60 6f 87 3d
       -0.09235282 -0.16250032 0.119571336 0.0661304
0001a0 c5 be 9a bd 81 99 0b be 86 79 e8 3d 51 06 49 3d
       -0.07555918 -0.13632776 0.11351304 0.04907829
0001b0 ba e8 10 be 58 21 5b 3d 4f a1 eb 3d 72 6c b3 3c
       -0.14151278 0.053498596 0.115053765 0.021902297
0001c0 8c 81 d9 3d 6f 32 f0 3c 52 e7 5b bb 38 06 d4 bd
       0.10620412 0.029320924 -0.0033554626 -0.10352749
0001d0 79 ff 85 3d 13 ec 03 be 0a 32 a6 bd a3 4b a0 bd
       0.06542868 -0.12883024 -0.08115013 -0.078269266
0001e0 76 b1 b8 bd 5c 2b 33 3e 5b 72 30 be 89 37 9f 3c
       -0.09018223 0.17497009 -0.17231123 0.01943566
0001f0 af 88 85 3d 7a 51 7b bd e7 b6 0d 3e 43 4d 68 3d
       0.06520211 -0.061357 0.13839303 0.056714308
000200 ba 5d 96 bd f4 ac 25 be c8 e6 1a be ae 47 5d bc
       -0.07342096 -0.16179258 -0.15127099 -0.013505859
000210 c1 8f 3b 3e 6a 17 d3 3d c7 d1 a1 3d d6 5f 4c bd
       0.18316557 0.103072 0.0790134 -0.049896084
000220 fe ff 6d bd fa f7 8d 3d f5 99 19 be ab 94 0f 3d
       -0.05810546 0.069320634 -0.15000136 0.03505389
000230 e1 90 0c 3d 16 77 60 3c e5 41 30 bd 73 cc 2c be
       0.034317855 0.013700267 -0.043031592 -0.16874866
000240 92 51 b2 3d 43 59 16 3d 98 7e df bd 87 f0 19 3d
       0.087069646 0.03670622 -0.10912818 0.0375829
000250 86 55 09 3e 34 74 29 bc b7 97 26 be db 02 52 bd
       0.13411531 -0.010342646 -0.16268812 -0.051272254
000260 d3 92 13 3c 26 12 c3 3c 74 8f fd bd 41 04 02 be
       0.009007174 0.023812365 -0.12380877 -0.12696935
000270 09 4a 51 3c 3d 56 21 bd 08 d8 42 be 06 db e8 bd
       0.012773999 -0.039388884 -0.19027722 -0.113699004
000280 cf ed 11 3e fa 3f 08 3e c8 75 98 bd ef 2d ed bd
       0.14250873 0.13305655 -0.0744434 -0.11581027
000290 92 cd 0f be 50 3d 40 bd 69 9e c0 3d b7 a9 85 bd
       -0.14043263 -0.046933472 0.09405214 -0.06526511
0002a0 cb c6 ee 3d 3a c9 cb 3c ae 55 fc bd cd 71 e8 3d
       0.116590105 0.024876226 -0.123210296 0.11349831
0002b0 33 d3 d7 bd bb 35 26 be db c9 a0 bd 9e 57 b3 3c
       -0.1053833 -0.16231434 -0.07851001 0.021892365
0002c0 e5 bb 01 3c 51 01 1a 3c 84 dc 0c 3e e8 b4 0e 3e
       0.007918333 0.009399728 0.13755995 0.13936198
0002d0 8f 4e bd 3d 77 89 12 be d4 de 39 3e ca 6a 84 bd
       0.092434995 -0.14310251 0.18151408 -0.06465681
0002e0 a3 83 50 3e f2 7e 2a 3e 42 7e d9 3d 7b 13 f9 bd
       0.20362715 0.16649988 0.10619785 -0.12161919
0002f0 13 6e f8 3d 1e 01 d7 3d 30 df 18 be 3c 69 b6 3c
       0.1213037 0.1049826 -0.1492889 0.022266977
000300 f1 c5 10 3c 23 12 14 3b 14 91 0f be 29 6a 23 3e
       0.008836255 0.0022593818 -0.14020187 0.15958466
000310 58 3e 07 be fd 12 f5 3d c6 4c 1a 3c 3c eb 53 bc
       -0.13207376 0.11966512 0.009417718 -0.012934502
000320 3a 2c ad 3d fe 1e 36 bd 64 4f ee 3a e2 3c 81 3c
       0.08455701 -0.04446315 0.0018181619 0.015776101
000330 02 80 5e 3d ba 20 d9 bd d7 8f 24 be cf 27 1b be
       0.054321297 -0.10601945 -0.16070496 -0.15151905
000340 0c aa 58 bd fb 20 1e 3e b6 2d 15 3e ef 4e 02 3e
       -0.052896544 0.15442269 0.14568219 0.12725423
000350 d2 8f be 3d 1d c0 44 be c2 32 1e 3e cd 9b 01 3e
       0.09304775 -0.1921391 0.1544905 0.1265709
000360 18 25 4d 3e 6b 06 da 3b 4c e4 91 3d 16 cf 0f 3d
       0.20033681 0.006653597 0.07123622 0.035109602
000370 af ba ee 3d 10 cb 08 3e 6a f6 1a 3e 1e d1 45 3e
       0.11656701 0.13358712 0.15133062 0.19318053
000380 fe d6 0b bd 54 97 05 be a7 6c c3 bd d1 52 37 be
       -0.03414058 -0.13046008 -0.09542208 -0.17902686
000390 e1 b1 3f be e1 cb 25 3e 73 b1 d0 3d 81 e9 9f bd
       -0.18720199 0.16191055 0.10190096 -0.07808209
0003a0 81 b8 1b be 2c f8 be bb 3f 0c ca bd 33 7f a1 3d
       -0.15207101 -0.0058279242 -0.09865617 0.078855895
0003b0 23 2f ca 3d 6c 30 0b 3c 53 53 26 3e 7c a2 39 3e
       0.09872272 0.008495431 0.16242723 0.18128389
0003c0 5f fc 07 3e 31 25 06 be 80 4a 46 bd db ef 36 39
       0.13279866 -0.13100125 -0.048410892 0.00017446226
0003d0 37 43 29 3e 07 aa 2d be 5b 05 68 bb 19 6b d7 3d
       0.16529547 -0.16959392 -0.0035403583 0.10518474
0003e0 d9 34 24 be 9f d3 e4 3d fc 13 4d 3e c2 d6 22 bd
       -0.16035785 0.11173176 0.20027155 -0.03975559
0003f0 05 96 36 3b fa cc ab 3d eb 26 78 3d f9 a6 42 be
       0.0027860415 0.083887056 0.06058399 -0.19009008

bn1.weight f4 [400]
000000 7d 22 75 3f e0 01 88 3d d4 94 43 3f 0d 69 09 3f
       0.9575575 0.06640983 0.7639897 0.5367592
000010 9b a7 69 3f 44 49 07 3f 34 87 cc 3e 32 2c e0 3e
       0.9127137 0.5284617 0.39946902 0.43783718
000020 bc 4f 07 3e 51 42 69 3f f6 96 4d 3f a8 92 17 3f
       0.1321401 0.91116816 0.80308473 0.59208155
000030 02 c0 f5 3e 4a d2 92 3e 6b 4b 06 3f 6f e0 23 3f
       0.47998053 0.28676063 0.5245883 0.64014333
000040 a6 8e a3 3e f9 43 08 3f 8c 8f 6a 3f d0 54 0f 3e
       0.3194477 0.5322872 0.91625285 0.13997197
000050 6e 4e aa 3e 50 3e 63 3f 1c 1d 75 3f d1 44 6a 3f
       0.33262962 0.88766956 0.9574754 0.91511256
000060 88 95 bb 3e 9c 31 4e 3f 56 90 20 3f ca 8c c5 3e
       0.3663752 0.8054445 0.6272024 0.38583976
000070 96 27 d9 3e 72 0c 5d 3f 22 cc 55 3f a6 2d 51 3f
       0.42413014 0.86347115 0.83514607 0.8171028
000080 32 07 a2 3e 00 20 b7 38 b4 d9 99 3e c4 63 35 3f
       0.31646115 8.7320805e-05 0.30048907 0.70855355
000090 80 88 b4 3c 4f 13 48 3f cc c7 86 3e ba 99 56 3f
       0.022037745 0.7815446 0.26324308 0.8382832
0000a0 60 80 10 3e 10 69 9b 3e 00 46 e0 3c d4 62 24 3e
       0.14111471 0.30353594 0.027377129 0.16053325
0000b0 1c b9 c7 3e 06 5a c0 3e a7 10 00 3f f9 7d 3f 3f
       0.39008415 0.37568682 0.5002541 0.74801594
0000c0 9a 13 ab 3e 37 01 56 3f 6e e5 ca 3e ec 7b 88 3e
       0.33413392 0.83595604 0.39628166 0.26657045
0000d0 48 7c d9 3e fe 55 36 3f 8c ef 81 3e 48 01 ce 3d
       0.42477632 0.71224964 0.25378072 0.10058838
0000e0 90 45 c1 3d 62 73 e9 3e a8 e3 35 3f b1 fa 50 3f
       0.09437096 0.45595843 0.710505 0.81632525
0000f0 eb c3 07 3f 0e 1f c1 3e 20 59 ab 3e e0 ae 8a 3c
       0.5303332 0.37719005 0.33466434 0.01692909
000100 1c 19 0e 3e a8 41 a3 3e 88 1b d6 3e 0b 90 2e 3f
       0.13876766 0.3188603 0.4181788 0.6818854
000110 6f ec 5a 3f ec c2 77 3e c0 e9 38 3e c0 fa 07 3c
       0.8551702 0.2419545 0.18057919 0.00829953
000120 b0 58 1d 3f 52 be 7e 3f 79 6b 57 3f 99 f5 77 3f
       0.6146345 0.99509156 0.84148365 0.9685913
000130 60 44 1d 3f f4 4f 9d 3e 4a 95 66 3f 3d 47 22 3f
       0.61432457 0.30725062 0.9007155 0.6338995
000140 f8 0d 4b 3f c0 15 2f 3e b4 2b a1 3e f0 06 56 3e
       0.7931819 0.1709814 0.31478655 0.20901084
000150 d8 e9 ae 3d 4c 51 59 3f 70 02 37 3e d0 7c 30 3e
       0.08540696 0.84889674 0.17872024 0.17235112
000160 5e fb ea 3e a0 e3 22 3e e0 be 11 3f 9a 12 9d 3e
       0.45894903 0.15907145 0.5693188 0.30678254
000170 b8 6b 5e 3f 29 6b 25 3f 71 d0 0d 3f 54 06 2e 3f
       0.86883116 0.6461664 0.5539618 0.67978406
000180 ce 69 da 3e 80 59 48 3c 18 14 71 3f 9e 8a db 3e
       0.42658848 0.01222837 0.94171286 0.42879194
000190 9b 20 04 3f 78 43 8a 3e 0e 40 5b 3f b4 85 cc 3e
       0.5161225 0.270046 0.85644615 0.39945757
0001a0 ae fa b2 3e a4 f2 19 3f c2 ee d0 3e 7c 7b b7 3e
       0.34956878 0.60135865 0.40807158 0.358364
0001b0 4f 6a 17 3f 97 a0 4b 3f ec f4 24 3e 07 3a 6b 3f
       0.5914659 0.79541916 0.16109055 0.9188542
0001c0 0e a0 45 3f 54 de 50 3f 3c 3c 11 3f e8 70 f9 3e
       0.7719735 0.81589246 0.56732535 0.48718953
0001d0 ea 0d df 3e f8 1b f3 3e 18 d1 04 3e 50 6d c5 3e
       0.43565303 0.47482276 0.12970388 0.3855996
0001e0 ee f1 1c 3f d8 63 6a 3e d4 ac 59 3f 87 11 47 3f
       0.61306655 0.2288965 0.8502934 0.7776112
0001f0 20 65 9d 3e 3a 3c b6 3e a0 c9 da 3e 9e 4c 07 3f
       0.30741215 0.35592824 0.42731953 0.52851284
000200 28 37 79 3f d5 a1 37 3f 6c e0 54 3f a0 cb ef 3e
       0.97349787 0.7173131 0.8315494 0.4683504
000210 d6 fd 02 3f d8 ca b9 3d 07 b5 06 3f e8 c9 3d 3f
       0.5116857 0.090718925 0.52619976 0.7413621
000220 e0 21 32 3e 21 a1 22 3f 70 7a 5b 3f b6 e0 fe 3e
       0.17395735 0.63527113 0.857337 0.49780816
000230 40 cf 63 3e 48 91 79 3f bb 18 56 3f 00 8a b1 3b
       0.22247028 0.97487307 0.83631486 0.005418062
000240 6c 64 37 3e 89 65 49 3f 68 99 ba 3d 68 6d e3 3e
       0.17909402 0.78670555 0.09111291 0.44419408
000250 7c 2f 7a 3f 7c 4c 50 3e d2 22 40 3f c8 75 4b 3f
       0.97728705 0.20341676 0.7505313 0.79476595
000260 c8 0b 4e 3f 4c 42 3c 3e 1e 74 de 3e e3 35 4b 3f
       0.80486727 0.18384665 0.43447965 0.793791
000270 de f9 9f 3e 10 49 78 3f 68 82 62 3e 18 12 a1 3e
       0.3124532 0.96986485 0.22120059 0.31459117
000280 6f f2 13 3f a0 db 52 3e fe 0c af 3e bc dc 35 3f
       0.577918 0.20591593 0.341896 0.7103994
000290 98 84 9d 3e 00 9a 9e 3a e6 ae cd 3e 08 de 0b 3e
       0.30765224 0.0012100339 0.401725 0.13658917
0002a0 66 b9 4f 3f 58 c0 82 3e f7 e5 5e 3f d4 1d 48 3f
       0.8114227 0.25537372 0.8706965 0.78170514
0002b0 eb 88 0c 3f e1 8f 11 3f b8 c5 75 3e c0 1d 42 3f
       0.5489642 0.56860167 0.24001205 0.75826645
0002c0 f6 5f 67 3f 58 7a 3f 3e a8 3b b2 3e 27 2e 05 3f
       0.903808 0.18699014 0.3481114 0.5202355
0002d0 88 f6 42 3f 36 95 6f 3f 63 f0 2a 3f 0e 59 03 3f
       0.76157427 0.9358705 0.6677305 0.5130776
0002e0 ba 63 03 3f ec 66 5d 3f ed e6 5b 3f 60 f7 df 3c
       0.51324046 0.8648517 0.8589924 0.027339637
0002f0 0a 10 92 3e 78 36 15 3e 60 2b d4 3d 0e 35 dc 3e
       0.28527862 0.1457156 0.103598356 0.43009228
000300 16 6e 6a 3f 70 50 17 3e 80 ff 31 3c b4 7e 29 3f
       0.9157423 0.14776778 0.010864139 0.6620896
000310 46 88 d5 3e 9a 4d 1b 3f a2 d9 f5 3e 97 d0 34 3f
       0.4170553 0.60665286 0.48017603 0.7063078
000320 c0 17 47 3d a0 7f fe 3c 78 80 a7 3e 97 d9 08 3f
       0.048606634 0.031066716 0.327152 0.53457016
000330 15 30 10 3f 4a 74 0c 3f bb cb 1f 3f 3a ef 2a 3f
       0.5632337 0.54864943 0.62420243 0.6677128
000340 dd 77 5e 3f ae 6b 49 3f 0c 91 3a 3f d4 9f a2 3e
       0.86901647 0.7867993 0.72877574 0.31762564
000350 5b 4f 29 3f ae f9 ae 3e b4 d9 18 3e 70 09 b7 3e
       0.6613671 0.34174865 0.14926797 0.35749388
000360 8b ea 38 3f eb 49 16 3f 48 ad a2 3d f8 1c 67 3e
       0.72232884 0.5870654 0.07943207 0.22569644
000370 9e 63 bd 3e a0 ba 4f 3d a0 f6 e8 3e fe 69 02 3f
       0.36990064 0.05071509 0.4550066 0.5094298
000380 3c ac 63 3f c0 32 5f 3d 16 86 e3 3e c8 ef 7a 3f
       0.88934684 0.05449176 0.44438237 0.9802213
000390 ba 34 b5 3e 1a c2 c5 3e d5 02 6f 3f 1a ce 41 3f
       0.3539179 0.3862465 0.93363696 0.7570511
0003a0 38 00 86 3e 0c b0 a8 3e f4 fa 55 3e 20 c2 3f 3e
       0.26172042 0.32946813 0.20896512 0.18726397
0003b0 30 73 87 3e 53 40 29 3f ae ae 95 3e 68 5a c4 3e
       0.2645507 0.66113776 0.29234833 0.38350224
0003c0 05 a9 3f 3f 46 91 88 3e a0 a1 52 3f 9a 1f f8 3e
       0.7486728 0.26673335 0.8227787 0.4846161
0003d0 64 d5 73 3e c0 d0 da 3e 15 52 79 3f 30 14 21 3e
       0.23811871 0.4273739 0.9739087 0.15730357
0003e0 22 8c 09 3f 2b 94 5f 3f a8 04 b1 3d 6e e7 1f 3f
       0.5372945 0.8733546 0.08643466 0.6246251
0003f0 49 08 56 3f ab 30 27 3f 3e 14 10 3f d8 d6 97 3e
       0.8360639 0.65308636 0.5628089 0.296561

bn1.bias f4 [400]
000000 00 00 00 00 00 00 00 00 00 00 00 00 00 00 00 00
       0.0 0.0 0.0 0.0
000010 00 00 00 00 00 00 00 00 00 00 00 00 00 00 00 00
       0.0 0.0 0.0 0.0
000020 00 00 00 00 00 00 00 00 00 00 00 00 00 00 00 00
       0.0 0.0 0.0 0.0
000030 00 00 00 00 00 00 00 00 00 00 00 00 00 00 00 00
       0.0 0.0 0.0 0.0
000040 00 00 00 00 00 00 00 00 00 00 00 00 00 00 00 00
       0.0 0.0 0.0 0.0
000050 00 00 00 00 00 00 00 00 00 00 00 00 00 00 00 00
       0.0 0.0 0.0 0.0
000060 00 00 00 00 00 00 00 00 00 00 00 00 00 00 00 00
       0.0 0.0 0.0 0.0
000070 00 00 00 00 00 00 00 00 00 00 00 00 00 00 00 00
       0.0 0.0 0.0 0.0
000080 00 00 00 00 00 00 00 00 00 00 00 00 00 00 00 00
       0.0 0.0 0.0 0.0
000090 00 00 00 00 00 00 00 00 00 00 00 00 00 00 00 00
       0.0 0.0 0.0 0.0
0000a0 00 00 00 00 00 00 00 00 00 00 00 00 00 00 00 00
       0.0 0.0 0.0 0.0
0000b0 00 00 00 00 00 00 00 00 00 00 00 00 00 00 00 00
       0.0 0.0 0.0 0.0
0000c0 00 00 00 00 00 00 00 00 00 00 00 00 00 00 00 00
       0.0 0.0 0.0 0.0
0000d0 00 00 00 00 00 00 00 00 00 00 00 00 00 00 00 00
       0.0 0.0 0.0 0.0
0000e0 00 00 00 00 00 00 00 00 00 00 00 00 00 00 00 00
       0.0 0.0 0.0 0.0
0000f0 00 00 00 00 00 00 00 00 00 00 00 00 00 00 00 00
       0.0 0.0 0.0 0.0
000100 00 00 00 00 00 00 00 00 00 00 00 00 00 00 00 00
       0.0 0.0 0.0 0.0
000110 00 00 00 00 00 00 00 00 00 00 00 00 00 00 00 00
       0.0 0.0 0.0 0.0
000120 00 00 00 00 00 00 00 00 00 00 00 00 00 00 00 00
       0.0 0.0 0.0 0.0
000130 00 00 00 00 00 00 00 00 00 00 00 00 00 00 00 00
       0.0 0.0 0.0 0.0
000140 00 00 00 00 00 00 00 00 00 00 00 00 00 00 00 00
       0.0 0.0 0.0 0.0
000150 00 00 00 00 00 00 00 00 00 00 00 00 00 00 00 00
       0.0 0.0 0.0 0.0
000160 00 00 00 00 00 00 00 00 00 00 00 00 00 00 00 00
       0.0 0.0 0.0 0.0
000170 00 00 00 00 00 00 00 00 00 00 00 00 00 00 00 00
       0.0 0.0 0.0 0.0
000180 00 00 00 00 00 00 00 00 00 00 00 00 00 00 00 00
       0.0 0.0 0.0 0.0
000190 00 00 00 00 00 00 00 00 00 00 00 00 00 00 00 00
       0.0 0.0 0.0 0.0
0001a0 00 00 00 00 00 00 00 00 00 00 00 00 00 00 00 00
       0.0 0.0 0.0 0.0
0001b0 00 00 00 00 00 00 00 00 00 00 00 00 00 00 00 00
       0.0 0.0 0.0 0.0
0001c0 00 00 00 00 00 00 00 00 00 00 00 00 00 00 00 00
       0.0 0.0 0.0 0.0
0001d0 00 00 00 00 00 00 00 00 00 00 00 00 00 00 00 00
       0.0 0.0 0.0 0.0
0001e0 00 00 00 00 00 00 00 00 00 00 00 00 00 00 00 00
       0.0 0.0 0.0 0.0
0001f0 00 00 00 00 00 00 00 00 00 00 00 00 00 00 00 00
       0.0 0.0 0.0 0.0
000200 00 00 00 00 00 00 00 00 00 00 00 00 00 00 00 00
       0.0 0.0 0.0 0.0
000210 00 00 00 00 00 00 00 00 00 00 00 00 00 00 00 00
       0.0 0.0 0.0 0.0
000220 00 00 00 00 00 00 00 00 00 00 00 00 00 00 00 00
       0.0 0.0 0.0 0.0
000230 00 00 00 00 00 00 00 00 00 00 00 00 00 00 00 00
       0.0 0.0 0.0 0.0
000240 00 00 00 00 00 00 00 00 00 00 00 00 00 00 00 00
       0.0 0.0 0.0 0.0
000250 00 00 00 00 00 00 00 00 00 00 00 00 00 00 00 00
       0.0 0.0 0.0 0.0
000260 00 00 00 00 00 00 00 00 00 00 00 00 00 00 00 00
       0.0 0.0 0.0 0.0
000270 00 00 00 00 00 00 00 00 00 00 00 00 00 00 00 00
       0.0 0.0 0.0 0.0
000280 00 00 00 00 00 00 00 00 00 00 00 00 00 00 00 00
       0.0 0.0 0.0 0.0
000290 00 00 00 00 00 00 00 00 00 00 00 00 00 00 00 00
       0.0 0.0 0.0 0.0
0002a0 00 00 00 00 00 00 00 00 00 00 00 00 00 00 00 00
       0.0 0.0 0.0 0.0
0002b0 00 00 00 00 00 00 00 00 00 00 00 00 00 00 00 00
       0.0 0.0 0.0 0.0
0002c0 00 00 00 00 00 00 00 00 00 00 00 00 00 00 00 00
       0.0 0.0 0.0 0.0
0002d0 00 00 00 00 00 00 00 00 00 00 00 00 00 00 00 00
       0.0 0.0 0.0 0.0
0002e0 00 00 00 00 00 00 00 00 00 00 00 00 00 00 00 00
       0.0 0.0 0.0 0.0
0002f0 00 00 00 00 00 00 00 00 00 00 00 00 00 00 00 00
       0.0 0.0 0.0 0.0
000300 00 00 00 00 00 00 00 00 00 00 00 00 00 00 00 00
       0.0 0.0 0.0 0.0
000310 00 00 00 00 00 00 00 00 00 00 00 00 00 00 00 00
       0.0 0.0 0.0 0.0
000320 00 00 00 00 00 00 00 00 00 00 00 00 00 00 00 00
       0.0 0.0 0.0 0.0
000330 00 00 00 00 00 00 00 00 00 00 00 00 00 00 00 00
       0.0 0.0 0.0 0.0
000340 00 00 00 00 00 00 00 00 00 00 00 00 00 00 00 00
       0.0 0.0 0.0 0.0
000350 00 00 00 00 00 00 00 00 00 00 00 00 00 00 00 00
       0.0 0.0 0.0 0.0
000360 00 00 00 00 00 00 00 00 00 00 00 00 00 00 00 00
       0.0 0.0 0.0 0.0
000370 00 00 00 00 00 00 00 00 00 00 00 00 00 00 00 00
       0.0 0.0 0.0 0.0
000380 00 00 00 00 00 00 00 00 00 00 00 00 00 00 00 00
       0.0 0.0 0.0 0.0
000390 00 00 00 00 00 00 00 00 00 00 00 00 00 00 00 00
       0.0 0.0 0.0 0.0
0003a0 00 00 00 00 00 00 00 00 00 00 00 00 00 00 00 00
       0.0 0.0 0.0 0.0
0003b0 00 00 00 00 00 00 00 00 00 00 00 00 00 00 00 00
       0.0 0.0 0.0 0.0
0003c0 00 00 00 00 00 00 00 00 00 00 00 00 00 00 00 00
       0.0 0.0 0.0 0.0
0003d0 00 00 00 00 00 00 00 00 00 00 00 00 00 00 00 00
       0.0 0.0 0.0 0.0
0003e0 00 00 00 00 00 00 00 00 00 00 00 00 00 00 00 00
       0.0 0.0 0.0 0.0
0003f0 00 00 00 00 00 00 00 00 00 00 00 00 00 00 00 00
       0.0 0.0 0.0 0.0

bn1.running_mean f4 [400]
000000 00 00 00 00 00 00 00 00 00 00 00 00 00 00 00 00
       0.0 0.0 0.0 0.0
000010 00 00 00 00 00 00 00 00 00 00 00 00 00 00 00 00
       0.0 0.0 0.0 0.0
000020 00 00 00 00 00 00 00 00 00 00 00 00 00 00 00 00
       0.0 0.0 0.0 0.0
000030 00 00 00 00 00 00 00 00 00 00 00 00 00 00 00 00
       0.0 0.0 0.0 0.0
000040 00 00 00 00 00 00 00 00 00 00 00 00 00 00 00 00
       0.0 0.0 0.0 0.0
000050 00 00 00 00 00 00 00 00 00 00 00 00 00 00 00 00
       0.0 0.0 0.0 0.0
000060 00 00 00 00 00 00 00 00 00 00 00 00 00 00 00 00
       0.0 0.0 0.0 0.0
000070 00 00 00 00 00 00 00 00 00 00 00 00 00 00 00 00
       0.0 0.0 0.0 0.0
000080 00 00 00 00 00 00 00 00 00 00 00 00 00 00 00 00
       0.0 0.0 0.0 0.0
000090 00 00 00 00 00 00 00 00 00 00 00 00 00 00 00 00
       0.0 0.0 0.0 0.0
0000a0 00 00 00 00 00 00 00 00 00 00 00 00 00 00 00 00
       0.0 0.0 0.0 0.0
0000b0 00 00 00 00 00 00 00 00 00 00 00 00 00 00 00 00
       0.0 0.0 0.0 0.0
0000c0 00 00 00 00 00 00 00 00 00 00 00 00 00 00 00 00
       0.0 0.0 0.0 0.0
0000d0 00 00 00 00 00 00 00 00 00 00 00 00 00 00 00 00
       0.0 0.0 0.0 0.0
0000e0 00 00 00 00 00 00 00 00 00 00 00 00 00 00 00 00
       0.0 0.0 0.0 0.0
0000f0 00 00 00 00 00 00 00 00 00 00 00 00 00 00 00 00
       0.0 0.0 0.0 0.0
000100 00 00 00 00 00 00 00 00 00 00 00 00 00 00 00 00
       0.0 0.0 0.0 0.0
000110 00 00 00 00 00 00 00 00 00 00 00 00 00 00 00 00
       0.0 0.0 0.0 0.0
000120 00 00 00 00 00 00 00 00 00 00 00 00 00 00 00 00
       0.0 0.0 0.0 0.0
000130 00 00 00 00 00 00 00 00 00 00 00 00 00 00 00 00
       0.0 0.0 0.0 0.0
000140 00 00 00 00 00 00 00 00 00 00 00 00 00 00 00 00
       0.0 0.0 0.0 0.0
000150 00 00 00 00 00 00 00 00 00 00 00 00 00 00 00 00
       0.0 0.0 0.0 0.0
000160 00 00 00 00 00 00 00 00 00 00 00 00 00 00 00 00
       0.0 0.0 0.0 0.0
000170 00 00 00 00 00 00 00 00 00 00 00 00 00 00 00 00
       0.0 0.0 0.0 0.0
000180 00 00 00 00 00 00 00 00 00 00 00 00 00 00 00 00
       0.0 0.0 0.0 0.0
000190 00 00 00 00 00 00 00 00 00 00 00 00 00 00 00 00
       0.0 0.0 0.0 0.0
0001a0 00 00 00 00 00 00 00 00 00 00 00 00 00 00 00 00
       0.0 0.0 0.0 0.0
0001b0 00 00 00 00 00 00 00 00 00 00 00 00 00 00 00 00
       0.0 0.0 0.0 0.0
0001c0 00 00 00 00 00 00 00 00 00 00 00 00 00 00 00 00
       0.0 0.0 0.0 0.0
0001d0 00 00 00 00 00 00 00 00 00 00 00 00 00 00 00 00
       0.0 0.0 0.0 0.0
0001e0 00 00 00 00 00 00 00 00 00 00 00 00 00 00 00 00
       0.0 0.0 0.0 0.0
0001f0 00 00 00 00 00 00 00 00 00 00 00 00 00 00 00 00
       0.0 0.0 0.0 0.0
000200 00 00 00 00 00 00 00 00 00 00 00 00 00 00 00 00
       0.0 0.0 0.0 0.0
000210 00 00 00 00 00 00 00 00 00 00 00 00 00 00 00 00
       0.0 0.0 0.0 0.0
000220 00 00 00 00 00 00 00 00 00 00 00 00 00 00 00 00
       0.0 0.0 0.0 0.0
000230 00 00 00 00 00 00 00 00 00 00 00 00 00 00 00 00
       0.0 0.0 0.0 0.0
000240 00 00 00 00 00 00 00 00 00 00 00 00 00 00 00 00
       0.0 0.0 0.0 0.0
000250 00 00 00 00 00 00 00 00 00 00 00 00 00 00 00 00
       0.0 0.0 0.0 0.0
000260 00 00 00 00 00 00 00 00 00 00 00 00 00 00 00 00
       0.0 0.0 0.0 0.0
000270 00 00 00 00 00 00 00 00 00 00 00 00 00 00 00 00
       0.0 0.0 0.0 0.0
000280 00 00 00 00 00 00 00 00 00 00 00 00 00 00 00 00
       0.0 0.0 0.0 0.0
000290 00 00 00 00 00 00 00 00 00 00 00 00 00 00 00 00
       0.0 0.0 0.0 0.0
0002a0 00 00 00 00 00 00 00 00 00 00 00 00 00 00 00 00
       0.0 0.0 0.0 0.0
0002b0 00 00 00 00 00 00 00 00 00 00 00 00 00 00 00 00
       0.0 0.0 0.0 0.0
0002c0 00 00 00 00 00 00 00 00 00 00 00 00 00 00 00 00
       0.0 0.0 0.0 0.0
0002d0 00 00 00 00 00 00 00 00 00 00 00 00 00 00 00 00
       0.0 0.0 0.0 0.0
0002e0 00 00 00 00 00 00 00 00 00 00 00 00 00 00 00 00
       0.0 0.0 0.0 0.0
0002f0 00 00 00 00 00 00 00 00 00 00 00 00 00 00 00 00
       0.0 0.0 0.0 0.0
000300 00 00 00 00 00 00 00 00 00 00 00 00 00 00 00 00
       0.0 0.0 0.0 0.0
000310 00 00 00 00 00 00 00 00 00 00 00 00 00 00 00 00
       0.0 0.0 0.0 0.0
000320 00 00 00 00 00 00 00 00 00 00 00 00 00 00 00 00
       0.0 0.0 0.0 0.0
000330 00 00 00 00 00 00 00 00 00 00 00 00 00 00 00 00
       0.0 0.0 0.0 0.0
000340 00 00 00 00 00 00 00 00 00 00 00 00 00 00 00 00
       0.0 0.0 0.0 0.0
000350 00 00 00 00 00 00 00 00 00 00 00 00 00 00 00 00
       0.0 0.0 0.0 0.0
000360 00 00 00 00 00 00 00 00 00 00 00 00 00 00 00 00
       0.0 0.0 0.0 0.0
000370 00 00 00 00 00 00 00 00 00 00 00 00 00 00 00 00
       0.0 0.0 0.0 0.0
000380 00 00 00 00 00 00 00 00 00 00 00 00 00 00 00 00
       0.0 0.0 0.0 0.0
000390 00 00 00 00 00 00 00 00 00 00 00 00 00 00 00 00
       0.0 0.0 0.0 0.0
0003a0 00 00 00 00 00 00 00 00 00 00 00 00 00 00 00 00
       0.0 0.0 0.0 0.0
0003b0 00 00 00 00 00 00 00 00 00 00 00 00 00 00 00 00
       0.0 0.0 0.0 0.0
0003c0 00 00 00 00 00 00 00 00 00 00 00 00 00 00 00 00
       0.0 0.0 0.0 0.0
0003d0 00 00 00 00 00 00 00 00 00 00 00 00 00 00 00 00
       0.0 0.0 0.0 0.0
0003e0 00 00 00 00 00 00 00 00 00 00 00 00 00 00 00 00
       0.0 0.0 0.0 0.0
0003f0 00 00 00 00 00 00 00 00 00 00 00 00 00 00 00 00
       0.0 0.0 0.0 0.0

bn1.running_var f4 [400]
000000 00 00 80 3f 00 00 80 3f 00 00 80 3f 00 00 80 3f
       1.0 1.0 1.0 1.0
000010 00 00 80 3f 00 00 80 3f 00 00 80 3f 00 00 80 3f
       1.0 1.0 1.0 1.0
000020 00 00 80 3f 00 00 80 3f 00 00 80 3f 00 00 80 3f
       1.0 1.0 1.0 1.0
000030 00 00 80 3f 00 00 80 3f 00 00 80 3f 00 00 80 3f
       1.0 1.0 1.0 1.0
000040 00 00 80 3f 00 00 80 3f 00 00 80 3f 00 00 80 3f
       1.0 1.0 1.0 1.0
000050 00 00 80 3f 00 00 80 3f 00 00 80 3f 00 00 80 3f
       1.0 1.0 1.0 1.0
000060 00 00 80 3f 00 00 80 3f 00 00 80 3f 00 00 80 3f
       1.0 1.0 1.0 1.0
000070 00 00 80 3f 00 00 80 3f 00 00 80 3f 00 00 80 3f
       1.0 1.0 1.0 1.0
000080 00 00 80 3f 00 00 80 3f 00 00 80 3f 00 00 80 3f
       1.0 1.0 1.0 1.0
000090 00 00 80 3f 00 00 80 3f 00 00 80 3f 00 00 80 3f
       1.0 1.0 1.0 1.0
0000a0 00 00 80 3f 00 00 80 3f 00 00 80 3f 00 00 80 3f
       1.0 1.0 1.0 1.0
0000b0 00 00 80 3f 00 00 80 3f 00 00 80 3f 00 00 80 3f
       1.0 1.0 1.0 1.0
0000c0 00 00 80 3f 00 00 80 3f 00 00 80 3f 00 00 80 3f
       1.0 1.0 1.0 1.0
0000d0 00 00 80 3f 00 00 80 3f 00 00 80 3f 00 00 80 3f
       1.0 1.0 1.0 1.0
0000e0 00 00 80 3f 00 00 80 3f 00 00 80 3f 00 00 80 3f
       1.0 1.0 1.0 1.0
0000f0 00 00 80 3f 00 00 80 3f 00 00 80 3f 00 00 80 3f
       1.0 1.0 1.0 1.0
000100 00 00 80 3f 00 00 80 3f 00 00 80 3f 00 00 80 3f
       1.0 1.0 1.0 1.0
000110 00 00 80 3f 00 00 80 3f 00 00 80 3f 00 00 80 3f
       1.0 1.0 1.0 1.0
000120 00 00 80 3f 00 00 80 3f 00 00 80 3f 00 00 80 3f
       1.0 1.0 1.0 1.0
000130 00 00 80 3f 00 00 80 3f 00 00 80 3f 00 00 80 3f
       1.0 1.0 1.0 1.0
000140 00 00 80 3f 00 00 80 3f 00 00 80 3f 00 00 80 3f
       1.0 1.0 1.0 1.0
000150 00 00 80 3f 00 00 80 3f 00 00 80 3f 00 00 80 3f
       1.0 1.0 1.0 1.0
000160 00 00 80 3f 00 00 80 3f 00 00 80 3f 00 00 80 3f
       1.0 1.0 1.0 1.0
000170 00 00 80 3f 00 00 80 3f 00 00 80 3f 00 00 80 3f
       1.0 1.0 1.0 1.0
000180 00 00 80 3f 00 00 80 3f 00 00 80 3f 00 00 80 3f
       1.0 1.0 1.0 1.0
000190 00 00 80 3f 00 00 80 3f 00 00 80 3f 00 00 80 3f
       1.0 1.0 1.0 1.0
0001a0 00 00 80 3f 00 00 80 3f 00 00 80 3f 00 00 80 3f
       1.0 1.0 1.0 1.0
0001b0 00 00 80 3f 00 00 80 3f 00 00 80 3f 00 00 80 3f
       1.0 1.0 1.0 1.0
0001c0 00 00 80 3f 00 00 80 3f 00 00 80 3f 00 00 80 3f
       1.0 1.0 1.0 1.0
0001d0 00 00 80 3f 00 00 80 3f 00 00 80 3f 00 00 80 3f
       1.0 1.0 1.0 1.0
0001e0 00 00 80 3f 00 00 80 3f 00 00 80 3f 00 00 80 3f
       1.0 1.0 1.0 1.0
0001f0 00 00 80 3f 00 00 80 3f 00 00 80 3f 00 00 80 3f
       1.0 1.0 1.0 1.0
000200 00 00 80 3f 00 00 80 3f 00 00 80 3f 00 00 80 3f
       1.0 1.0 1.0 1.0
000210 00 00 80 3f 00 00 80 3f 00 00 80 3f 00 00 80 3f
       1.0 1.0 1.0 1.0
000220 00 00 80 3f 00 00 80 3f 00 00 80 3f 00 00 80 3f
       1.0 1.0 1.0 1.0
000230 00 00 80 3f 00 00 80 3f 00 00 80 3f 00 00 80 3f
       1.0 1.0 1.0 1.0
000240 00 00 80 3f 00 00 80 3f 00 00 80 3f 00 00 80 3f
       1.0 1.0 1.0 1.0
000250 00 00 80 3f 00 00 80 3f 00 00 80 3f 00 00 80 3f
       1.0 1.0 1.0 1.0
000260 00 00 80 3f 00 00 80 3f 00 00 80 3f 00 00 80 3f
       1.0 1.0 1.0 1.0
000270 00 00 80 3f 00 00 80 3f 00 00 80 3f 00 00 80 3f
       1.0 1.0 1.0 1.0
000280 00 00 80 3f 00 00 80 3f 00 00 80 3f 00 00 80 3f
       1.0 1.0 1.0 1.0
000290 00 00 80 3f 00 00 80 3f 00 00 80 3f 00 00 80 3f
       1.0 1.0 1.0 1.0
0002a0 00 00 80 3f 00 00 80 3f 00 00 80 3f 00 00 80 3f
       1.0 1.0 1.0 1.0
0002b0 00 00 80 3f 00 00 80 3f 00 00 80 3f 00 00 80 3f
       1.0 1.0 1.0 1.0
0002c0 00 00 80 3f 00 00 80 3f 00 00 80 3f 00 00 80 3f
       1.0 1.0 1.0 1.0
0002d0 00 00 80 3f 00 00 80 3f 00 00 80 3f 00 00 80 3f
       1.0 1.0 1.0 1.0
0002e0 00 00 80 3f 00 00 80 3f 00 00 80 3f 00 00 80 3f
       1.0 1.0 1.0 1.0
0002f0 00 00 80 3f 00 00 80 3f 00 00 80 3f 00 00 80 3f
       1.0 1.0 1.0 1.0
000300 00 00 80 3f 00 00 80 3f 00 00 80 3f 00 00 80 3f
       1.0 1.0 1.0 1.0
000310 00 00 80 3f 00 00 80 3f 00 00 80 3f 00 00 80 3f
       1.0 1.0 1.0 1.0
000320 00 00 80 3f 00 00 80 3f 00 00 80 3f 00 00 80 3f
       1.0 1.0 1.0 1.0
000330 00 00 80 3f 00 00 80 3f 00 00 80 3f 00 00 80 3f
       1.0 1.0 1.0 1.0
000340 00 00 80 3f 00 00 80 3f 00 00 80 3f 00 00 80 3f
       1.0 1.0 1.0 1.0
000350 00 00 80 3f 00 00 80 3f 00 00 80 3f 00 00 80 3f
       1.0 1.0 1.0 1.0
000360 00 00 80 3f 00 00 80 3f 00 00 80 3f 00 00 80 3f
       1.0 1.0 1.0 1.0
000370 00 00 80 3f 00 00 80 3f 00 00 80 3f 00 00 80 3f
       1.0 1.0 1.0 1.0
000380 00 00 80 3f 00 00 80 3f 00 00 80 3f 00 00 80 3f
       1.0 1.0 1.0 1.0
000390 00 00 80 3f 00 00 80 3f 00 00 80 3f 00 00 80 3f
       1.0 1.0 1.0 1.0
0003a0 00 00 80 3f 00 00 80 3f 00 00 80 3f 00 00 80 3f
       1.0 1.0 1.0 1.0
0003b0 00 00 80 3f 00 00 80 3f 00 00 80 3f 00 00 80 3f
       1.0 1.0 1.0 1.0
0003c0 00 00 80 3f 00 00 80 3f 00 00 80 3f 00 00 80 3f
       1.0 1.0 1.0 1.0
0003d0 00 00 80 3f 00 00 80 3f 00 00 80 3f 00 00 80 3f
       1.0 1.0 1.0 1.0
0003e0 00 00 80 3f 00 00 80 3f 00 00 80 3f 00 00 80 3f
       1.0 1.0 1.0 1.0
0003f0 00 00 80 3f 00 00 80 3f 00 00 80 3f 00 00 80 3f
       1.0 1.0 1.0 1.0

fc2.weight f4 [300, 402]
000000 85 ba 0b bc 23 11 6f bc 35 fd 27 3d 66 ad 54 bc
       -0.008528356 -0.014591488 0.04101296 -0.0129807945
000010 8c ec cf bc a8 04 60 3d f6 89 85 3d b8 de 11 3d
       -0.025381349 0.05469194 0.065204546 0.03561279
000020 90 ee aa 3c 14 ae eb 3c 0d 71 36 3c 1b 27 6c 3d
       0.020865709 0.02876953 0.011135352 0.05765448
000030 08 27 0b 3c 2f c6 86 3d de 5b 91 bb 24 62 c9 bc
       0.0084931925 0.06580769 -0.0044360003 -0.02458293
000040 00 f0 10 3d 72 3b b4 3b 4b a8 33 3d 65 55 6b 3d
       0.03538513 0.0055002505 0.04386167 0.057454485
000050 03 46 36 bd e3 19 8d 3c b6 20 11 bd 6a bb a1 bc
       -0.044500362 0.017224258 -0.035431586 -0.019742686
000060 8c 9f 7b 3c bc c5 21 3d 0d 2f ac bc 7a 1f f0 3a
       0.015357863 0.039495215 -0.02101853 0.0018319928
000070 e1 97 5b bd 83 7a 34 bd 7d 90 c2 3c 7e ac 3c bc
       -0.05361164 -0.04406215 0.023750538 -0.011515735
000080 00 2c a9 bc 74 31 1b bc 9b 5e a7 bc b4 80 0e 3c
       -0.020650864 -0.00947224 -0.020430854 0.008697677
000090 59 fa 0c bb 14 f9 f3 bb d4 a9 8f bd 24 a5 dd bc
       -0.0021511524 -0.007445464 -0.07014814 -0.027056284
0000a0 9e c6 8b bc 1f fb 1c bd 0f 2f 58 3d 30 74 d7 3c
       -0.017062481 -0.038325425 0.052779254 0.02630052
0000b0 a1 50 16 3d 1f 77 bc bc 63 b9 f7 3c 7d 75 bc bc
       0.036697987 -0.02300602 0.030239766 -0.023005242
0000c0 f8 96 30 bd 79 69 30 3d d3 b2 08 3d 74 ec 4e bd
       -0.043112725 0.043069337 0.033373665 -0.050518468
0000d0 db 1d 15 bd 26 c8 62 3b 31 64 57 3d 24 3c c1 ba
       -0.036405426 0.003460416 0.052585784 -0.0014742655
0000e0 b9 88 fa 3c 60 20 e5 bc 35 82 57 3b 25 c3 85 3d
       0.030582773 -0.02796954 0.0032884006 0.065313615
0000f0 f1 b4 36 3c 67 d1 b3 bc db 4f 3a 3d 71 71 43 3d
       0.011151538 -0.021950437 0.045486312 0.047715608
000100 15 be 26 3d d9 c9 7c bc b1 83 fc 3b 93 71 3a 3d
       0.04070862 -0.015428984 0.0077061285 0.04551847
000110 cf e4 ca 3c 7a ed 25 bd da fc 33 3d a9 f3 b1 bc
       0.024767308 -0.04050968 0.04394231 -0.021722632
000120 f2 d7 74 3d ec 08 44 3d 03 21 18 3d 8a 47 ac 3c
       0.059776254 0.04786007 0.037140857 0.021030206
000130 07 72 8b 3c 18 57 3c 3d d0 d9 21 bd 13 6a d0 ba
       0.017022146 0.045981497 -0.039514363 -0.0015900753
000140 bf 42 65 3c 73 62 52 3d f3 f3 66 bd 14 fc 19 bd
       0.013992964 0.05136342 -0.05638499 -0.037593916
000150 da 38 43 bd c1 99 5f 3d 86 57 1f 3d a0 1e 15 3d
       -0.04766164 0.05458999 0.03890183 0.03640616
000160 f7 cc 55 bd 97 34 a6 bb 23 bf 1e bd 70 d6 84 bc
       -0.052197423 -0.005072187 -0.0387565 -0.016215533
000170 b6 20 51 bd 3b 96 5a 3d 14 5f 71 3d a1 5e 0a 3d
       -0.051056586 0.053365927 0.058928564 0.03378165
000180 d6 7a ef bc 1a ef 11 3d 7e a6 f1 3c f2 08 50 bd
       -0.029233377 0.035628416 0.029498335 -0.05078978
000190 98 6b 2b bd 85 8e 04 bd cf d0 6f ba eb c6 b1 3b
       -0.041850656 -0.03236248 -0.00091482414 0.005425324
0001a0 dd 0d 4f bc 2b 1d d9 3d c8 3c 18 3d 38 88 c5 bc
       -0.012637583 0.106012665 0.03716734 -0.024112806
0001b0 6b 6a 31 3c 2c fe 54 3d d2 c4 2a bd 6d 47 25 bd
       0.010828595 0.05200021 -0.04169161 -0.04035132
0001c0 b9 3d 5e bd 6f 39 20 3d 7b 74 09 3d 5e 53 0d bd
       -0.054258082 0.039117273 0.03355835 -0.034503333
0001d0 19 52 12 3c f2 ae 00 bd 2f e7 f1 bb 27 d8 03 bd
       0.008930706 -0.03141684 -0.0073822956 -0.03218856
0001e0 0c e2 eb 3c a2 72 4a bd 04 fc ae bc 07 ab d8 3c
       0.028794311 -0.04942573 -0.021360405 0.02644874
0001f0 b8 a2 90 bc f2 63 22 3d 42 e0 ad bc c9 20 72 3b
       -0.017655715 0.039646097 -0.021225099 0.003694581
000200 66 9a 28 bd 03 bc c8 3b ad b4 d5 b9 d0 7c 77 bd
       -0.04116287 0.0061259284 -0.0004076114 -0.060421765
000210 ce e9 0c bd 6a ce 53 3d 17 83 84 3d 62 23 41 bc
       -0.03440266 0.051710524 0.06470316 -0.011788221
000220 77 33 26 bd 44 bd 2e 3d 3a 3e 3f bd 65 58 5d 3d
       -0.040576424 0.042660967 -0.046690203 0.054039378
000230 ef 19 02 3d 07 ea ab 3b e2 a1 1c bd f2 61 b2 bd
       0.031763013 0.005246404 -0.03824032 -0.08710088
000240 7d 17 a3 3c 26 20 4f bc 67 be 12 bd 3d fe 78 bc
       0.019908661 -0.012641942 -0.035826113 -0.015197334
000250 73 03 2e 3d 60 99 21 bb 88 4b c0 3c 08 6e 88 bd
       0.04248376 -0.002465807 0.023473516 -0.06661612
000260 08 17 31 3d 02 27 2d 3d a2 cc 84 3d 87 71 12 bd
       0.043234855 0.04227353 0.06484343 -0.0357528
000270 b2 60 5d 3d d2 55 36 bd 5e c9 9a bd a7 0d c2 3b
       0.054047294 -0.04451544 -0.07557939 0.0059220376
000280 26 45 22 bd de 4a 51 3d ee cb bd bd 55 83 43 39
       -0.039616726 0.05109679 -0.09267412 0.00018645574
000290 3b e1 fd ba f1 1e 82 bc cf 41 a5 bc 2f d1 60 bc
       -0.0019369492 -0.015883895 -0.020172982 -0.013721748
0002a0 eb 6e e8 3b b4 5b dd 3c 48 d6 18 bd 03 93 72 3d
       0.0070933006 0.027021267 -0.03731373 0.059222233
0002b0 2a ff bb 3b 52 5e b2 3b 62 b1 89 3c 92 64 a3 bc
       0.005737205 0.0054433728 0.016808216 -0.019945417
0002c0 9e 68 bb bb 1c 33 54 3d 97 bb 56 bc 86 75 58 3d
       -0.0057192584 0.051806554 -0.013106248 0.052846454
0002d0 31 c0 99 3c 89 37 82 3b ea eb 52 3d a4 58 3f bd
       0.018768402 0.0039739055 0.051494516 -0.046715394
0002e0 d0 9b 7f bc 8b e7 75 3d 50 43 85 3c 62 88 be 3d
       -0.015601113 0.06003527 0.016267449 0.09303357
0002f0 a2 39 09 3c a6 f2 de 3b 23 77 4b bc 89 1e d7 bc
       0.008375557 0.0068038283 -0.012418541 -0.026259677
000300 cd 31 17 3d bd 65 e4 3c 92 b8 8b bd 40 3c 5d 3b
       0.036912728 0.027880544 -0.06822313 0.0033757836
000310 1d 55 4f bb 5a 0b a0 3c 52 f6 2b 3d 9f 0a 6b bc
       -0.0031636425 0.019536663 0.041982956 -0.014345794
000320 09 77 8c bc 83 1a f2 bc 48 98 9f bc b1 4d 4c 3d
       -0.017146604 -0.029553657 -0.019481793 0.04987878
000330 d9 64 7a bc 97 90 85 3d 97 46 71 bc 75 c6 2d bd
       -0.015282833 0.06521719 -0.014726303 -0.04242559
000340 87 43 6a 3d 2e 2e 75 3d 70 56 6d ba 88 54 54 bd
       0.057193305 0.059858494 -0.0009053713 -0.051838428
000350 b0 e6 76 3c db de 34 3d 17 a0 f3 3c 28 93 2a bd
       0.015069649 0.044157844 0.029739423 -0.041644245
000360 72 ec 47 3c 5c c9 8b bc c7 eb 69 3d 5c a5 72 3d
       0.012202369 -0.01706379 0.05710962 0.05923973
000370 2d af da bc 9b 27 1d 3d c4 06 ce bc ca 13 60 3b
       -0.026694858 0.03836785 -0.02514971 0.0034191483
000380 c4 39 0f 3d b8 92 96 3c b0 aa 21 3b 69 2e 6a ba
       0.0349672 0.018380508 0.0024668388 -0.0008933307
000390 2b b0 5e 3c d1 e3 36 3b 27 f6 00 3d 4c cc fe 3c
       0.013591806 0.0027906785 0.03148475 0.031103276
0003a0 c7 6e df bc 7a 43 59 bd 3d af 42 3d 0e a1 0b bc
       -0.027274502 -0.053042866 0.0475304 -0.008522285
0003b0 60 16 0d 3d 3c e3 01 bd c7 d9 d3 bc 8b c7 38 bd
       0.034445167 -0.03171085 -0.02586068 -0.045112174
0003c0 c2 33 2d bd 5f 7e 44 bd f7 48 fe bc fd 6b 2a 3d
       -0.04228569 -0.04797208 -0.031040652 0.041606892
0003d0 97 d9 47 3c 72 7d 6c bd e8 cf 4c bd 97 73 61 3d
       0.012197874 -0.05773682 -0.050002962 0.055041876
0003e0 c5 f3 21 bc dd 2d 36 bd 1e 75 25 bd 9d 5a 32 3c
       -0.009884779 -0.044477332 -0.040394895 0.010885862
0003f0 51 c3 13 3d eb 5e ef 3c 59 2a 27 bd 9a 26 4e 3d
       0.03607494 0.029220065 -0.04081187 0.050329782
