update_every_multiple_steps/checkpoint_actorB_TAU_1e-1_update30.pth (torch_old, 538202 bytes, 18 tensors)

bn0.weight f4 [24]
0.6146951 0.38101286 0.63711435 0.47446108 0.71359384 0.6190364 0.44253266 0.09576863
0.6141572 0.057327688 0.565714 0.53322893 0.39005083 0.90884846 0.5333684 0.7073392
0.7115974 0.2050342 0.30778277 0.98085904 0.010261297 0.46604085 0.46037513 0.8546547
00000000: a85c 1d3f 1e14 c33e ed19 233f 90ec f23e
00000010: 16ae 363f 2b79 1e3f a493 e23e 5822 c43d
00000020: 6839 1d3f 70d0 6a3d a2d2 103f b181 083f
00000030: beb4 c73e 4baa 683f d58a 083f 2f14 353f
00000040: 3f2b 363f 7cf4 513e b495 9d3e 9419 7b3f
00000050: 001f 283c e89c ee3e 4ab6 eb3e a7ca 5a3f

bn0.bias f4 [24]
0.0 0.0 0.0 0.0 0.0 0.0 0.0 0.0
0.0 0.0 0.0 0.0 0.0 0.0 0.0 0.0
0.0 0.0 0.0 0.0 0.0 0.0 0.0 0.0
00000000: 0000 0000 0000 0000 0000 0000 0000 0000
00000010: 0000 0000 0000 0000 0000 0000 0000 0000
00000020: 0000 0000 0000 0000 0000 0000 0000 0000
00000030: 0000 0000 0000 0000 0000 0000 0000 0000
00000040: 0000 0000 0000 0000 0000 0000 0000 0000
00000050: 0000 0000 0000 0000 0000 0000 0000 0000

bn0.running_mean f4 [24]
0.0 0.0 0.0 0.0 0.0 0.0 0.0 0.0
0.0 0.0 0.0 0.0 0.0 0.0 0.0 0.0
0.0 0.0 0.0 0.0 0.0 0.0 0.0 0.0
00000000: 0000 0000 0000 0000 0000 0000 0000 0000
00000010: 0000 0000 0000 0000 0000 0000 0000 0000
00000020: 0000 0000 0000 0000 0000 0000 0000 0000
00000030: 0000 0000 0000 0000 0000 0000 0000 0000
00000040: 0000 0000 0000 0000 0000 0000 0000 0000
00000050: 0000 0000 0000 0000 0000 0000 0000 0000

bn0.running_var f4 [24]
1.0 1.0 1.0 1.0 1.0 1.0 1.0 1.0
1.0 1.0 1.0 1.0 1.0 1.0 1.0 1.0
1.0 1.0 1.0 1.0 1.0 1.0 1.0 1.0
00000000: 0000 803f 0000 803f 0000 803f 0000 803f
00000010: 0000 803f 0000 803f 0000 803f 0000 803f
00000020: 0000 803f 0000 803f 0000 803f 0000 803f
00000030: 0000 803f 0000 803f 0000 803f 0000 803f
00000040: 0000 803f 0000 803f 0000 803f 0000 803f
00000050: 0000 803f 0000 803f 0000 803f 0000 803f

fc1.weight f4 [400, 24]
-0.05156314 0.014341217 0.032252293 -0.006872328 -0.014938089 -0.024620833 -0.003569485 -0.042087514
-0.024349593 0.0072027906 0.027165107 -0.039397508 -0.014731847 0.012812403 0.03826596 -0.017845485
0.031886622 -0.014616589 -0.01916908 -0.0281906 -0.01470678 -0.10284986 -0.034254406 0.0071292957
-0.0053052204 -0.03238329 -0.02786905 0.07458579 0.017183077 -0.019169204 0.028865546 0.07478305
0.011544079 -0.030690938 -0.0005421623 0.053066596 0.023375042 0.079546645 0.035963856 -0.00467563
0.015385137 0.017723585 0.011948585 -0.05444356 -0.07577617 0.10725529 0.016254127 -0.07100228
0.013467312 -0.030176552 0.026618581 -0.02173325 -0.029481484 -0.050660226 -0.027418263 -0.033350278
0.02491339 -0.12941618 0.0040640477 -0.0014860305 -0.060684666 0.0753329 -0.0028395876 0.022013705
0.0014556992 -0.0775624 -0.013589707 0.049046718 -0.043512475 0.105416775 0.013406807 0.008032469
-0.077398 -0.05585417 0.016780553 -0.024414835 -0.061788537 0.041547656 -0.026286308 0.0074523464
0.030241188 -0.00093600556 -0.007982892 0.06132589 -0.025704404 -0.07016222 0.016641542 0.060987663
-0.039517697 -0.011277552 -0.0007344379 -0.10939102 -0.036827486 0.050261073 -0.03365661 -0.055022642
0.037924442 0.06042366 -0.0453839 0.01825727 -0.022769717 -0.06412458 -0.010014606 0.009071919
0.02033542 -0.022671646 -0.0033047043 0.042815212 -0.050818298 -0.017818512 0.012343924 -0.044311494
-0.04007236 0.06618451 -0.036943175 0.040087324 0.029204747 -0.019434107 -0.041707464 0.05004078
0.039418846 0.06620866 0.028129274 0.01741503 -0.057160314 -0.11696291 0.026122874 0.010989465
-0.0053700865 0.0012587986 -0.0037055502 -0.059357636 0.033590645 0.072890766 0.011764416 0.0066019543
-0.046694327 -0.03207425 -0.0036717688 0.005865632 0.064917386 0.08054721 0.0074656974 -0.04780863
0.06784014 -0.04378182 0.007745108 -0.0012051277 0.017525509 0.0640934 -0.01190898 0.05056121
0.04179237 0.0014680405 0.020335868 0.011037264 -0.06303148 0.06767533 0.01953593 0.063483566
0.031066064 -0.068484545 0.029643828 -0.021188358 -0.10934974 0.041020993 -0.016335828 0.026529424
0.00029540938 0.09628884 0.01495583 0.037089102 0.029281266 0.015248799 0.009689418 0.05709093
-0.0143704945 0.11383382 0.04147489 -0.031216845 0.04582641 0.028067624 -0.034603268 -0.020406662
-0.012749447 0.008333349 -0.00026744706 -0.10670282 -0.008233609 0.054766737 -0.00040984337 -0.069309324
-0.068560906 0.039243504 -0.0043571936 0.018628217 -0.017939748 0.018627677 -0.0056146397 -0.041191474
-0.030877575 0.017716553 0.030342583 0.04179173 0.0175946 0.010625353 0.028025921 0.048649196
0.0030424003 0.026547836 -0.03409602 -0.012626535 -0.01914619 -0.04438926 -0.04156524 0.007616855
0.039215438 0.03562712 -0.03178629 -0.077653065 -0.033737045 -0.050359644 0.032340758 -0.0480576
-0.039565343 -0.012420094 -0.04300676 -0.041918308 -0.029169375 0.059715208 0.04504365 -0.030672431
-0.012828638 0.0138847325 0.02843734 -0.053961676 0.06712064 0.07370798 -0.027711192 -0.101193145
-0.050630875 0.028759008 -0.049598996 -0.044705603 -0.02962272 -0.05131058 -0.033821452 -0.048695378
0.0064475155 -0.011222985 0.030884461 -0.013787787 -0.00012895734 -0.06926652 0.030023212 0.059840206
00000000: df33 53bd 6cf7 6a3c fb1a 043d 4431 e1bb
00000010: e3be 74bc a1b1 c9bc 05ee 69bb f563 2cbd
00000020: cc78 c7bc 6305 ec3b 5c89 de3c 485f 21bd
00000030: d85d 71bc 1deb 513c c4bc 1c3d b230 92bc
00000040: 8c9b 023d 6b7a 6fbc 7908 9dbc f9ef e6bc
00000050: b5f4 70bc f3a2 d2bd 594e 0cbd de9c e93b
00000060: 6ad7 adbb 57a4 04bd a24d e4bc 6fc0 983d
00000070: 86c3 8c3c bc08 9dbc 7077 ec3c db27 993d
00000080: 6023 3d3c 906b fbbc e51f 0eba 5c5c 593d
00000090: 047d bf3c 5ae9 a23d d64e 133d 0736 99bb
000000a0: f111 7c3c 0d31 913c ffc3 433c 3600 5fbd
000000b0: 8930 9bbd a9a8 db3d 6027 853c a569 91bd
000000c0: 00a6 5c3c d134 f7bc 360f da3c ee09 b2bc
000000d0: 2783 f1bc 1981 4fbd 449c e0bc 4d9a 08bd
000000e0: 2a17 cc3c ad85 04be b42b 853b e9c6 c2ba
000000f0: 7c90 78bd 2348 9a3d 6018 3abb 1656 b43c
00000100: 29cd be3a 09d9 9ebd 5da7 5ebc 36e5 483d
00000110: 233a 32bd c0e4 d73d 39a8 5b3c 9e9a 033c
00000120: d882 9ebd 58c7 64bd 5f77 893c 9f01 c8bc
00000130: fa15 7dbd e02d 2a3d 6256 d7bc d032 f43b
00000140: 5ebc f73c 455e 75ba adca 02bc db30 7b3d
00000150: 0b92 d2bc 36b1 8fbd d853 883c 33ce 793d
00000160: 4fdd 21bd 7bc5 38bc 4b87 40ba 6608 e0bd
00000170: 6bd8 16bd 8ede 4d3d 83db 09bd 6c5f 61bd
00000180: a956 1b3d cd7e 773d 78e4 39bd 4590 953c
00000190: 8f87 babc bf53 83bd 4d14 24bc 63a2 143c
000001a0: 7796 a63c e3b9 b9bc bd93 58bb 015f 2f3d
000001b0: d926 50bd 21f8 91bc 2b3e 4a3c f87f 35bd
000001c0: ea22 24bd bf8b 873d ba51 17bd 9b32 243d
000001d0: cb3e ef3c 4734 9fbc 72d5 2abd 90f7 4c3d
000001e0: a875 213d 6898 873d 5d6f e63c f7a9 8e3c
000001f0: ef20 6abd 408a efbd a3ff d53c 280d 343c
00000200: 8df7 afbb 46fe a43a d1d8 72bb fe20 73bd
00000210: 5896 093d c147 953d 89bf 403c 3555 d83b
00000220: 8d42 3fbd 4a60 03bd 0fa2 70bb 7d34 c03b
00000230: 68f3 843d f0f5 a43d cfa2 f43b fbd2 43bd
00000240: c5ef 8a3d 9154 33bd adca fd3b 60f5 9dba
00000250: a891 8f3c 6743 833d e21d 43bc 4519 4f3d
00000260: 7a2e 2b3d 446b c03a 6897 a63c a4d5 343c
00000270: a616 81bd 5d99 8a3d d109 a03c ac03 823d
00000280: 427e fe3c a041 8cbd 9dd7 f23c 3593 adbc
00000290: c2f2 dfbd a105 283d b7d2 85bc 3c54 d93c
000002a0: 2de1 9a39 1533 c53d 4c09 753c beea 173d
000002b0: 44df ef3c 19d6 793c 5dc0 1e3c 2ed8 693d
000002c0: 3972 6bbc b521 e93d 93e1 293d 78ba ffbc
000002d0: 79b4 3b3d 13ee e53c 28bc 0dbd df2b a7bc
000002e0: 0ee3 50bc 9988 083c 2338 8cb9 0287 dabd
000002f0: 42e6 06bc 1653 603d 3fe0 d6b9 0cf2 8dbd
00000300: a969 8cbd ccbd 203d cac6 8ebb 349a 983c
00000310: 61f6 92bc 1299 983c 03fb b7bb 64b8 28bd
00000320: f8f2 fcbc 4e22 913c 0291 f83c ce2d 2b3d
00000330: 8d22 903c f615 2e3c 9e96 e53c 6144 473d
00000340: 0263 473b d97a d93c 45a8 0bbd 87df 4ebc
00000350: 78d8 9cbc 83d1 35bd 5040 2abd d096 f93b
00000360: 5ea0 203d beed 113d 5732 02bd 9208 9fbd
00000370: db2f 0abd ea45 4ebd be77 043d 0cd8 44bd
00000380: 450f 22bd a67d 4bbc db27 30bd 88b2 2bbd
00000390: 9df4 eebc ef97 743d b17f 383d c044 fbbc
000003a0: 352f 52bc ca7c 633c 6df5 e83c eb06 5dbd
000003b0: 8c76 893d 36f4 963d 9502 e3bc 5a3e cfbd
000003c0: 5262 4fbd 0398 eb3c 5128 4bbd 391d 37bd
000003d0: 59ab f2bc 0b2b 52bd 5d88 0abd ce74 47bd
000003e0: ae45 d33b 9ce0 37bc 6901 fd3c 2ce6 61bc
000003f0: b938 07b9 9bdb 8dbd 3df3 f53c 011b 753d

fc1.bias f4 [400]
0.08118977 -0.06021785 -0.044060946 -0.004927951 -0.15541908 0.04671363 -0.17562988 0.18827628
0.02748879 0.18107016 -0.14604414 -0.10127399 0.14150088 -0.18189533 0.08898138 -0.12679383
0.11900465 -0.15856098 0.2325804 0.21538034 -0.00024944058 -0.050813664 0.13257386 0.0987902
0.13665044 0.18463854 0.14660867 0.1778381 -0.0413093 -0.109137915 0.09654256 0.13722838
-0.10754883 -0.06953809 0.088051826 -0.006495938 0.0964293 -0.19144657 -0.10291511 0.07092327
0.07978177 -0.001517607 0.046069246 0.07917627 -0.12025752 0.16086152 0.08184202 0.19076559
-0.018593382 0.11759907 -0.07900989 -0.062269907 -0.16788055 0.15235949 0.06350985 0.21324965
0.23683088 -0.05744832 0.074893676 0.17566672 -0.11113494 0.15760198 0.012044646 -0.19315529
-0.18553768 0.087599255 -0.079079255 0.13505195 0.1750194 0.1037938 -0.010755734 0.05841641
0.07985913 0.17885312 0.10689301 -0.18533032 0.09020204 0.0067648166 -0.017153904 -0.14675024
0.18805046 0.014575745 0.06007497 0.23828505 -0.14856867 0.17718647 0.07776392 -0.1854764
-0.11446551 0.015250128 -0.09764742 -0.16659221 -0.014407372 0.030829877 -0.14037918 -0.111289755
0.11356862 -0.008629493 -0.17287336 -0.19416708 -0.10267699 -0.16445173 0.10592807 0.11690067
-0.0685771 -0.09629218 0.12539862 0.048147313 -0.10632378 0.048336 0.13555227 0.05143405
0.098232806 -0.016432561 -0.0059177917 -0.08742878 0.055164818 -0.14609812 -0.07408869 -0.10907017
-0.071084425 0.18966605 -0.16633041 0.032182515 0.07990949 -0.050430253 0.15856998 0.02989963
-0.057003174 -0.18890697 -0.14484675 -0.0040677916 0.20204024 0.09034922 0.10247651 -0.069271125
-0.0033461745 0.059573628 -0.18308607 0.0351246 0.0015492202 0.062828355 -0.049461856 -0.19240758
0.05715704 0.02248645 -0.08835651 0.065980576 0.14716762 -0.049994357 -0.15308018 -0.0862837
0.025040567 0.028236974 -0.13145697 -0.14454772 0.010564734 -0.039210357 -0.15135247 -0.093402065
0.16436733 0.16746165 -0.06310384 -0.14576265 -0.14270243 -0.023429714 0.089334816 -0.04920523
0.12149177 0.012469408 -0.11942854 0.08801718 -0.12909284 -0.15694723 -0.055949457 0.0023874415
0.010296731 0.009906796 0.14567173 0.14216457 0.08688996 -0.16127667 0.1895009 -0.043277696
0.18234497 0.17700854 0.13140647 -0.14157557 0.13783245 0.1182789 -0.15854308 0.046749335
0.01662231 0.043659728 -0.14584565 0.187485 -0.11390711 0.11628831 0.002707689 -0.026647618
0.12828961 -0.022301974 -0.015186137 0.03947464 0.084621795 -0.14339831 -0.15394165 -0.14928167
-0.033839725 0.16703856 0.12544464 0.14042975 0.098185755 -0.19664882 0.16967796 0.10909473
0.21195005 0.03162305 0.043689795 0.05772829 0.10225737 0.14612916 0.17490661 0.19950992
-0.028657528 -0.14078443 -0.12659612 -0.1519144 -0.17955053 0.15039748 0.11113356 -0.0768881
-0.12276355 0.00021490478 -0.118993245 0.08461807 0.12203792 -0.0059142024 0.19312179 0.15110162
0.1252394 -0.12433356 -0.02384685 0.0027896082 0.19861591 -0.1261042 -0.009738677 0.11726938
-0.14196055 0.13615537 0.20484756 -0.08377787 0.056993585 0.067745395 0.047483254 -0.1839693
00000000: d246 a63d fea6 76bd 4079 34bd a67a a1bb
00000010: 2e26 1fbe cb56 3f3d 52d8 33be 7fcb 403e
00000020: 2c30 e13c 756a 393e 988c 15be bd68 cfbd
00000030: 9be5 103e c542 3abe df3b b63d 3ed6 01be
00000040: b6b8 f33d cf5d 22be 8e29 6e3e aa8c 5c3e
00000050: 59c7 82b9 fd21 50bd 71c1 073e 8452 ca3d
00000060: 18ee 0b3e e311 3d3e 9520 163e 311b 363e
00000070: f133 29bd b383 dfbd 1bb8 c53d 9985 0c3e
00000080: 9042 dcbd fc69 8ebd 8454 b43d e1db d4bb
00000090: ba7c c53d 920a 44be 28c5 d2bd 3840 913d
000000a0: a064 a33d 71ea c6ba 1bb3 3c3d 2b27 a23d
000000b0: 9349 f6bd e2b8 243e ca9c a73d 0e58 433e
000000c0: 2651 98bc c8d7 f03d f0cf a1bd bb0e 7fbd
000000d0: e1e8 2bbe 2004 1c3e 7411 823d 1e5e 5a3e
000000e0: cb83 723e ee4e 6bbd db61 993d fae1 333e
000000f0: b79a e3bd 6a62 213e e856 453c 80ca 45be
00000100: 97fd 3dbe 3d67 b33d 4ef4 a1bd 0f4b 0a3e
00000110: 4938 333e d891 d43d d138 30bc 0c46 6f3d
00000120: 2f8d a33d 4625 373e b9ea da3d 3bc7 3dbe
00000130: d9bb b83d 65ab dd3b 5886 8cbc b245 16be
00000140: 4d90 403e 1bcf 6e3c 2c11 763d ff00 743e
00000150: 6322 18be 5f70 353e b142 9f3d 87ed 3dbe
00000160: e56c eabd acdb 793c 5ffb c7bd 2697 2abe
00000170: e60c 6cbc f08e fc3c 8fbf 0fbe e2eb e3bd
00000180: aa96 e83d b862 0dbc b705 31be bcd3 46be
00000190: 5048 d2bd 0966 28be d1f0 d83d 9e69 ef3d
000001a0: 2772 8cbd d634 c5bd 7f68 003e 1e36 453d
000001b0: 48c0 d9bd f8fb 453d 37ce 0a3e 83ac 523d
000001c0: 482e c93d 949d 86bc 09ea c1bb dc0d b3bd
000001d0: 81f4 613d bf9a 15be d0bb 97bd 2e60 dfbd
000001e0: b694 91bd d137 423e 8552 2abe d0d1 033d
000001f0: 96a7 a33d f48f 4ebd 2b60 223e 12f0 f43c
00000200: 297c 69bd d470 41be b552 14be 1c4b 85bb
00000210: a3e3 4e3e 0309 b93d 34df d13d 05de 8dbd
00000220: 7e4b 5bbb 7a03 743d ea7a 3bbe d0de 0f3d
00000230: 340f cb3a 27ac 803d 8498 4abd 7e06 45be
00000240: 801d 6a3d 8135 b83c 42f4 b4bd d320 873d
00000250: 1cb3 163e e2c6 4cbd 0dc1 1cbe 82b5 b0bd
00000260: e021 cd3c 3a51 e73c a89c 06be 5104 14be
00000270: b517 2d3c 0a9b 20bd 24fc 1abe 9549 bfbd
00000280: e94f 283e 117b 2b3e 963c 81bd ce42 15be
00000290: 9620 12be acef bfbc 2cf5 b63d 6c8b 49bd
000002a0: add0 f83d 7d4c 4c3c f396 f4bd 5a42 b43d
000002b0: ea30 04be c6b6 20be 422b 65bd 9f76 1c3b
000002c0: 9fb3 283c 1d50 223c f82a 153e 9793 113e
000002d0: 5df3 b13d b625 25be 860c 423e f443 31bd
000002e0: a4b8 3a3e ba41 353e 6b8f 063e 30f9 10be
000002f0: f323 0d3e 353c f23d 1e59 22be 3b7c 3f3d
00000300: 832b 883c 8bd4 323d 9058 15be 11fc 3f3e
00000310: 2248 e9bd 9128 ee3d 7c73 313b 1b4c dabc
00000320: 5a5e 033e a1b2 b6bc 46cf 78bc 29b0 213d
00000330: 314e ad3d 02d7 12be e1a2 1dbe 4bdd 18be
00000340: 869b 0abd 280c 2b3e 8f74 003e d1cc 0f3e
00000350: 9d15 c93d 4f5e 49be 0fc0 2d3e 0f6d df3d
00000360: 6f09 593e 2c87 013d 12f4 323d 8074 6c3d
00000370: 506c d13d e2a2 153e b81a 333e 544c 4c3e
00000380: 31c3 eabc cb29 10be 6aa2 01be 738f 1bbe
00000390: 18dc 37be cc01 1a3e fe99 e33d 8277 9dbd
000003a0: 756b fbbd 1058 6139 bbb2 f3bd 3d4c ad3d
000003b0: 04ef f93d edcb c1bb b8c1 453e 62ba 1a3e
000003c0: c23e 003e 98a2 febd 785a c3bc dcd1 363b
000003d0: f861 4b3e 7621 01be f98e 1fbc ee2a f03d
000003e0: 1b5e 11be 506c 0b3e 8fc3 513e bb93 abbd
000003f0: 1b72 693d 19be 8a3d cd7d 423d 7362 3cbe

bn1.weight f4 [400]
0.9575575 0.06640983 0.7639897 0.5367592 0.9127137 0.5284617 0.39946902 0.43783718
0.1321401 0.91116816 0.80308473 0.59208155 0.47998053 0.28676063 0.5245883 0.64014333
0.3194477 0.5322872 0.91625285 0.13997197 0.33262962 0.88766956 0.9574754 0.91511256
0.3663752 0.8054445 0.6272024 0.38583976 0.42413014 0.86347115 0.83514607 0.8171028
0.31646115 8.7320805e-05 0.30048907 0.70855355 0.022037745 0.7815446 0.26324308 0.8382832
0.14111471 0.30353594 0.027377129 0.16053325 0.39008415 0.37568682 0.5002541 0.74801594
0.33413392 0.83595604 0.39628166 0.26657045 0.42477632 0.71224964 0.25378072 0.10058838
0.09437096 0.45595843 0.710505 0.81632525 0.5303332 0.37719005 0.33466434 0.01692909
0.13876766 0.3188603 0.4181788 0.6818854 0.8551702 0.2419545 0.18057919 0.00829953
0.6146345 0.99509156 0.84148365 0.9685913 0.61432457 0.30725062 0.9007155 0.6338995
0.7931819 0.1709814 0.31478655 0.20901084 0.08540696 0.84889674 0.17872024 0.17235112
0.45894903 0.15907145 0.5693188 0.30678254 0.86883116 0.6461664 0.5539618 0.67978406
0.42658848 0.01222837 0.94171286 0.42879194 0.5161225 0.270046 0.85644615 0.39945757
0.34956878 0.60135865 0.40807158 0.358364 0.5914659 0.79541916 0.16109055 0.9188542
0.7719735 0.81589246 0.56732535 0.48718953 0.43565303 0.47482276 0.12970388 0.3855996
0.61306655 0.2288965 0.8502934 0.7776112 0.30741215 0.35592824 0.42731953 0.52851284
0.97349787 0.7173131 0.8315494 0.4683504 0.5116857 0.090718925 0.52619976 0.7413621
0.17395735 0.63527113 0.857337 0.49780816 0.22247028 0.97487307 0.83631486 0.005418062
0.17909402 0.78670555 0.09111291 0.44419408 0.97728705 0.20341676 0.7505313 0.79476595
0.80486727 0.18384665 0.43447965 0.793791 0.3124532 0.96986485 0.22120059 0.31459117
0.577918 0.20591593 0.341896 0.7103994 0.30765224 0.0012100339 0.401725 0.13658917
0.8114227 0.25537372 0.8706965 0.78170514 0.5489642 0.56860167 0.24001205 0.75826645
0.903808 0.18699014 0.3481114 0.5202355 0.76157427 0.9358705 0.6677305 0.5130776
0.51324046 0.8648517 0.8589924 0.027339637 0.28527862 0.1457156 0.103598356 0.43009228
0.9157423 0.14776778 0.010864139 0.6620896 0.4170553 0.60665286 0.48017603 0.7063078
0.048606634 0.031066716 0.327152 0.53457016 0.5632337 0.54864943 0.62420243 0.6677128
0.86901647 0.7867993 0.72877574 0.31762564 0.6613671 0.34174865 0.14926797 0.35749388
0.72232884 0.5870654 0.07943207 0.22569644 0.36990064 0.05071509 0.4550066 0.5094298
0.88934684 0.05449176 0.44438237 0.9802213 0.3539179 0.3862465 0.93363696 0.7570511
0.26172042 0.32946813 0.20896512 0.18726397 0.2645507 0.66113776 0.29234833 0.38350224
0.7486728 0.26673335 0.8227787 0.4846161 0.23811871 0.4273739 0.9739087 0.15730357
0.5372945 0.8733546 0.08643466 0.6246251 0.8360639 0.65308636 0.5628089 0.296561
00000000: 7d22 753f e001 883d d494 433f 0d69 093f
00000010: 9ba7 693f 4449 073f 3487 cc3e 322c e03e
00000020: bc4f 073e 5142 693f f696 4d3f a892 173f
00000030: 02c0 f53e 4ad2 923e 6b4b 063f 6fe0 233f
00000040: a68e a33e f943 083f 8c8f 6a3f d054 0f3e
00000050: 6e4e aa3e 503e 633f 1c1d 753f d144 6a3f
00000060: 8895 bb3e 9c31 4e3f 5690 203f ca8c c53e
00000070: 9627 d93e 720c 5d3f 22cc 553f a62d 513f
00000080: 3207 a23e 0020 b738 b4d9 993e c463 353f
00000090: 8088 b43c 4f13 483f ccc7 863e ba99 563f
000000a0: 6080 103e 1069 9b3e 0046 e03c d462 243e
000000b0: 1cb9 c73e 065a c03e a710 003f f97d 3f3f
000000c0: 9a13 ab3e 3701 563f 6ee5 ca3e ec7b 883e
000000d0: 487c d93e fe55 363f 8cef 813e 4801 ce3d
000000e0: 9045 c13d 6273 e93e a8e3 353f b1fa 503f
000000f0: ebc3 073f 0e1f c13e 2059 ab3e e0ae 8a3c
00000100: 1c19 0e3e a841 a33e 881b d63e 0b90 2e3f
00000110: 6fec 5a3f ecc2 773e c0e9 383e c0fa 073c
00000120: b058 1d3f 52be 7e3f 796b 573f 99f5 773f
00000130: 6044 1d3f f44f 9d3e 4a95 663f 3d47 223f
00000140: f80d 4b3f c015 2f3e b42b a13e f006 563e
00000150: d8e9 ae3d 4c51 593f 7002 373e d07c 303e
00000160: 5efb ea3e a0e3 223e e0be 113f 9a12 9d3e
00000170: b86b 5e3f 296b 253f 71d0 0d3f 5406 2e3f
00000180: ce69 da3e 8059 483c 1814 713f 9e8a db3e
00000190: 9b20 043f 7843 8a3e 0e40 5b3f b485 cc3e
000001a0: aefa b23e a4f2 193f c2ee d03e 7c7b b73e
000001b0: 4f6a 173f 97a0 4b3f ecf4 243e 073a 6b3f
000001c0: 0ea0 453f 54de 503f 3c3c 113f e870 f93e
000001d0: ea0d df3e f81b f33e 18d1 043e 506d c53e
000001e0: eef1 1c3f d863 6a3e d4ac 593f 8711 473f
000001f0: 2065 9d3e 3a3c b63e a0c9 da3e 9e4c 073f
00000200: 2837 793f d5a1 373f 6ce0 543f a0cb ef3e
00000210: d6fd 023f d8ca b93d 07b5 063f e8c9 3d3f
00000220: e021 323e 21a1 223f 707a 5b3f b6e0 fe3e
00000230: 40cf 633e 4891 793f bb18 563f 008a b13b
00000240: 6c64 373e 8965 493f 6899 ba3d 686d e33e
00000250: 7c2f 7a3f 7c4c 503e d222 403f c875 4b3f
00000260: c80b 4e3f 4c42 3c3e 1e74 de3e e335 4b3f
00000270: def9 9f3e 1049 783f 6882 623e 1812 a13e
00000280: 6ff2 133f a0db 523e fe0c af3e bcdc 353f
00000290: 9884 9d3e 009a 9e3a e6ae cd3e 08de 0b3e
000002a0: 66b9 4f3f 58c0 823e f7e5 5e3f d41d 483f
000002b0: eb88 0c3f e18f 113f b8c5 753e c01d 423f
000002c0: f65f 673f 587a 3f3e a83b b23e 272e 053f
000002d0: 88f6 423f 3695 6f3f 63f0 2a3f 0e59 033f
000002e0: ba63 033f ec66 5d3f ede6 5b3f 60f7 df3c
000002f0: 0a10 923e 7836 153e 602b d43d 0e35 dc3e
00000300: 166e 6a3f 7050 173e 80ff 313c b47e 293f
00000310: 4688 d53e 9a4d 1b3f a2d9 f53e 97d0 343f
00000320: c017 473d a07f fe3c 7880 a73e 97d9 083f
00000330: 1530 103f 4a74 0c3f bbcb 1f3f 3aef 2a3f
00000340: dd77 5e3f ae6b 493f 0c91 3a3f d49f a23e
00000350: 5b4f 293f aef9 ae3e b4d9 183e 7009 b73e
00000360: 8bea 383f eb49 163f 48ad a23d f81c 673e
00000370: 9e63 bd3e a0ba 4f3d a0f6 e83e fe69 023f
00000380: 3cac 633f c032 5f3d 1686 e33e c8ef 7a3f
00000390: ba34 b53e 1ac2 c53e d502 6f3f 1ace 413f
000003a0: 3800 863e 0cb0 a83e f4fa 553e 20c2 3f3e
000003b0: 3073 873e 5340 293f aeae 953e 685a c43e
000003c0: 05a9 3f3f 4691 883e a0a1 523f 9a1f f83e
000003d0: 64d5 733e c0d0 da3e 1552 793f 3014 213e
000003e0: 228c 093f 2b94 5f3f a804 b13d 6ee7 1f3f
000003f0: 4908 563f ab30 273f 3e14 103f d8d6 973e

bn1.bias f4 [400]
0.0 0.0 0.0 0.0 0.0 0.0 0.0 0.0
0.0 0.0 0.0 0.0 0.0 0.0 0.0 0.0
0.0 0.0 0.0 0.0 0.0 0.0 0.0 0.0
0.0 0.0 0.0 0.0 0.0 0.0 0.0 0.0
0.0 0.0 0.0 0.0 0.0 0.0 0.0 0.0
0.0 0.0 0.0 0.0 0.0 0.0 0.0 0.0
0.0 0.0 0.0 0.0 0.0 0.0 0.0 0.0
0.0 0.0 0.0 0.0 0.0 0.0 0.0 0.0
0.0 0.0 0.0 0.0 0.0 0.0 0.0 0.0
0.0 0.0 0.0 0.0 0.0 0.0 0.0 0.0
0.0 0.0 0.0 0.0 0.0 0.0 0.0 0.0
0.0 0.0 0.0 0.0 0.0 0.0 0.0 0.0
0.0 0.0 0.0 0.0 0.0 0.0 0.0 0.0
0.0 0.0 0.0 0.0 0.0 0.0 0.0 0.0
0.0 0.0 0.0 0.0 0.0 0.0 0.0 0.0
0.0 0.0 0.0 0.0 0.0 0.0 0.0 0.0
0.0 0.0 0.0 0.0 0.0 0.0 0.0 0.0
0.0 0.0 0.0 0.0 0.0 0.0 0.0 0.0
0.0 0.0 0.0 0.0 0.0 0.0 0.0 0.0
0.0 0.0 0.0 0.0 0.0 0.0 0.0 0.0
0.0 0.0 0.0 0.0 0.0 0.0 0.0 0.0
0.0 0.0 0.0 0.0 0.0 0.0 0.0 0.0
0.0 0.0 0.0 0.0 0.0 0.0 0.0 0.0
0.0 0.0 0.0 0.0 0.0 0.0 0.0 0.0
0.0 0.0 0.0 0.0 0.0 0.0 0.0 0.0
0.0 0.0 0.0 0.0 0.0 0.0 0.0 0.0
0.0 0.0 0.0 0.0 0.0 0.0 0.0 0.0
0.0 0.0 0.0 0.0 0.0 0.0 0.0 0.0
0.0 0.0 0.0 0.0 0.0 0.0 0.0 0.0
0.0 0.0 0.0 0.0 0.0 0.0 0.0 0.0
0.0 0.0 0.0 0.0 0.0 0.0 0.0 0.0
0.0 0.0 0.0 0.0 0.0 0.0 0.0 0.0
00000000: 0000 0000 0000 0000 0000 0000 0000 0000
00000010: 0000 0000 0000 0000 0000 0000 0000 0000
00000020: 0000 0000 0000 0000 0000 0000 0000 0000
00000030: 0000 0000 0000 0000 0000 0000 0000 0000
00000040: 0000 0000 0000 0000 0000 0000 0000 0000
00000050: 0000 0000 0000 0000 0000 0000 0000 0000
00000060: 0000 0000 0000 0000 0000 0000 0000 0000
00000070: 0000 0000 0000 0000 0000 0000 0000 0000
00000080: 0000 0000 0000 0000 0000 0000 0000 0000
00000090: 0000 0000 0000 0000 0000 0000 0000 0000
000000a0: 0000 0000 0000 0000 0000 0000 0000 0000
000000b0: 0000 0000 0000 0000 0000 0000 0000 0000
000000c0: 0000 0000 0000 0000 0000 0000 0000 0000
000000d0: 0000 0000 0000 0000 0000 0000 0000 0000
000000e0: 0000 0000 0000 0000 0000 0000 0000 0000
000000f0: 0000 0000 0000 0000 0000 0000 0000 0000
00000100: 0000 0000 0000 0000 0000 0000 0000 0000
00000110: 0000 0000 0000 0000 0000 0000 0000 0000
00000120: 0000 0000 0000 0000 0000 0000 0000 0000
00000130: 0000 0000 0000 0000 0000 0000 0000 0000
00000140: 0000 0000 0000 0000 0000 0000 0000 0000
00000150: 0000 0000 0000 0000 0000 0000 0000 0000
00000160: 0000 0000 0000 0000 0000 0000 0000 0000
00000170: 0000 0000 0000 0000 0000 0000 0000 0000
00000180: 0000 0000 0000 0000 0000 0000 0000 0000
00000190: 0000 0000 0000 0000 0000 0000 0000 0000
000001a0: 0000 0000 0000 0000 0000 0000 0000 0000
000001b0: 0000 0000 0000 0000 0000 0000 0000 0000
000001c0: 0000 0000 0000 0000 0000 0000 0000 0000
000001d0: 0000 0000 0000 0000 0000 0000 0000 0000
000001e0: 0000 0000 0000 0000 0000 0000 0000 0000
000001f0: 0000 0000 0000 0000 0000 0000 0000 0000
00000200: 0000 0000 0000 0000 0000 0000 0000 0000
00000210: 0000 0000 0000 0000 0000 0000 0000 0000
00000220: 0000 0000 0000 0000 0000 0000 0000 0000
00000230: 0000 0000 0000 0000 0000 0000 0000 0000
00000240: 0000 0000 0000 0000 0000 0000 0000 0000
00000250: 0000 0000 0000 0000 0000 0000 0000 0000
00000260: 0000 0000 0000 0000 0000 0000 0000 0000
00000270: 0000 0000 0000 0000 0000 0000 0000 0000
00000280: 0000 0000 0000 0000 0000 0000 0000 0000
00000290: 0000 0000 0000 0000 0000 0000 0000 0000
000002a0: 0000 0000 0000 0000 0000 0000 0000 0000
000002b0: 0000 0000 0000 0000 0000 0000 0000 0000
000002c0: 0000 0000 0000 0000 0000 0000 0000 0000
000002d0: 0000 0000 0000 0000 0000 0000 0000 0000
000002e0: 0000 0000 0000 0000 0000 0000 0000 0000
000002f0: 0000 0000 0000 0000 0000 0000 0000 0000
00000300: 0000 0000 0000 0000 0000 0000 0000 0000
00000310: 0000 0000 0000 0000 0000 0000 0000 0000
00000320: 0000 0000 0000 0000 0000 0000 0000 0000
00000330: 0000 0000 0000 0000 0000 0000 0000 0000
00000340: 0000 0000 0000 0000 0000 0000 0000 0000
00000350: 0000 0000 0000 0000 0000 0000 0000 0000
00000360: 0000 0000 0000 0000 0000 0000 0000 0000
00000370: 0000 0000 0000 0000 0000 0000 0000 0000
00000380: 0000 0000 0000 0000 0000 0000 0000 0000
00000390: 0000 0000 0000 0000 0000 0000 0000 0000
000003a0: 0000 0000 0000 0000 0000 0000 0000 0000
000003b0: 0000 0000 0000 0000 0000 0000 0000 0000
000003c0: 0000 0000 0000 0000 0000 0000 0000 0000
000003d0: 0000 0000 0000 0000 0000 0000 0000 0000
000003e0: 0000 0000 0000 0000 0000 0000 0000 0000
000003f0: 0000 0000 0000 0000 0000 0000 0000 0000

bn1.running_mean f4 [400]
0.0 0.0 0.0 0.0 0.0 0.0 0.0 0.0
0.0 0.0 0.0 0.0 0.0 0.0 0.0 0.0
0.0 0.0 0.0 0.0 0.0 0.0 0.0 0.0
0.0 0.0 0.0 0.0 0.0 0.0 0.0 0.0
0.0 0.0 0.0 0.0 0.0 0.0 0.0 0.0
0.0 0.0 0.0 0.0 0.0 0.0 0.0 0.0
0.0 0.0 0.0 0.0 0.0 0.0 0.0 0.0
0.0 0.0 0.0 0.0 0.0 0.0 0.0 0.0
0.0 0.0 0.0 0.0 0.0 0.0 0.0 0.0
0.0 0.0 0.0 0.0 0.0 0.0 0.0 0.0
0.0 0.0 0.0 0.0 0.0 0.0 0.0 0.0
0.0 0.0 0.0 0.0 0.0 0.0 0.0 0.0
0.0 0.0 0.0 0.0 0.0 0.0 0.0 0.0
0.0 0.0 0.0 0.0 0.0 0.0 0.0 0.0
0.0 0.0 0.0 0.0 0.0 0.0 0.0 0.0
0.0 0.0 0.0 0.0 0.0 0.0 0.0 0.0
0.0 0.0 0.0 0.0 0.0 0.0 0.0 0.0
0.0 0.0 0.0 0.0 0.0 0.0 0.0 0.0
0.0 0.0 0.0 0.0 0.0 0.0 0.0 0.0
0.0 0.0 0.0 0.0 0.0 0.0 0.0 0.0
0.0 0.0 0.0 0.0 0.0 0.0 0.0 0.0
0.0 0.0 0.0 0.0 0.0 0.0 0.0 0.0
0.0 0.0 0.0 0.0 0.0 0.0 0.0 0.0
0.0 0.0 0.0 0.0 0.0 0.0 0.0 0.0
0.0 0.0 0.0 0.0 0.0 0.0 0.0 0.0
0.0 0.0 0.0 0.0 0.0 0.0 0.0 0.0
0.0 0.0 0.0 0.0 0.0 0.0 0.0 0.0
0.0 0.0 0.0 0.0 0.0 0.0 0.0 0.0
0.0 0.0 0.0 0.0 0.0 0.0 0.0 0.0
0.0 0.0 0.0 0.0 0.0 0.0 0.0 0.0
0.0 0.0 0.0 0.0 0.0 0.0 0.0 0.0
0.0 0.0 0.0 0.0 0.0 0.0 0.0 0.0
00000000: 0000 0000 0000 0000 0000 0000 0000 0000
00000010: 0000 0000 0000 0000 0000 0000 0000 0000
00000020: 0000 0000 0000 0000 0000 0000 0000 0000
00000030: 0000 0000 0000 0000 0000 0000 0000 0000
00000040: 0000 0000 0000 0000 0000 0000 0000 0000
00000050: 0000 0000 0000 0000 0000 0000 0000 0000
00000060: 0000 0000 0000 0000 0000 0000 0000 0000
00000070: 0000 0000 0000 0000 0000 0000 0000 0000
00000080: 0000 0000 0000 0000 0000 0000 0000 0000
00000090: 0000 0000 0000 0000 0000 0000 0000 0000
000000a0: 0000 0000 0000 0000 0000 0000 0000 0000
000000b0: 0000 0000 0000 0000 0000 0000 0000 0000
000000c0: 0000 0000 0000 0000 0000 0000 0000 0000
000000d0: 0000 0000 0000 0000 0000 0000 0000 0000
000000e0: 0000 0000 0000 0000 0000 0000 0000 0000
000000f0: 0000 0000 0000 0000 0000 0000 0000 0000
00000100: 0000 0000 0000 0000 0000 0000 0000 0000
00000110: 0000 0000 0000 0000 0000 0000 0000 0000
00000120: 0000 0000 0000 0000 0000 0000 0000 0000
00000130: 0000 0000 0000 0000 0000 0000 0000 0000
00000140: 0000 0000 0000 0000 0000 0000 0000 0000
00000150: 0000 0000 0000 0000 0000 0000 0000 0000
00000160: 0000 0000 0000 0000 0000 0000 0000 0000
00000170: 0000 0000 0000 0000 0000 0000 0000 0000
00000180: 0000 0000 0000 0000 0000 0000 0000 0000
00000190: 0000 0000 0000 0000 0000 0000 0000 0000
000001a0: 0000 0000 0000 0000 0000 0000 0000 0000
000001b0: 0000 0000 0000 0000 0000 0000 0000 0000
000001c0: 0000 0000 0000 0000 0000 0000 0000 0000
000001d0: 0000 0000 0000 0000 0000 0000 0000 0000
000001e0: 0000 0000 0000 0000 0000 0000 0000 0000
000001f0: 0000 0000 0000 0000 0000 0000 0000 0000
00000200: 0000 0000 0000 0000 0000 0000 0000 0000
00000210: 0000 0000 0000 0000 0000 0000 0000 0000
00000220: 0000 0000 0000 0000 0000 0000 0000 0000
00000230: 0000 0000 0000 0000 0000 0000 0000 0000
00000240: 0000 0000 0000 0000 0000 0000 0000 0000
00000250: 0000 0000 0000 0000 0000 0000 0000 0000
00000260: 0000 0000 0000 0000 0000 0000 0000 0000
00000270: 0000 0000 0000 0000 0000 0000 0000 0000
00000280: 0000 0000 0000 0000 0000 0000 0000 0000
00000290: 0000 0000 0000 0000 0000 0000 0000 0000
000002a0: 0000 0000 0000 0000 0000 0000 0000 0000
000002b0: 0000 0000 0000 0000 0000 0000 0000 0000
000002c0: 0000 0000 0000 0000 0000 0000 0000 0000
000002d0: 0000 0000 0000 0000 0000 0000 0000 0000
000002e0: 0000 0000 0000 0000 0000 0000 0000 0000
000002f0: 0000 0000 0000 0000 0000 0000 0000 0000
00000300: 0000 0000 0000 0000 0000 0000 0000 0000
00000310: 0000 0000 0000 0000 0000 0000 0000 0000
00000320: 0000 0000 0000 0000 0000 0000 0000 0000
00000330: 0000 0000 0000 0000 0000 0000 0000 0000
00000340: 0000 0000 0000 0000 0000 0000 0000 0000
00000350: 0000 0000 0000 0000 0000 0000 0000 0000
00000360: 0000 0000 0000 0000 0000 0000 0000 0000
00000370: 0000 0000 0000 0000 0000 0000 0000 0000
00000380: 0000 0000 0000 0000 0000 0000 0000 0000
00000390: 0000 0000 0000 0000 0000 0000 0000 0000
000003a0: 0000 0000 0000 0000 0000 0000 0000 0000
000003b0: 0000 0000 0000 0000 0000 0000 0000 0000
000003c0: 0000 0000 0000 0000 0000 0000 0000 0000
000003d0: 0000 0000 0000 0000 0000 0000 0000 0000
000003e0: 0000 0000 0000 0000 0000 0000 0000 0000
000003f0: 0000 0000 0000 0000 0000 0000 0000 0000

bn1.running_var f4 [400]
1.0 1.0 1.0 1.0 1.0 1.0 1.0 1.0
1.0 1.0 1.0 1.0 1.0 1.0 1.0 1.0
1.0 1.0 1.0 1.0 1.0 1.0 1.0 1.0
1.0 1.0 1.0 1.0 1.0 1.0 1.0 1.0
1.0 1.0 1.0 1.0 1.0 1.0 1.0 1.0
1.0 1.0 1.0 1.0 1.0 1.0 1.0 1.0
1.0 1.0 1.0 1.0 1.0 1.0 1.0 1.0
1.0 1.0 1.0 1.0 1.0 1.0 1.0 1.0
1.0 1.0 1.0 1.0 1.0 1.0 1.0 1.0
1.0 1.0 1.0 1.0 1.0 1.0 1.0 1.0
1.0 1.0 1.0 1.0 1.0 1.0 1.0 1.0
1.0 1.0 1.0 1.0 1.0 1.0 1.0 1.0
1.0 1.0 1.0 1.0 1.0 1.0 1.0 1.0
1.0 1.0 1.0 1.0 1.0 1.0 1.0 1.0
1.0 1.0 1.0 1.0 1.0 1.0 1.0 1.0
1.0 1.0 1.0 1.0 1.0 1.0 1.0 1.0
1.0 1.0 1.0 1.0 1.0 1.0 1.0 1.0
1.0 1.0 1.0 1.0 1.0 1.0 1.0 1.0
1.0 1.0 1.0 1.0 1.0 1.0 1.0 1.0
1.0 1.0 1.0 1.0 1.0 1.0 1.0 1.0
1.0 1.0 1.0 1.0 1.0 1.0 1.0 1.0
1.0 1.0 1.0 1.0 1.0 1.0 1.0 1.0
1.0 1.0 1.0 1.0 1.0 1.0 1.0 1.0
1.0 1.0 1.0 1.0 1.0 1.0 1.0 1.0
1.0 1.0 1.0 1.0 1.0 1.0 1.0 1.0
1.0 1.0 1.0 1.0 1.0 1.0 1.0 1.0
1.0 1.0 1.0 1.0 1.0 1.0 1.0 1.0
1.0 1.0 1.0 1.0 1.0 1.0 1.0 1.0
1.0 1.0 1.0 1.0 1.0 1.0 1.0 1.0
1.0 1.0 1.0 1.0 1.0 1.0 1.0 1.0
1.0 1.0 1.0 1.0 1.0 1.0 1.0 1.0
1.0 1.0 1.0 1.0 1.0 1.0 1.0 1.0
00000000: 0000 803f 0000 803f 0000 803f 0000 803f
00000010: 0000 803f 0000 803f 0000 803f 0000 803f
00000020: 0000 803f 0000 803f 0000 803f 0000 803f
00000030: 0000 803f 0000 803f 0000 803f 0000 803f
00000040: 0000 803f 0000 803f 0000 803f 0000 803f
00000050: 0000 803f 0000 803f 0000 803f 0000 803f
00000060: 0000 803f 0000 803f 0000 803f 0000 803f
00000070: 0000 803f 0000 803f 0000 803f 0000 803f
00000080: 0000 803f 0000 803f 0000 803f 0000 803f
00000090: 0000 803f 0000 803f 0000 803f 0000 803f
000000a0: 0000 803f 0000 803f 0000 803f 0000 803f
000000b0: 0000 803f 0000 803f 0000 803f 0000 803f
000000c0: 0000 803f 0000 803f 0000 803f 0000 803f
000000d0: 0000 803f 0000 803f 0000 803f 0000 803f
000000e0: 0000 803f 0000 803f 0000 803f 0000 803f
000000f0: 0000 803f 0000 803f 0000 803f 0000 803f
00000100: 0000 803f 0000 803f 0000 803f 0000 803f
00000110: 0000 803f 0000 803f 0000 803f 0000 803f
00000120: 0000 803f 0000 803f 0000 803f 0000 803f
00000130: 0000 803f 0000 803f 0000 803f 0000 803f
00000140: 0000 803f 0000 803f 0000 803f 0000 803f
00000150: 0000 803f 0000 803f 0000 803f 0000 803f
00000160: 0000 803f 0000 803f 0000 803f 0000 803f
00000170: 0000 803f 0000 803f 0000 803f 0000 803f
00000180: 0000 803f 0000 803f 0000 803f 0000 803f
00000190: 0000 803f 0000 803f 0000 803f 0000 803f
000001a0: 0000 803f 0000 803f 0000 803f 0000 803f
000001b0: 0000 803f 0000 803f 0000 803f 0000 803f
000001c0: 0000 803f 0000 803f 0000 803f 0000 803f
000001d0: 0000 803f 0000 803f 0000 803f 0000 803f
000001e0: 0000 803f 0000 803f 0000 803f 0000 803f
000001f0: 0000 803f 0000 803f 0000 803f 0000 803f
00000200: 0000 803f 0000 803f 0000 803f 0000 803f
00000210: 0000 803f 0000 803f 0000 803f 0000 803f
00000220: 0000 803f 0000 803f 0000 803f 0000 803f
00000230: 0000 803f 0000 803f 0000 803f 0000 803f
00000240: 0000 803f 0000 803f 0000 803f 0000 803f
00000250: 0000 803f 0000 803f 0000 803f 0000 803f
00000260: 0000 803f 0000 803f 0000 803f 0000 803f
00000270: 0000 803f 0000 803f 0000 803f 0000 803f
00000280: 0000 803f 0000 803f 0000 803f 0000 803f
00000290: 0000 803f 0000 803f 0000 803f 0000 803f
000002a0: 0000 803f 0000 803f 0000 803f 0000 803f
000002b0: 0000 803f 0000 803f 0000 803f 0000 803f
000002c0: 0000 803f 0000 803f 0000 803f 0000 803f
000002d0: 0000 803f 0000 803f 0000 803f 0000 803f
000002e0: 0000 803f 0000 803f 0000 803f 0000 803f
000002f0: 0000 803f 0000 803f 0000 803f 0000 803f
00000300: 0000 803f 0000 803f 0000 803f 0000 803f
00000310: 0000 803f 0000 803f 0000 803f 0000 803f
00000320: 0000 803f 0000 803f 0000 803f 0000 803f
00000330: 0000 803f 0000 803f 0000 803f 0000 803f
00000340: 0000 803f 0000 803f 0000 803f 0000 803f
00000350: 0000 803f 0000 803f 0000 803f 0000 803f
00000360: 0000 803f 0000 803f 0000 803f 0000 803f
00000370: 0000 803f 0000 803f 0000 803f 0000 803f
00000380: 0000 803f 0000 803f 0000 803f 0000 803f
00000390: 0000 803f 0000 803f 0000 803f 0000 803f
000003a0: 0000 803f 0000 803f 0000 803f 0000 803f
000003b0: 0000 803f 0000 803f 0000 803f 0000 803f
000003c0: 0000 803f 0000 803f 0000 803f 0000 803f
000003d0: 0000 803f 0000 803f 0000 803f 0000 803f
000003e0: 0000 803f 0000 803f 0000 803f 0000 803f
000003f0: 0000 803f 0000 803f 0000 803f 0000 803f

fc2.weight f4 [300, 400]
0.062744565 -0.04964824 0.05642746 -0.038592856 -0.018839948 0.06613989 -0.007466273 0.018754346
0.039810076 0.03010875 0.051750213 0.0075341994 -0.010431881 -0.03014983 0.033176612 0.016632693
0.02748437 -0.013702767 0.09421203 -0.040502075 0.011373291 -0.04278537 -0.056533944 -0.014001147
0.014550223 -0.0054502264 0.047204662 -0.008336786 -0.041242193 0.021629706 0.03373619 -0.033574693
0.03798348 -0.05829842 -0.02478423 0.07709366 0.035260014 -0.038462203 -0.045920573 -0.04769492
0.056022007 0.04323259 -0.03162462 -0.00041546437 -0.034546323 0.028344747 0.06303409 0.07065241
-0.016404636 -0.04858422 0.037443805 -0.00219942 -0.039252445 0.05231947 -0.050448645 -0.086755365
0.04801848 -0.016343528 0.01739043 0.0561096 0.026107704 -0.0093993675 -0.000247546 0.05865257
0.04829099 0.066526815 0.046709646 0.00097267644 0.0045507485 0.019515792 0.05101989 0.03507763
0.01164676 0.06570613 0.04333065 0.035689455 -0.038202994 0.060258 -0.011096008 0.022399155
-0.026999593 -0.037692368 0.04265671 0.035108425 -0.00600529 0.039298072 0.038304098 -0.011836352
0.0664915 -0.024049412 -0.0056864764 0.042469047 -0.024440296 0.0070851976 -0.04399317 -0.03943296
-0.022033546 0.049960516 0.034796525 0.06057475 -0.021396618 0.025070349 0.05007141 0.039980642
-0.04255568 0.042311624 0.007255564 0.029352687 -0.0010539277 0.037238702 -0.011629726 -0.015018026
-0.012774551 -0.051592067 -0.037494417 0.043362126 0.013265584 -0.024428802 0.020711277 -0.020787647
-0.09058659 -0.017779093 0.011212821 0.022187104 -0.021647947 0.020158403 0.04264211 0.04563188
-0.013791722 0.00648458 -0.0337748 0.012114651 -0.014660152 -0.0039045694 0.026678063 0.017753398
0.0512174 -0.00084285374 0.017542558 0.0014561361 -0.0070990575 -0.030570615 0.016658945 -0.020581337
-0.00793701 -0.00083478127 0.06916297 0.04792219 0.030313218 0.016794737 -0.0039514685 0.026970562
-0.04774319 0.035358302 0.025100132 0.06885358 -0.059230264 0.05762653 0.06887593 -0.030553514
0.017094353 0.007952528 0.0547487 0.035677146 0.062086314 -0.004880017 -0.0051804883 0.028963247
0.0024028213 0.05119743 0.0041936324 0.040801853 -0.0034116681 -0.01825851 -0.040588338 -0.026189268
0.017814087 0.012063277 0.021864092 0.026025465 0.014619202 0.016876277 -0.00456817 0.045999724
-0.054287132 0.03765934 0.03702808 0.021868223 0.004747318 0.0040669595 -0.03931584 -0.012227643
0.013619133 0.0172224 -0.039539166 -0.039750148 -0.024477568 0.04085225 0.06533811 -0.027940258
-0.004166237 0.046532188 -0.042838175 0.0071659214 0.044601254 -0.0592985 0.017706076 -0.010435837
0.04008186 -0.03009694 -0.06811399 0.0050070975 -0.01619469 0.005500694 -0.03307357 0.0013343758
0.047181457 0.037726317 0.025823414 0.062354926 0.051065177 -0.02062677 0.040758397 0.060052242
0.024224658 0.049350843 -0.014854889 -0.0049930126 -0.033611894 -0.070411496 -0.037900206 -0.049212713
0.040723037 -0.004174021 0.0438664 0.042735603 -0.021337328 -0.028354876 -0.056538735 -0.0001337894
0.015279397 -0.054470237 -0.04343964 -0.038093224 0.07057009 0.12546694 -0.028413497 -0.024370566
-0.0073846537 -0.053722274 0.049124185 0.024773419 0.0026085912 -0.040937766 -0.02594023 0.037925396
00000000: 3980 803d f45b 4bbd 7b20 673d 8b13 1ebd
00000010: 3c56 9abc 5a74 873d a3a7 f4bb b7a2 993c
00000020: e40f 233d a0a6 f63c 08f8 533d 72e1 f63b
00000030: 7bea 2abc c7fc f6bc 33e4 073d 4941 883c
00000040: e726 e13c 9281 60bc 3df2 c03d 81e5 25bd
00000050: 0a57 3a3c b63f 2fbd 2390 67bd 1165 65bc
00000060: 0f64 6e3c d097 b2bb ad59 413d 0497 08bc
00000070: 93ed 28bd c830 b13c f62e 0a3d 9e85 09bd
00000080: 9194 1b3d 53ca 6ebd 4c08 cbbc 48e3 9d3d
00000090: ce6c 103d 8b8a 1dbd 3617 3cbd c05b 43bd
000000a0: 5577 653d a814 313d d188 01bd afd2 d9b9
000000b0: 7280 0dbd 3e33 e83c 0418 813d 36b2 903d
000000c0: 0463 86bc 3f00 47bd ad5e 193d 2524 10bb
000000d0: 2cc7 20bd f14c 563d 3da3 4ebd ccac b1bd
000000e0: 07af 443d dde2 85bc 6076 8e3c 2ed3 653d
000000f0: d3df d53c ceff 19bc 10c9 81b9 ad3d 703d
00000100: c6cc 453d 363f 883d 9d52 3f3d 36fb 7e3a
00000110: 721e 953b 95df 9f3c 3bfa 503d 90ad 0f3d
00000120: 0dd2 3e3c ef90 863d 7b7b 313d 1b2f 123d
00000130: be7a 1cbd 18d1 763d 08cc 35bc 6f7e b73c
00000140: 402e ddbc 5063 1abd cdb8 2e3d dacd 0f3d
00000150: 06c8 c4bb 04f7 203d c2e4 1c3d 42ed 41bc
00000160: b22c 883d 4603 c5bc 9f55 babb 06f4 2d3d
00000170: 0437 c8bc f22a e83b 2f32 34bd 7584 21bd
00000180: b27f b4bc 66a3 4c3d cd86 0e3d 3b1d 783d
00000190: f647 afbc 5560 cd3c ae17 4d3d bec2 233d
000001a0: dd4e 2ebd f44e 2d3d 15c0 ed3b 0c75 f03c
000001b0: f223 8aba 9c87 183d 9b8a 3ebc 2b0e 76bc
000001c0: 5a4c 51bc 3452 53bd bf93 19bd 7c9c 313d
000001d0: e457 593c e91e c8bc b2aa a93c db4a aabc
000001e0: 7685 b9bd 76a5 91bc fbb5 373c bbc1 b53c
000001f0: 0957 b1bc 3c23 a53c 7ea9 2e3d 7fe8 3a3d
00000200: adf6 61bc 9a7c d43b 7257 0abd 877c 463c
00000210: 2231 70bc cee3 7fbb f48b da3c 936f 913c
00000220: 56c9 513d f5f2 5cba 69b5 8f3c d2db be3a
00000230: 369f e8bb 3a6f fabc 5778 883c 319a a8bc
00000240: 3c0a 02bc 39d5 5aba 51a5 8d3d 0f4a 443d
00000250: 6d53 f83c 1e95 893c 527b 81bb 5ef1 dc3c
00000260: 5d8e 43bd ded3 103d cb9e cd3c 1b03 8d3d
00000270: 6f9b 72bd cc09 6c3d d30e 8d3d 5d4b fabc
00000280: 7509 8c3c 524b 023c 2c40 603d 3322 123d
00000290: 384e 7e3d 8de8 9fbb 16c1 a9bb 5544 ed3c
000002a0: a778 1d3b 65b4 513d bd6a 893b d81f 273d
000002b0: 4b96 5fbb df92 95bc f53f 26bd e08a d6bc
000002c0: d9ee 913c 0da5 453c 531c b33c 5b33 d53c
000002d0: 6185 6f3c 1e40 8a3c 96b0 95bb 356a 3c3d
000002e0: 2f5c 5ebd ae40 1a3d c2aa 173d fd24 b33c
000002f0: 648f 9b3b 2144 853b a509 21bd 7456 48bc
00000300: c922 5f3c fe15 8d3c d2f3 21bd 0dd1 22bd
00000310: 2e85 c8bc b054 273d fdcf 853d f8e2 e4bc
00000320: ee84 88bb 8998 3e3d 1577 2fbd 1bd0 ea3b
00000330: ceaf 363d fce2 72bd 550c 913c 13fb 2abc
00000340: e02c 243d dc8d f6bc 597f 8bbd 9412 a43b
00000350: baaa 84bc 2a3f b43b 2778 07bd 39e6 ae3a
00000360: 5841 413d e986 1a3d a08b d33c e167 7f3d
00000370: b829 513d 79f9 a8bc 47f2 263d 57f9 753d
00000380: ca72 c63c 1c24 4a3d ec61 73bc 6d9c a3bb
00000390: a0ac 09bd e733 90bd 3f3d 1bbd 4593 49bd
000003a0: 33cd 263d 3ac6 88bb 41ad 333d 870b 2f3d
000003b0: 9fcb aebc 7c48 e8bc 2995 67bd d249 0cb9
000003c0: 7056 7a3c 2f1c 5fbd c4ed 31bd a407 1cbd
000003d0: 0d87 903d 687a 003e 6cc3 e8bc c8a4 c7bc
000003e0: f7fa f1bb e30b 5cbd 7136 493d a0f1 ca3c
000003f0: e6f4 2a3b 5cae 27bd 9b80 d4bc a957 1b3d

fc2.bias f4 [300]
0.048697855 0.044343937 0.058975 0.06229751 -0.00011579135 -0.014283828 0.045734014 0.024222206
0.013765335 -0.026656583 0.0082067745 -0.00953322 0.029586544 0.012083355 0.06270709 0.03049163
0.003600413 -0.037899885 -0.00080307305 0.018569728 0.04665071 -0.035050854 0.036460955 0.020451209
-0.04261682 -0.05030723 0.03301802 -0.033497218 0.018010415 0.01234037 0.027096573 0.0033342447
0.0030277 -0.017862575 -0.0078099384 -0.015716054 -0.015349998 0.039549146 0.019871432 -0.006515139
0.045287106 -0.0013016879 0.04652625 0.0056200535 -0.04614717 -0.023065433 0.037544988 -0.0124799805
0.0063050496 0.047744915 0.03357464 -0.0059214695 -0.00062885054 0.009642466 -0.024352934 0.0549909
0.050289273 -0.011628354 -0.011381068 -0.038019717 -0.0043368516 -0.05887907 0.01741306 0.021654634
-0.050355345 0.055964917 0.027189853 0.05677918 0.038151827 0.048761673 0.04226365 0.022264281
0.034261186 -0.008529054 0.028650047 -0.031857047 0.009617349 0.017982341 -0.023664657 -0.009058727
0.002995676 -0.024965279 -0.01775637 -0.029628476 -0.026289131 -0.030687882 -0.039465398 -0.028395025
0.004680903 -0.018935416 0.00743842 -0.023770375 0.002409174 0.030753775 -0.0010985798 0.020899503
-0.04382217 0.023765713 -0.033345126 -0.011387609 -0.02133328 0.05431022 -0.0015270587 0.011510942
-0.026509048 0.045800325 -0.04064162 0.01839622 0.018980658 0.00840322 -0.03622586 -0.019383367
0.016584424 0.0068062777 0.025566006 -0.009327796 0.022467108 -0.024002757 -0.016602557 0.0044298465
-0.0011111586 0.049974397 0.02418643 0.026991347 0.036494877 -0.02765062 -0.02934912 0.043486994
0.03969525 -0.010661517 -0.003712112 -0.037755463 0.015186438 0.03356902 -0.023590613 -0.031285625
-0.0084955245 -0.025238665 -0.0011442588 -0.00815789 0.047762897 0.0394159 0.03187479 0.014388629
-0.051637817 -0.05309683 0.019327493 -0.011155316 0.03711141 0.015255904 0.039900355 -0.024753466
0.004524966 -0.03799309 -0.006466053 -0.020849045 0.015667962 0.0124188615 0.035143677 -0.03044709
0.03604611 0.013078612 0.028066771 0.02881935 0.05738416 0.03280549 -0.020716583 0.01322053
0.05465706 0.04163328 -0.0067578694 0.010813257 0.0522679 0.048504803 0.048915606 0.009180168
-0.029200818 0.02629017 0.057883803 0.036601365 0.028287534 -0.033183318 -0.020929936 0.03854325
0.00475043 -0.01639864 0.051333323 0.022495534 -0.032226644 0.05003542 0.035139337 0.06591515
-0.02047242 -0.029707102 0.08613434 0.052414197 -0.006143889 0.03680353 -0.00030400968 0.017197803
-0.00457945 0.009080218 -0.031644333 0.046532642 -0.019415544 0.0499787 -0.025289364 -0.022752529
-0.0155596705 -0.0059534255 -0.0049625374 0.049704917 -0.040106274 -0.029780377 -0.0010774717 -0.013613953
-0.014682504 -0.045337312 -0.008701911 0.0006997114 0.021181678 -0.026629778 0.012990023 0.06118779
0.01762141 0.048069276 0.05730873 -0.017754687 0.012688637 0.028809333 0.028759932 -0.018251609
0.029470053 0.01138784 0.003434365 -0.008254551 -0.049930025 0.016430246 -0.027781604 0.03179456
0.027865084 -0.005454834 -0.03043781 0.049396522 0.053076565 -0.022666197 0.00826316 0.026262488
-0.035647232 -0.016089631 -0.0006659696 -0.024324983 0.03334354 -0.036086533 0.008997903 0.026373163
00000000: 6777 473d fda1 353d c58f 713d ad2b 7f3d
00000010: 02d5 f2b8 b806 6abc 9753 3b3d a66d c63c
00000020: 0088 613c e85e dabc b575 063c 3931 1cbc
00000030: 7b5f f23c 44f9 453c 936c 803d 95c9 f93c
00000040: e8f4 6b3b e93c 1bbd 5285 52ba 8b1f 983c
00000050: d114 3f3d 7c91 0fbd 1558 153d 4b89 a73c
00000060: fa8e 2ebd f40e 4ebd e73d 073d 6134 09bd
00000070: 948a 933c 432f 4a3c a2f9 dd3c 5883 5a3b
00000080: 606c 463b 8954 92bc 83ea ffbb f4be 80bc
00000090: 8f7e 7bbc 49fe 213d 6ac9 a23c f27c d5bb
000000a0: f97e 393d 669d aaba 4f92 3e3d 6d28 b83b
000000b0: d104 3dbd b8f3 bcbc c6c8 193d d578 4cbc
000000c0: 979a ce3b 2c90 433d 9085 093d e308 c2bb
000000d0: 72d9 24ba 6ffb 1d3c ce7f c7bc 233e 613d
000000e0: 20fc 4d3d da84 3ebc a977 3abc 90ba 1bbd
000000f0: 261c 8ebb 2e2b 71bd d5a5 8e3c 0f65 b13c
00000100: 6841 4ebd 783b 653d 41bd de3c 4991 683d
00000110: 1745 1c3d 52ba 473d a61c 2d3d 9563 b63c
00000120: 7555 0c3d 72bd 0bbc 81b3 ea3c 897c 02bd
00000130: 1692 1d3c b44f 933c 62dc c1bc 0e6b 14bc
00000140: 1a53 443b fc83 ccbc cf75 91bc 6bb7 f2bc
00000150: 4e5c d7bc 2765 fbbc 78a6 21bd af9c e8bc
00000160: 4362 993b 721e 9bbc fdbd f33b 17ba c2bc
00000170: 3ce3 1d3b 57ef fb3c 39fe 8fba 6f35 ab3c
00000180: e07e 33bd 50b0 c23c e694 08bd 1893 3abc
00000190: 21c3 aebc 6574 5e3d 9627 c8ba 6498 3c3c
000001a0: 8129 d9bc 1f99 3b3d d477 26bd abb3 963c
000001b0: 537d 9b3c a9ad 093c 9161 14bd dec9 9ebc
000001c0: 0fdc 873c 3207 df3b cd6f d13c 9dd3 18bc
000001d0: f10c b83c 6ea1 c4bc 1602 88bc 3f28 913b
000001e0: 4ca4 91ba f4b1 4c3d 9f22 c63c f51c dd3c
000001f0: a77b 153d 8e83 e2bc 916d f0bc 6b1f 323d
00000200: 7d97 223d a5ad 2ebc e846 73bb 79a5 1abd
00000210: 8ad0 783c ab7f 093d 1a41 c1bc 5b25 00bd
00000220: d030 0bbc 51c1 cebc f4fa 95ba aca8 05bc
00000230: 07a3 433d 9172 213d 248f 023d 49be 6b3c
00000240: 2d82 53bd 107c 59bd b154 9e3c c9c4 36bc
00000250: 2202 183d e6f3 793c 8e6e 233d c8c7 cabc
00000260: 2a46 943b a49e 1bbd 2fe1 d3bb 9ecb aabc
00000270: 195a 803c 7b78 4b3c d1f2 0f3d 2d6c f9bc
00000280: 16a5 133d ad47 563c 49ec e53c 8f16 ec3c
00000290: a70b 6b3d 0d5f 063d d3b5 a9bc ec9a 583c
000002a0: 15e0 5f3d a987 2a3d 1e71 ddbb 162a 313c
000002b0: de16 563d f9ac 463d bb5b 483d 6a68 163c
000002c0: 8e36 efbc 7c5e d73c 9117 6d3d 50eb 153d
000002d0: 42bb e73c 3beb 07bd 4275 abbc 87df 1d3d
000002e0: 7fa9 9b3b 7156 86bc e442 523d 8e48 b83c
000002f0: 1600 04bd f1f1 4c3d 44ee 0f3d 86fe 863d
00000300: c7b5 a7bc 4f5c f3bc 3367 b03d 45b0 563d
00000310: ad52 c9bb 4cbf 163d 7d63 9fb9 68e2 8c3c
00000320: 360f 96bb 32c5 143c 7d9d 01bd 0399 3e3d
00000330: 590d 9fbc 77b6 4c3d a42b cfbc 8363 babc
00000340: fded 7ebc f414 c3bb c89c a2bb 6297 4b3d
00000350: 7a46 24bd faf5 f3bc f339 8dba 0f0d 5fbc
00000360: e38e 70bc 9eb3 39bd 7692 0ebc d66c 373a
00000370: 3385 ad3c b126 dabc 1bd4 543c 0ca0 7a3d
00000380: c65a 903c 4ae4 443d 8fbc 6a3d 4772 91bc
00000390: 00e4 4f3c 8d01 ec3c f399 eb3c 6684 95bc
000003a0: 2e6b f13c 1094 3a3c 1513 613b 193e 07bc
000003b0: 6d83 4cbd b998 863c 3f96 e3bc 033b 023d
000003c0: 5145 e43c 77be b2bb b758 f9bc 0254 4a3d
000003d0: d066 593d 76ae b9bc 3462 073c 6e24 d73c
000003e0: d502 12bd 67ce 83bc 7794 2eba 3045 c7bc
000003f0: 3c93 083d 79cf 13bd f16b 133c 880c d83c
