update_every_multiple_steps/checkpoint_actorA_TAU_1e-1_update30.pth (torch_old, 538202 bytes, 18 tensors)

bn0.weight f4 [24]
000000 a8 5c 1d 3f 1e 14 c3 3e ed 19 23 3f 90 ec f2 3e
       0.6146951 0.38101286 0.63711435 0.47446108
000010 16 ae 36 3f 2b 79 1e 3f a4 93 e2 3e 58 22 c4 3d
       0.71359384 0.6190364 0.44253266 0.09576863
000020 68 39 1d 3f 70 d0 6a 3d a2 d2 10 3f b1 81 08 3f
       0.6141572 0.057327688 0.565714 0.53322893
000030 be b4 c7 3e 4b aa 68 3f d5 8a 08 3f 2f 14 35 3f
       0.39005083 0.90884846 0.5333684 0.7073392
000040 3f 2b 36 3f 7c f4 51 3e b4 95 9d 3e 94 19 7b 3f
       0.7115974 0.2050342 0.30778277 0.98085904
000050 00 1f 28 3c e8 9c ee 3e 4a b6 eb 3e a7 ca 5a 3f
       0.010261297 0.46604085 0.46037513 0.8546547

bn0.bias f4 [24]
000000 00 00 00 00 00 00 00 00 00 00 00 00 00 00 00 00
       0.0 0.0 0.0 0.0
000010 00 00 00 00 00 00 00 00 00 00 00 00 00 00 00 00
       0.0 0.0 0.0 0.0
000020 00 00 00 00 00 00 00 00 00 00 00 00 00 00 00 00
       0.0 0.0 0.0 0.0
000030 00 00 00 00 00 00 00 00 00 00 00 00 00 00 00 00
       0.0 0.0 0.0 0.0
000040 00 00 00 00 00 00 00 00 00 00 00 00 00 00 00 00
       0.0 0.0 0.0 0.0
000050 00 00 00 00 00 00 00 00 00 00 00 00 00 00 00 00
       0.0 0.0 0.0 0.0

bn0.running_mean f4 [24]
000000 00 00 00 00 00 00 00 00 00 00 00 00 00 00 00 00
       0.0 0.0 0.0 0.0
000010 00 00 00 00 00 00 00 00 00 00 00 00 00 00 00 00
       0.0 0.0 0.0 0.0
000020 00 00 00 00 00 00 00 00 00 00 00 00 00 00 00 00
       0.0 0.0 0.0 0.0
000030 00 00 00 00 00 00 00 00 00 00 00 00 00 00 00 00
       0.0 0.0 0.0 0.0
000040 00 00 00 00 00 00 00 00 00 00 00 00 00 00 00 00
       0.0 0.0 0.0 0.0
000050 00 00 00 00 00 00 00 00 00 00 00 00 00 00 00 00
       0.0 0.0 0.0 0.0

bn0.running_var f4 [24]
000000 00 00 80 3f 00 00 80 3f 00 00 80 3f 00 00 80 3f
       1.0 1.0 1.0 1.0
000010 00 00 80 3f 00 00 80 3f 00 00 80 3f 00 00 80 3f
       1.0 1.0 1.0 1.0
000020 00 00 80 3f 00 00 80 3f 00 00 80 3f 00 00 80 3f
       1.0 1.0 1.0 1.0
000030 00 00 80 3f 00 00 80 3f 00 00 80 3f 00 00 80 3f
       1.0 1.0 1.0 1.0
000040 00 00 80 3f 00 00 80 3f 00 00 80 3f 00 00 80 3f
       1.0 1.0 1.0 1.0
000050 00 00 80 3f 00 00 80 3f 00 00 80 3f 00 00 80 3f
       1.0 1.0 1.0 1.0

fc1.weight f4 [400, 24]
000000 66 21 40 bd de 48 d3 3c 36 9c 1f 3d 29 66 a9 bc
       -0.04690685 0.025791582 0.038967334 -0.020678597
000010 84 33 a5 bc 8e 24 fe bc 30 25 4e 3b c8 f0 64 bd
       -0.020166166 -0.03102329 0.003145527 -0.05589369
000020 78 3b a2 bc 82 05 3b 3c 1c db e4 3c fd ab 64 bd
       -0.019803748 0.011414887 0.02793651 -0.055828083
000030 bc fc 9f bc 5e f4 e9 3b 82 e5 1f 3d 20 65 0c bd
       -0.019529693 0.0071397265 0.039037235 -0.034276128
000040 50 11 10 3d ee d7 7b bc 09 1e 87 bc a3 b4 3d bd
       0.03517276 -0.015371306 -0.016493814 -0.046314847
000050 1c 2c d6 bc 12 3d d1 bd 1a 59 01 bd 81 24 34 bc
       -0.02614408 -0.10216726 -0.031579114 -0.010995031
000060 e8 ab 05 bc 65 b1 0d bd b5 56 fe bc 8d e2 91 3d
       -0.008158661 -0.034593005 -0.031047205 0.07123289
000070 80 06 d3 3c 4d 07 89 bc 67 6e d2 3c fa 49 92 3d
       0.025759935 -0.016727114 0.02568741 0.07143016
000080 d2 83 48 3c 6f c1 00 bd 18 e2 61 bb a8 a3 32 3d
       0.01223846 -0.031434473 -0.0034467038 0.043613106
000090 84 b4 03 3d ed d7 9d 3d 1e 69 07 3d b4 7e 67 bc
       0.032154575 0.077072 0.033059232 -0.0141293295
0000a0 4f 8a 83 3c ac b3 57 3c 4d 77 7f 3c 21 7d 86 bd
       0.016057162 0.013165396 0.015592408 -0.06566835
0000b0 fd 8a 8b bd 25 ee d9 3d 18 01 a3 3c 96 66 a8 bd
       -0.06813619 0.106411256 0.019897982 -0.08222692
0000c0 3c 0a 39 3b 31 0c 00 bd fb 74 e6 3c df 15 1d bd
       0.002823486 -0.031261627 0.028131953 -0.038350936
0000d0 7a a8 9f bc c9 21 2d bd 79 36 d4 bc 31 ab 4c bd
       -0.019489516 -0.04226855 -0.02590488 -0.04996795
0000e0 99 30 ae 3c ad 5e 0d be 73 25 8f 3b d6 91 98 bc
       0.021263408 -0.13805647 0.004368478 -0.018624227
0000f0 53 a8 7f bd 16 bb a8 3d e7 24 26 bb a3 c2 9f 3b
       -0.062416386 0.08238809 -0.0025351585 0.0048754974
000100 da 3d da bb d9 c9 be bd 38 71 62 bc 47 c0 0f 3d
       -0.0066602053 -0.09315843 -0.013820939 0.03509548
000110 4a bf 2e bd 7b 9a e6 3d 67 de 57 3c a6 f1 c1 bb
       -0.042662896 0.112599336 0.013175583 -0.0059186993
000120 f0 cb 9c bd 55 65 ec bc 74 64 ba 3c 2c 36 a8 bc
       -0.076560855 -0.028856913 0.022752978 -0.020533644
000130 ca 68 71 bd b8 5f 34 3d 3f 69 a6 bc 50 b0 39 3c
       -0.058937825 0.044036597 -0.020313857 0.01133354
000140 a3 82 f6 3c 7c 61 d8 3c 39 23 ab bb 6b 8e 7d 3d
       0.03009159 0.026413672 -0.0052227047 0.0619034
000150 5b a6 df bc 6d a9 8c bd 58 f0 9e 3c c2 2b 7c 3d
       -0.027301004 -0.06868253 0.019401714 0.06156517
000160 91 95 11 bd 7e c6 b0 3c d4 c5 1e 3a eb 0a 00 be
       -0.03554303 0.021579023 0.00060567004 -0.12504165
000170 58 c1 25 bd 57 a2 2a 3d 5c 5e 04 bd 3c bd 90 bd
       -0.04046759 0.041658726 -0.03231655 -0.070673436
000180 c3 d9 0a 3d c4 f2 7f 3d a1 45 28 bd 31 86 f2 3c
       0.03389908 0.06248738 -0.04108203 0.029605003
000190 04 79 ba bc 26 ca 75 bd f3 30 bb bb 09 47 a7 3c
       -0.022762783 -0.060007237 -0.0057126223 0.020419614
0001a0 e6 3d 46 3c 33 4a d9 bc e9 14 7e bb 77 e8 41 3d
       0.012099719 -0.026524639 -0.0038769788 0.047340836
0001b0 76 d0 3e bd 78 db 26 bc b5 dd 40 3c 92 f6 22 bd
       -0.046585523 -0.010184161 0.011771609 -0.03978593
0001c0 7a e3 37 bd a9 cc 87 3d 33 a9 23 bd 20 f3 1b 3d
       -0.044894673 0.06630833 -0.039956283 0.03807366
0001d0 cf 05 eb 3c 7f 8b 8d bc eb 2c 37 bd 16 b8 44 3d
       0.028689293 -0.017278431 -0.04472057 0.04802712
0001e0 51 c4 2f 3d 86 ed 8f 3d ec 87 0c 3c 22 fa 46 3b
       0.04291183 0.07027726 0.008577328 0.0030361493
0001f0 99 20 4a bd 10 71 f0 bd e1 50 d7 3b 7c 20 5e bb
       -0.049347494 -0.11740315 0.006570921 -0.0033893874
000200 4b d9 7d bc 71 74 01 3b 98 37 83 bc aa 1b 1b bd
       -0.015493701 0.0019753242 -0.01601772 -0.03786818
000210 f0 c4 23 3d c6 58 97 3d ad 90 0f ba c7 1f e6 3c
       0.039982736 0.07389979 -0.00054765755 0.028091324
000220 b4 a6 59 bd c7 b8 21 bd aa 97 67 39 ec fc f6 bb
       -0.053137496 -0.039482858 0.00022086376 -0.007537475
000230 77 b8 92 3d 0b 2c 9d 3d 41 18 3a 3c f4 b8 7a bd
       0.0716409 0.07674416 0.011358322 -0.06121154
000240 74 3c 80 3d 37 e8 65 bd 07 07 17 3c d8 de 05 3c
       0.062615305 -0.05612966 0.009217984 0.008170806
000250 6a fd 80 3c a5 c2 84 3d 32 fc 2a bc aa 80 75 3d
       0.015745837 0.06482438 -0.010436105 0.059937157
000260 77 03 15 3d 9e a9 93 bb 71 b6 b6 3c 7a f6 93 3c
       0.036380257 -0.004506304 0.022303792 0.018061865
000270 a3 8a 82 bd dd 70 90 3d d9 28 b0 3c a8 66 90 3d
       -0.06374099 0.07052777 0.021503853 0.0705083
000280 3b 3a e9 3c 47 f9 94 bd d8 d4 07 3d 61 2d 82 bc
       0.02847015 -0.072741084 0.033161968 -0.015890779
000290 fa d7 dc bd 2e 33 33 3d b9 00 52 bc 0b 5d 02 3d
       -0.10783382 0.04374998 -0.012817555 0.031827014
0002a0 c6 17 d1 bb ea b8 de 3d 40 5d 8e 3c 18 c8 42 3d
       -0.006381008 0.10875113 0.01737845 0.047554106
0002b0 f6 b4 16 3d 2b 9b cb 3c a0 71 46 3c b0 5a 8a 3d
       0.03679367 0.024854263 0.012112051 0.067555785
0002c0 d7 8f 95 bc f7 f2 07 3e 56 97 23 3d 3d 6e 17 bd
       -0.018257065 0.13276277 0.039939247 -0.036970366
0002d0 a7 3f 33 3d 3e 41 01 3d 61 06 14 bd ae 4d d6 bc
       0.043761875 0.03155636 -0.036138896 -0.026160087
0002e0 db 24 2b bc c7 31 d6 3c 29 84 81 ba c2 d9 f7 bd
       -0.010445799 0.026146783 -0.0009881306 -0.12102081
0002f0 be 84 e0 bb 9b a2 67 3d ff 2d 94 ba e6 44 ab bd
       -0.0068517616 0.056551557 -0.0011305212 -0.08362751
000300 dc e6 82 bd 94 82 54 3d 65 0c 15 bc f2 76 c3 3c
       -0.06391689 0.05188234 -0.009097193 0.023860428
000310 80 71 bf bc 3b 2c 97 3c 81 a6 29 bc fb 49 13 bd
       -0.02336955 0.018453708 -0.010354639 -0.035959225
000320 4b e1 d1 bc f1 2b ed 3c 5d 86 ed 3c c9 1f 3c 3d
       -0.025620123 0.028951617 0.028994733 0.04592875
000330 a8 db 7f 3c 91 67 f1 3b f1 8b da 3c 5a 36 58 3d
       0.015616335 0.0073670824 0.026678057 0.05278621
000340 9e 80 bb 3b a9 86 1b 3d 52 60 05 bd ab e2 57 bc
       0.0057221195 0.03797022 -0.03256256 -0.0131766
000350 87 82 b1 bc 3a 3b 57 bd 6b f8 23 bd 82 90 e7 3b
       -0.021668686 -0.052546717 -0.04003183 0.007066787
000360 d6 10 b3 3c 23 84 d8 3b 70 b1 05 bd b0 9d 54 bd
       0.021858614 0.006607549 -0.03263992 -0.051908195
000370 e5 81 79 bd 26 d8 d9 bc 9c f8 00 3d 21 c9 b6 bc
       -0.060914893 -0.026592325 0.031487092 -0.022312703
000380 f7 01 5d bd 35 3c fb bc 04 98 26 bd f3 c2 1d bd
       -0.053956952 -0.030668357 -0.040672317 -0.038515996
000390 4f 6e 7c bd aa 1d a9 3d 88 0f 42 3d 67 65 df bc
       -0.061628636 0.08257611 0.047378093 -0.027270032
0003a0 57 13 cb bc 38 c1 07 3b e4 ea dc 3c e4 37 0d bd
       -0.024789495 0.0020714533 0.026967473 -0.03447713
0003b0 e7 b2 1e 3d 44 d9 c1 3d 23 0d ef bc d2 56 a7 bd
       0.038744833 0.09465268 -0.029181069 -0.081708565
0003c0 05 e3 4f bd 23 7d 09 3d 1e 64 47 bd 90 5d 19 bd
       -0.050753612 0.033566605 -0.048679464 -0.037442744
0003d0 55 e7 e7 bc b7 14 41 bd 62 c4 06 bd 2c b5 29 bd
       -0.02830855 -0.047138896 -0.03290213 -0.041432545
0003e0 e2 d0 97 3b 98 10 36 bc a2 dd f6 3c 5a 32 2b bc
       0.004633055 -0.011112355 0.03013498 -0.0104490165
0003f0 cc c1 88 3b bb 3a 82 bd 69 cf ef 3c 01 64 81 3d
       0.004173493 -0.06358858 0.029273706 0.06317902

fc1.bias f4 [400]
000000 2b 70 a6 3d 31 b7 7c bd d4 53 13 bd 2b 89 fd bb
       0.08126863 -0.061698142 -0.035968617 -0.007737299
000010 28 b6 1c be 61 b2 5f 3d c2 54 32 be 69 aa 40 3e
       -0.15303862 0.054613475 -0.17415145 0.18815006
000020 ee e7 ab 3c ed 5c 45 3e 6f fc 15 be 96 b4 d0 bd
       0.020984616 0.1927373 -0.14647077 -0.10190694
000030 26 3b 0f 3e 66 15 4c be 72 07 af 3d 0e 69 01 be
       0.13987407 -0.19930038 0.08546342 -0.12637731
000040 79 65 fe 3d 4f 76 20 be 36 c8 74 3e e5 78 5d 3e
       0.12421698 -0.15670131 0.239045 0.21628149
000050 c5 1a b2 bc 61 93 37 bd 49 a3 0c 3e 48 4f ce 3d
       -0.02174128 -0.044818286 0.13734163 0.100737154
000060 b6 87 0e 3e 8a 55 3a 3e 51 99 1b 3e 2d cd 3c 3e
       0.13918957 0.18196693 0.15195204 0.18437643
000070 98 50 31 bd 26 75 fe bd e3 2e d0 3d b3 f5 e3 3d
       -0.04328975 -0.12424688 0.10165193 0.11130848
000080 fc eb de bd 8d d6 90 bd 82 b3 a7 3d 96 87 c0 bc
       -0.10884854 -0.07072172 0.08188535 -0.023502152
000090 96 4c be 3d cf f4 3a be 33 95 d8 bd e1 f0 b2 3d
       0.09291951 -0.1825745 -0.105753325 0.0873735
0000a0 e9 1c a8 3d 99 4a df bb f2 a6 2f 3d f3 20 a3 3d
       0.08208639 -0.0068143127 0.04288382 0.07965269
0000b0 68 f9 ec bd 5c 29 29 3e 52 c0 c0 3d 41 d6 40 3e
       -0.11571008 0.16519684 0.09411682 0.18831731
0000c0 5c 8b 92 bc 1b d0 ef 3d ca c8 9e bd c9 e3 57 bd
       -0.017888717 0.11709615 -0.07753141 -0.052707467
0000d0 54 b2 2c be 2f c4 1c 3e 9a 80 63 3d ca 30 67 3e
       -0.16864902 0.15309213 0.055542566 0.22577205
0000e0 ca 5b 6f 3e 32 c5 64 bd 05 d4 99 3d cf b2 32 3e
       0.23374858 -0.055852123 0.07511143 0.17451023
0000f0 dd 0e e7 bd ab 66 19 3e 69 cc de 3c cb eb 40 be
       -0.11282132 0.14980571 0.02719708 -0.18839948
000100 8f 9a 38 be 0b 5c b3 3d 97 92 9d bd fd 8f 11 3e
       -0.1802771 0.0875779 -0.076939754 0.14215083
000110 31 36 28 3e 0c 46 da 3d 2f 2b 45 bc 1e 01 42 3d
       0.16426922 0.10657892 -0.012034222 0.047364347
000120 c7 be 9c 3d 70 12 33 3e 52 82 df 3d 9d f2 3f be
       0.076535754 0.17487502 0.109135285 -0.18744893
000130 91 9e cc 3d b4 74 47 ba 8e 91 18 bb c1 45 1b be
       0.09991182 -0.00076086377 -0.0023280117 -0.15163328
000140 b7 8e 44 3e f5 aa 58 3c df 09 66 3d 5f 09 72 3e
       0.19195066 0.013224353 0.056161758 0.23636387
000150 9a 71 17 be ce a6 1f 3e ea 0d a4 3d 9b d5 3e be
       -0.1478943 0.15590975 0.080104664 -0.18636172
000160 27 a3 de bd 77 97 df 3c 89 74 c9 bd 6f 15 20 be
       -0.108709626 0.027293904 -0.098366804 -0.15633176
000170 d2 7f af bc c1 32 01 3d 7b 67 06 be ff d7 da bd
       -0.021423254 0.031542543 -0.13125412 -0.10685729
000180 b6 55 e8 3d 91 c7 03 bc 61 22 2d be ea 0c 45 be
       0.11344473 -0.008043186 -0.16907646 -0.19243208
000190 23 a0 cd bd 93 64 21 be 54 2c e3 3d e3 69 f6 3d
       -0.10040309 -0.15761022 0.11092439 0.12031915
0001a0 ec 86 93 bd b0 3e c1 bd 32 ac 09 3e 3c 5c 33 3d
       -0.07203469 -0.09435785 0.13444594 0.043789133
0001b0 f9 ff e3 bd f6 33 3f 3d fb 93 10 3e 16 a0 82 3d
       -0.11132807 0.046680413 0.1411895 0.0637819
0001c0 33 eb c7 3d 39 d7 e3 bc 9b eb 61 bc 0d e4 a4 bd
       0.097616576 -0.027812587 -0.013789083 -0.0805131
0001d0 e7 9a 60 3d 73 2d 0c be 7e a7 9b bd 05 40 d4 bd
       0.054835226 -0.13689213 -0.07600306 -0.10363773
0001e0 b2 f9 a0 bd 96 ea 3e 3e 23 a8 29 be d8 1a 18 3d
       -0.078601256 0.18644175 -0.16568045 0.037134975
0001f0 8f 48 a0 3d 34 01 61 bd 04 34 29 3e 27 94 df 3c
       0.078263395 -0.054932788 0.16523749 0.027292324
000200 83 88 64 bd 1b e0 3e be d5 ab 15 be 7a f3 9e bb
       -0.05579425 -0.18640177 -0.1461633 -0.004850802
000210 63 8d 4f 3e bf 71 c2 3d 7a da d6 3d 6b ce 91 bd
       0.20268779 0.094943516 0.1049089 -0.07119449
000220 a0 57 c4 bb 3f c9 68 3d f7 08 3e be b5 40 15 3d
       -0.005991891 0.05683255 -0.18558107 0.036438663
000230 4e 86 4f 3c b4 7f 91 3d 13 1e 4d bd 2f 4d 44 be
       0.012666298 0.071044356 -0.05007751 -0.19170068
000240 e5 a4 75 3d 5e 25 f6 3c e6 28 b3 bd 0f 06 ac 3d
       0.05997171 0.030047115 -0.08748035 0.08399593
000250 68 78 11 3e 71 f6 36 bd d2 98 1c be 3c d0 91 bd
       0.14206088 -0.04466862 -0.15292671 -0.07119796
000260 45 51 17 3d 5d 37 0b 3d 36 3e f3 bd fa c5 17 be
       0.03694274 0.033988345 -0.118771 -0.14821616
000270 85 34 c1 3b fa cc 27 bd 33 94 19 be fe 52 c1 bd
       0.0058961534 -0.040966965 -0.1499794 -0.09439658
000280 74 b1 2c 3e cf 9f 2d 3e 22 f0 83 bd b8 5c 17 be
       0.16864568 0.16955493 -0.06442286 -0.14781463
000290 d1 7b 0a be b8 bb 9f bc 0f d6 be 3d b9 80 51 bd
       -0.13523795 -0.019498691 0.09318172 -0.05114815
0002a0 ae 9a fd 3d f3 8a 79 3c 68 4e ed bd f6 b7 ce 3d
       0.123830184 0.015230882 -0.115872204 0.100936815
0002b0 2c ee 18 be 83 69 1c be 93 31 58 bd 8f 73 e6 3b
       -0.14934605 -0.15274625 -0.052781653 0.0070328186
0002c0 bd 15 38 3c ce 8b 8f 3c 4d ea 15 3e 2a e0 11 3e
       0.011235652 0.017522719 0.1464016 0.14245668
0002d0 a7 c0 86 3d 75 90 1e be a5 c4 37 3e f9 d5 34 bd
       0.06579714 -0.15484793 0.17946108 -0.044149373
0002e0 cb d0 43 3e 55 f1 29 3e 1a 08 05 3e c1 58 08 be
       0.19122617 0.16595967 0.12991372 -0.13315107
0002f0 85 b9 06 3e e8 99 f0 3d 6a 14 21 be eb 49 2c 3d
       0.13156708 0.11748105 -0.15730444 0.04206268
000300 db 01 54 3c 5f 32 73 3c 11 38 12 be b9 66 39 3e
       0.0129398955 0.014843552 -0.142792 0.18105592
000310 b7 50 03 be 57 f7 bf 3d 57 17 06 3c 8a 38 e6 bc
       -0.12823759 0.09373348 0.008184276 -0.028103132
000320 66 93 09 3e 3b c5 94 bc 3f 8c bc bc 40 21 0b 3d
       0.13435134 -0.018160453 -0.023016093 0.033967257
000330 69 a4 68 3d c4 96 14 be 29 46 12 be f6 e5 15 be
       0.05679742 -0.14510638 -0.14284576 -0.14638504
000340 6e b1 01 bd 68 d3 2b 3e 7d 4b f4 3d 47 9b 0a 3e
       -0.03166335 0.16779864 0.11928461 0.13535796
000350 6c 07 be 3d 57 f2 4d be b1 50 30 3e eb da e6 3d
       0.09278759 -0.20111977 0.17218281 0.11272224
000360 32 02 5a 3e 94 ba 0a 3d 3a 87 49 3d 86 54 76 3d
       0.212899 0.03386934 0.049201228 0.0601392
000370 1e 3d e7 3d 01 ce 16 3e cc cf 30 3e 19 c1 4b 3e
       0.11290954 0.14727022 0.17266768 0.1989788
000380 48 41 34 bd 62 92 11 be aa 21 ed bd 00 ff 17 be
       -0.04400757 -0.14215997 -0.115786865 -0.14843369
000390 99 e4 33 be f6 ce 19 3e 84 5f e8 3d ef 9b 8f bd
       -0.17567672 0.15020356 0.11346343 -0.07012164
0003a0 8c c6 f6 bd 38 a2 54 39 79 ca f1 bd 83 7a b0 3d
       -0.120495886 0.00020278327 -0.11806197 0.08617117
0003b0 4d f5 fd 3d 99 17 e2 ba 20 04 3e 3e b8 20 1e 3e
       0.12400303 -0.0017249464 0.18556261 0.15442169
0003c0 40 03 0a 3e 0a 8b 01 be f6 ee b9 bc 17 6f 86 3b
       0.13477802 -0.12650695 -0.022696953 0.0041025984
0003d0 a6 ef 47 3e 42 e0 f6 bd e1 23 49 bb da f4 ee 3d
       0.19525012 -0.120544925 -0.0030691552 0.116677955
0003e0 68 c3 11 be 43 a3 0e 3e 33 c1 4c 3e 34 18 a9 bd
       -0.14234698 0.13929467 0.19995575 -0.082565695
0003f0 27 71 8e 3d 60 dc 4b 3d f7 36 3c 3d 63 c3 44 be
       0.06955176 0.049770713 0.045950856 -0.19215159

bn1.weight f4 [400]
000000 7d 22 75 3f e0 01 88 3d d4 94 43 3f 0d 69 09 3f
       0.9575575 0.06640983 0.7639897 0.5367592
000010 9b a7 69 3f 44 49 07 3f 34 87 cc 3e 32 2c e0 3e
       0.9127137 0.5284617 0.39946902 0.43783718
000020 bc 4f 07 3e 51 42 69 3f f6 96 4d 3f a8 92 17 3f
       0.1321401 0.91116816 0.80308473 0.59208155
000030 02 c0 f5 3e 4a d2 92 3e 6b 4b 06 3f 6f e0 23 3f
       0.47998053 0.28676063 0.5245883 0.64014333
000040 a6 8e a3 3e f9 43 08 3f 8c 8f 6a 3f d0 54 0f 3e
       0.3194477 0.5322872 0.91625285 0.13997197
000050 6e 4e aa 3e 50 3e 63 3f 1c 1d 75 3f d1 44 6a 3f
       0.33262962 0.88766956 0.9574754 0.91511256
000060 88 95 bb 3e 9c 31 4e 3f 56 90 20 3f ca 8c c5 3e
       0.3663752 0.8054445 0.6272024 0.38583976
000070 96 27 d9 3e 72 0c 5d 3f 22 cc 55 3f a6 2d 51 3f
       0.42413014 0.86347115 0.83514607 0.8171028
000080 32 07 a2 3e 00 20 b7 38 b4 d9 99 3e c4 63 35 3f
       0.31646115 8.7320805e-05 0.30048907 0.70855355
000090 80 88 b4 3c 4f 13 48 3f cc c7 86 3e ba 99 56 3f
       0.022037745 0.7815446 0.26324308 0.8382832
0000a0 60 80 10 3e 10 69 9b 3e 00 46 e0 3c d4 62 24 3e
       0.14111471 0.30353594 0.027377129 0.16053325
0000b0 1c b9 c7 3e 06 5a c0 3e a7 10 00 3f f9 7d 3f 3f
       0.39008415 0.37568682 0.5002541 0.74801594
0000c0 9a 13 ab 3e 37 01 56 3f 6e e5 ca 3e ec 7b 88 3e
       0.33413392 0.83595604 0.39628166 0.26657045
0000d0 48 7c d9 3e fe 55 36 3f 8c ef 81 3e 48 01 ce 3d
       0.42477632 0.71224964 0.25378072 0.10058838
0000e0 90 45 c1 3d 62 73 e9 3e a8 e3 35 3f b1 fa 50 3f
       0.09437096 0.45595843 0.710505 0.81632525
0000f0 eb c3 07 3f 0e 1f c1 3e 20 59 ab 3e e0 ae 8a 3c
       0.5303332 0.37719005 0.33466434 0.01692909
000100 1c 19 0e 3e a8 41 a3 3e 88 1b d6 3e 0b 90 2e 3f
       0.13876766 0.3188603 0.4181788 0.6818854
000110 6f ec 5a 3f ec c2 77 3e c0 e9 38 3e c0 fa 07 3c
       0.8551702 0.2419545 0.18057919 0.00829953
000120 b0 58 1d 3f 52 be 7e 3f 79 6b 57 3f 99 f5 77 3f
       0.6146345 0.99509156 0.84148365 0.9685913
000130 60 44 1d 3f f4 4f 9d 3e 4a 95 66 3f 3d 47 22 3f
       0.61432457 0.30725062 0.9007155 0.6338995
000140 f8 0d 4b 3f c0 15 2f 3e b4 2b a1 3e f0 06 56 3e
       0.7931819 0.1709814 0.31478655 0.20901084
000150 d8 e9 ae 3d 4c 51 59 3f 70 02 37 3e d0 7c 30 3e
       0.08540696 0.84889674 0.17872024 0.17235112
000160 5e fb ea 3e a0 e3 22 3e e0 be 11 3f 9a 12 9d 3e
       0.45894903 0.15907145 0.5693188 0.30678254
000170 b8 6b 5e 3f 29 6b 25 3f 71 d0 0d 3f 54 06 2e 3f
       0.86883116 0.6461664 0.5539618 0.67978406
000180 ce 69 da 3e 80 59 48 3c 18 14 71 3f 9e 8a db 3e
       0.42658848 0.01222837 0.94171286 0.42879194
000190 9b 20 04 3f 78 43 8a 3e 0e 40 5b 3f b4 85 cc 3e
       0.5161225 0.270046 0.85644615 0.39945757
0001a0 ae fa b2 3e a4 f2 19 3f c2 ee d0 3e 7c 7b b7 3e
       0.34956878 0.60135865 0.40807158 0.358364
0001b0 4f 6a 17 3f 97 a0 4b 3f ec f4 24 3e 07 3a 6b 3f
       0.5914659 0.79541916 0.16109055 0.9188542
0001c0 0e a0 45 3f 54 de 50 3f 3c 3c 11 3f e8 70 f9 3e
       0.7719735 0.81589246 0.56732535 0.48718953
0001d0 ea 0d df 3e f8 1b f3 3e 18 d1 04 3e 50 6d c5 3e
       0.43565303 0.47482276 0.12970388 0.3855996
0001e0 ee f1 1c 3f d8 63 6a 3e d4 ac 59 3f 87 11 47 3f
       0.61306655 0.2288965 0.8502934 0.7776112
0001f0 20 65 9d 3e 3a 3c b6 3e a0 c9 da 3e 9e 4c 07 3f
       0.30741215 0.35592824 0.42731953 0.52851284
000200 28 37 79 3f d5 a1 37 3f 6c e0 54 3f a0 cb ef 3e
       0.97349787 0.7173131 0.8315494 0.4683504
000210 d6 fd 02 3f d8 ca b9 3d 07 b5 06 3f e8 c9 3d 3f
       0.5116857 0.090718925 0.52619976 0.7413621
000220 e0 21 32 3e 21 a1 22 3f 70 7a 5b 3f b6 e0 fe 3e
       0.17395735 0.63527113 0.857337 0.49780816
000230 40 cf 63 3e 48 91 79 3f bb 18 56 3f 00 8a b1 3b
       0.22247028 0.97487307 0.83631486 0.005418062
000240 6c 64 37 3e 89 65 49 3f 68 99 ba 3d 68 6d e3 3e
       0.17909402 0.78670555 0.09111291 0.44419408
000250 7c 2f 7a 3f 7c 4c 50 3e d2 22 40 3f c8 75 4b 3f
       0.97728705 0.20341676 0.7505313 0.79476595
000260 c8 0b 4e 3f 4c 42 3c 3e 1e 74 de 3e e3 35 4b 3f
       0.80486727 0.18384665 0.43447965 0.793791
000270 de f9 9f 3e 10 49 78 3f 68 82 62 3e 18 12 a1 3e
       0.3124532 0.96986485 0.22120059 0.31459117
000280 6f f2 13 3f a0 db 52 3e fe 0c af 3e bc dc 35 3f
       0.577918 0.20591593 0.341896 0.7103994
000290 98 84 9d 3e 00 9a 9e 3a e6 ae cd 3e 08 de 0b 3e
       0.30765224 0.0012100339 0.401725 0.13658917
0002a0 66 b9 4f 3f 58 c0 82 3e f7 e5 5e 3f d4 1d 48 3f
       0.8114227 0.25537372 0.8706965 0.78170514
0002b0 eb 88 0c 3f e1 8f 11 3f b8 c5 75 3e c0 1d 42 3f
       0.5489642 0.56860167 0.24001205 0.75826645
0002c0 f6 5f 67 3f 58 7a 3f 3e a8 3b b2 3e 27 2e 05 3f
       0.903808 0.18699014 0.3481114 0.5202355
0002d0 88 f6 42 3f 36 95 6f 3f 63 f0 2a 3f 0e 59 03 3f
       0.76157427 0.9358705 0.6677305 0.5130776
0002e0 ba 63 03 3f ec 66 5d 3f ed e6 5b 3f 60 f7 df 3c
       0.51324046 0.8648517 0.8589924 0.027339637
0002f0 0a 10 92 3e 78 36 15 3e 60 2b d4 3d 0e 35 dc 3e
       0.28527862 0.1457156 0.103598356 0.43009228
000300 16 6e 6a 3f 70 50 17 3e 80 ff 31 3c b4 7e 29 3f
       0.9157423 0.14776778 0.010864139 0.6620896
000310 46 88 d5 3e 9a 4d 1b 3f a2 d9 f5 3e 97 d0 34 3f
       0.4170553 0.60665286 0.48017603 0.7063078
000320 c0 17 47 3d a0 7f fe 3c 78 80 a7 3e 97 d9 08 3f
       0.048606634 0.031066716 0.327152 0.53457016
000330 15 30 10 3f 4a 74 0c 3f bb cb 1f 3f 3a ef 2a 3f
       0.5632337 0.54864943 0.62420243 0.6677128
000340 dd 77 5e 3f ae 6b 49 3f 0c 91 3a 3f d4 9f a2 3e
       0.86901647 0.7867993 0.72877574 0.31762564
000350 5b 4f 29 3f ae f9 ae 3e b4 d9 18 3e 70 09 b7 3e
       0.6613671 0.34174865 0.14926797 0.35749388
000360 8b ea 38 3f eb 49 16 3f 48 ad a2 3d f8 1c 67 3e
       0.72232884 0.5870654 0.07943207 0.22569644
000370 9e 63 bd 3e a0 ba 4f 3d a0 f6 e8 3e fe 69 02 3f
       0.36990064 0.05071509 0.4550066 0.5094298
000380 3c ac 63 3f c0 32 5f 3d 16 86 e3 3e c8 ef 7a 3f
       0.88934684 0.05449176 0.44438237 0.9802213
000390 ba 34 b5 3e 1a c2 c5 3e d5 02 6f 3f 1a ce 41 3f
       0.3539179 0.3862465 0.93363696 0.7570511
0003a0 38 00 86 3e 0c b0 a8 3e f4 fa 55 3e 20 c2 3f 3e
       0.26172042 0.32946813 0.20896512 0.18726397
0003b0 30 73 87 3e 53 40 29 3f ae ae 95 3e 68 5a c4 3e
       0.2645507 0.66113776 0.29234833 0.38350224
0003c0 05 a9 3f 3f 46 91 88 3e a0 a1 52 3f 9a 1f f8 3e
       0.7486728 0.26673335 0.8227787 0.4846161
0003d0 64 d5 73 3e c0 d0 da 3e 15 52 79 3f 30 14 21 3e
       0.23811871 0.4273739 0.9739087 0.15730357
0003e0 22 8c 09 3f 2b 94 5f 3f a8 04 b1 3d 6e e7 1f 3f
       0.5372945 0.8733546 0.08643466 0.6246251
0003f0 49 08 56 3f ab 30 27 3f 3e 14 10 3f d8 d6 97 3e
       0.8360639 0.65308636 0.5628089 0.296561

bn1.bias f4 [400]
000000 00 00 00 00 00 00 00 00 00 00 00 00 00 00 00 00
       0.0 0.0 0.0 0.0
000010 00 00 00 00 00 00 00 00 00 00 00 00 00 00 00 00
       0.0 0.0 0.0 0.0
000020 00 00 00 00 00 00 00 00 00 00 00 00 00 00 00 00
       0.0 0.0 0.0 0.0
000030 00 00 00 00 00 00 00 00 00 00 00 00 00 00 00 00
       0.0 0.0 0.0 0.0
000040 00 00 00 00 00 00 00 00 00 00 00 00 00 00 00 00
       0.0 0.0 0.0 0.0
000050 00 00 00 00 00 00 00 00 00 00 00 00 00 00 00 00
       0.0 0.0 0.0 0.0
000060 00 00 00 00 00 00 00 00 00 00 00 00 00 00 00 00
       0.0 0.0 0.0 0.0
000070 00 00 00 00 00 00 00 00 00 00 00 00 00 00 00 00
       0.0 0.0 0.0 0.0
000080 00 00 00 00 00 00 00 00 00 00 00 00 00 00 00 00
       0.0 0.0 0.0 0.0
000090 00 00 00 00 00 00 00 00 00 00 00 00 00 00 00 00
       0.0 0.0 0.0 0.0
0000a0 00 00 00 00 00 00 00 00 00 00 00 00 00 00 00 00
       0.0 0.0 0.0 0.0
0000b0 00 00 00 00 00 00 00 00 00 00 00 00 00 00 00 00
       0.0 0.0 0.0 0.0
0000c0 00 00 00 00 00 00 00 00 00 00 00 00 00 00 00 00
       0.0 0.0 0.0 0.0
0000d0 00 00 00 00 00 00 00 00 00 00 00 00 00 00 00 00
       0.0 0.0 0.0 0.0
0000e0 00 00 00 00 00 00 00 00 00 00 00 00 00 00 00 00
       0.0 0.0 0.0 0.0
0000f0 00 00 00 00 00 00 00 00 00 00 00 00 00 00 00 00
       0.0 0.0 0.0 0.0
000100 00 00 00 00 00 00 00 00 00 00 00 00 00 00 00 00
       0.0 0.0 0.0 0.0
000110 00 00 00 00 00 00 00 00 00 00 00 00 00 00 00 00
       0.0 0.0 0.0 0.0
000120 00 00 00 00 00 00 00 00 00 00 00 00 00 00 00 00
       0.0 0.0 0.0 0.0
000130 00 00 00 00 00 00 00 00 00 00 00 00 00 00 00 00
       0.0 0.0 0.0 0.0
000140 00 00 00 00 00 00 00 00 00 00 00 00 00 00 00 00
       0.0 0.0 0.0 0.0
000150 00 00 00 00 00 00 00 00 00 00 00 00 00 00 00 00
       0.0 0.0 0.0 0.0
000160 00 00 00 00 00 00 00 00 00 00 00 00 00 00 00 00
       0.0 0.0 0.0 0.0
000170 00 00 00 00 00 00 00 00 00 00 00 00 00 00 00 00
       0.0 0.0 0.0 0.0
000180 00 00 00 00 00 00 00 00 00 00 00 00 00 00 00 00
       0.0 0.0 0.0 0.0
000190 00 00 00 00 00 00 00 00 00 00 00 00 00 00 00 00
       0.0 0.0 0.0 0.0
0001a0 00 00 00 00 00 00 00 00 00 00 00 00 00 00 00 00
       0.0 0.0 0.0 0.0
0001b0 00 00 00 00 00 00 00 00 00 00 00 00 00 00 00 00
       0.0 0.0 0.0 0.0
0001c0 00 00 00 00 00 00 00 00 00 00 00 00 00 00 00 00
       0.0 0.0 0.0 0.0
0001d0 00 00 00 00 00 00 00 00 00 00 00 00 00 00 00 00
       0.0 0.0 0.0 0.0
0001e0 00 00 00 00 00 00 00 00 00 00 00 00 00 00 00 00
       0.0 0.0 0.0 0.0
0001f0 00 00 00 00 00 00 00 00 00 00 00 00 00 00 00 00
       0.0 0.0 0.0 0.0
000200 00 00 00 00 00 00 00 00 00 00 00 00 00 00 00 00
       0.0 0.0 0.0 0.0
000210 00 00 00 00 00 00 00 00 00 00 00 00 00 00 00 00
       0.0 0.0 0.0 0.0
000220 00 00 00 00 00 00 00 00 00 00 00 00 00 00 00 00
       0.0 0.0 0.0 0.0
000230 00 00 00 00 00 00 00 00 00 00 00 00 00 00 00 00
       0.0 0.0 0.0 0.0
000240 00 00 00 00 00 00 00 00 00 00 00 00 00 00 00 00
       0.0 0.0 0.0 0.0
000250 00 00 00 00 00 00 00 00 00 00 00 00 00 00 00 00
       0.0 0.0 0.0 0.0
000260 00 00 00 00 00 00 00 00 00 00 00 00 00 00 00 00
       0.0 0.0 0.0 0.0
000270 00 00 00 00 00 00 00 00 00 00 00 00 00 00 00 00
       0.0 0.0 0.0 0.0
000280 00 00 00 00 00 00 00 00 00 00 00 00 00 00 00 00
       0.0 0.0 0.0 0.0
000290 00 00 00 00 00 00 00 00 00 00 00 00 00 00 00 00
       0.0 0.0 0.0 0.0
0002a0 00 00 00 00 00 00 00 00 00 00 00 00 00 00 00 00
       0.0 0.0 0.0 0.0
0002b0 00 00 00 00 00 00 00 00 00 00 00 00 00 00 00 00
       0.0 0.0 0.0 0.0
0002c0 00 00 00 00 00 00 00 00 00 00 00 00 00 00 00 00
       0.0 0.0 0.0 0.0
0002d0 00 00 00 00 00 00 00 00 00 00 00 00 00 00 00 00
       0.0 0.0 0.0 0.0
0002e0 00 00 00 00 00 00 00 00 00 00 00 00 00 00 00 00
       0.0 0.0 0.0 0.0
0002f0 00 00 00 00 00 00 00 00 00 00 00 00 00 00 00 00
       0.0 0.0 0.0 0.0
000300 00 00 00 00 00 00 00 00 00 00 00 00 00 00 00 00
       0.0 0.0 0.0 0.0
000310 00 00 00 00 00 00 00 00 00 00 00 00 00 00 00 00
       0.0 0.0 0.0 0.0
000320 00 00 00 00 00 00 00 00 00 00 00 00 00 00 00 00
       0.0 0.0 0.0 0.0
000330 00 00 00 00 00 00 00 00 00 00 00 00 00 00 00 00
       0.0 0.0 0.0 0.0
000340 00 00 00 00 00 00 00 00 00 00 00 00 00 00 00 00
       0.0 0.0 0.0 0.0
000350 00 00 00 00 00 00 00 00 00 00 00 00 00 00 00 00
       0.0 0.0 0.0 0.0
000360 00 00 00 00 00 00 00 00 00 00 00 00 00 00 00 00
       0.0 0.0 0.0 0.0
000370 00 00 00 00 00 00 00 00 00 00 00 00 00 00 00 00
       0.0 0.0 0.0 0.0
000380 00 00 00 00 00 00 00 00 00 00 00 00 00 00 00 00
       0.0 0.0 0.0 0.0
000390 00 00 00 00 00 00 00 00 00 00 00 00 00 00 00 00
       0.0 0.0 0.0 0.0
0003a0 00 00 00 00 00 00 00 00 00 00 00 00 00 00 00 00
       0.0 0.0 0.0 0.0
0003b0 00 00 00 00 00 00 00 00 00 00 00 00 00 00 00 00
       0.0 0.0 0.0 0.0
0003c0 00 00 00 00 00 00 00 00 00 00 00 00 00 00 00 00
       0.0 0.0 0.0 0.0
0003d0 00 00 00 00 00 00 00 00 00 00 00 00 00 00 00 00
       0.0 0.0 0.0 0.0
0003e0 00 00 00 00 00 00 00 00 00 00 00 00 00 00 00 00
       0.0 0.0 0.0 0.0
0003f0 00 00 00 00 00 00 00 00 00 00 00 00 00 00 00 00
       0.0 0.0 0.0 0.0

bn1.running_mean f4 [400]
000000 00 00 00 00 00 00 00 00 00 00 00 00 00 00 00 00
       0.0 0.0 0.0 0.0
000010 00 00 00 00 00 00 00 00 00 00 00 00 00 00 00 00
       0.0 0.0 0.0 0.0
000020 00 00 00 00 00 00 00 00 00 00 00 00 00 00 00 00
       0.0 0.0 0.0 0.0
000030 00 00 00 00 00 00 00 00 00 00 00 00 00 00 00 00
       0.0 0.0 0.0 0.0
000040 00 00 00 00 00 00 00 00 00 00 00 00 00 00 00 00
       0.0 0.0 0.0 0.0
000050 00 00 00 00 00 00 00 00 00 00 00 00 00 00 00 00
       0.0 0.0 0.0 0.0
000060 00 00 00 00 00 00 00 00 00 00 00 00 00 00 00 00
       0.0 0.0 0.0 0.0
000070 00 00 00 00 00 00 00 00 00 00 00 00 00 00 00 00
       0.0 0.0 0.0 0.0
000080 00 00 00 00 00 00 00 00 00 00 00 00 00 00 00 00
       0.0 0.0 0.0 0.0
000090 00 00 00 00 00 00 00 00 00 00 00 00 00 00 00 00
       0.0 0.0 0.0 0.0
0000a0 00 00 00 00 00 00 00 00 00 00 00 00 00 00 00 00
       0.0 0.0 0.0 0.0
0000b0 00 00 00 00 00 00 00 00 00 00 00 00 00 00 00 00
       0.0 0.0 0.0 0.0
0000c0 00 00 00 00 00 00 00 00 00 00 00 00 00 00 00 00
       0.0 0.0 0.0 0.0
0000d0 00 00 00 00 00 00 00 00 00 00 00 00 00 00 00 00
       0.0 0.0 0.0 0.0
0000e0 00 00 00 00 00 00 00 00 00 00 00 00 00 00 00 00
       0.0 0.0 0.0 0.0
0000f0 00 00 00 00 00 00 00 00 00 00 00 00 00 00 00 00
       0.0 0.0 0.0 0.0
000100 00 00 00 00 00 00 00 00 00 00 00 00 00 00 00 00
       0.0 0.0 0.0 0.0
000110 00 00 00 00 00 00 00 00 00 00 00 00 00 00 00 00
       0.0 0.0 0.0 0.0
000120 00 00 00 00 00 00 00 00 00 00 00 00 00 00 00 00
       0.0 0.0 0.0 0.0
000130 00 00 00 00 00 00 00 00 00 00 00 00 00 00 00 00
       0.0 0.0 0.0 0.0
000140 00 00 00 00 00 00 00 00 00 00 00 00 00 00 00 00
       0.0 0.0 0.0 0.0
000150 00 00 00 00 00 00 00 00 00 00 00 00 00 00 00 00
       0.0 0.0 0.0 0.0
000160 00 00 00 00 00 00 00 00 00 00 00 00 00 00 00 00
       0.0 0.0 0.0 0.0
000170 00 00 00 00 00 00 00 00 00 00 00 00 00 00 00 00
       0.0 0.0 0.0 0.0
000180 00 00 00 00 00 00 00 00 00 00 00 00 00 00 00 00
       0.0 0.0 0.0 0.0
000190 00 00 00 00 00 00 00 00 00 00 00 00 00 00 00 00
       0.0 0.0 0.0 0.0
0001a0 00 00 00 00 00 00 00 00 00 00 00 00 00 00 00 00
       0.0 0.0 0.0 0.0
0001b0 00 00 00 00 00 00 00 00 00 00 00 00 00 00 00 00
       0.0 0.0 0.0 0.0
0001c0 00 00 00 00 00 00 00 00 00 00 00 00 00 00 00 00
       0.0 0.0 0.0 0.0
0001d0 00 00 00 00 00 00 00 00 00 00 00 00 00 00 00 00
       0.0 0.0 0.0 0.0
0001e0 00 00 00 00 00 00 00 00 00 00 00 00 00 00 00 00
       0.0 0.0 0.0 0.0
0001f0 00 00 00 00 00 00 00 00 00 00 00 00 00 00 00 00
       0.0 0.0 0.0 0.0
000200 00 00 00 00 00 00 00 00 00 00 00 00 00 00 00 00
       0.0 0.0 0.0 0.0
000210 00 00 00 00 00 00 00 00 00 00 00 00 00 00 00 00
       0.0 0.0 0.0 0.0
000220 00 00 00 00 00 00 00 00 00 00 00 00 00 00 00 00
       0.0 0.0 0.0 0.0
000230 00 00 00 00 00 00 00 00 00 00 00 00 00 00 00 00
       0.0 0.0 0.0 0.0
000240 00 00 00 00 00 00 00 00 00 00 00 00 00 00 00 00
       0.0 0.0 0.0 0.0
000250 00 00 00 00 00 00 00 00 00 00 00 00 00 00 00 00
       0.0 0.0 0.0 0.0
000260 00 00 00 00 00 00 00 00 00 00 00 00 00 00 00 00
       0.0 0.0 0.0 0.0
000270 00 00 00 00 00 00 00 00 00 00 00 00 00 00 00 00
       0.0 0.0 0.0 0.0
000280 00 00 00 00 00 00 00 00 00 00 00 00 00 00 00 00
       0.0 0.0 0.0 0.0
000290 00 00 00 00 00 00 00 00 00 00 00 00 00 00 00 00
       0.0 0.0 0.0 0.0
0002a0 00 00 00 00 00 00 00 00 00 00 00 00 00 00 00 00
       0.0 0.0 0.0 0.0
0002b0 00 00 00 00 00 00 00 00 00 00 00 00 00 00 00 00
       0.0 0.0 0.0 0.0
0002c0 00 00 00 00 00 00 00 00 00 00 00 00 00 00 00 00
       0.0 0.0 0.0 0.0
0002d0 00 00 00 00 00 00 00 00 00 00 00 00 00 00 00 00
       0.0 0.0 0.0 0.0
0002e0 00 00 00 00 00 00 00 00 00 00 00 00 00 00 00 00
       0.0 0.0 0.0 0.0
0002f0 00 00 00 00 00 00 00 00 00 00 00 00 00 00 00 00
       0.0 0.0 0.0 0.0
000300 00 00 00 00 00 00 00 00 00 00 00 00 00 00 00 00
       0.0 0.0 0.0 0.0
000310 00 00 00 00 00 00 00 00 00 00 00 00 00 00 00 00
       0.0 0.0 0.0 0.0
000320 00 00 00 00 00 00 00 00 00 00 00 00 00 00 00 00
       0.0 0.0 0.0 0.0
000330 00 00 00 00 00 00 00 00 00 00 00 00 00 00 00 00
       0.0 0.0 0.0 0.0
000340 00 00 00 00 00 00 00 00 00 00 00 00 00 00 00 00
       0.0 0.0 0.0 0.0
000350 00 00 00 00 00 00 00 00 00 00 00 00 00 00 00 00
       0.0 0.0 0.0 0.0
000360 00 00 00 00 00 00 00 00 00 00 00 00 00 00 00 00
       0.0 0.0 0.0 0.0
000370 00 00 00 00 00 00 00 00 00 00 00 00 00 00 00 00
       0.0 0.0 0.0 0.0
000380 00 00 00 00 00 00 00 00 00 00 00 00 00 00 00 00
       0.0 0.0 0.0 0.0
000390 00 00 00 00 00 00 00 00 00 00 00 00 00 00 00 00
       0.0 0.0 0.0 0.0
0003a0 00 00 00 00 00 00 00 00 00 00 00 00 00 00 00 00
       0.0 0.0 0.0 0.0
0003b0 00 00 00 00 00 00 00 00 00 00 00 00 00 00 00 00
       0.0 0.0 0.0 0.0
0003c0 00 00 00 00 00 00 00 00 00 00 00 00 00 00 00 00
       0.0 0.0 0.0 0.0
0003d0 00 00 00 00 00 00 00 00 00 00 00 00 00 00 00 00
       0.0 0.0 0.0 0.0
0003e0 00 00 00 00 00 00 00 00 00 00 00 00 00 00 00 00
       0.0 0.0 0.0 0.0
0003f0 00 00 00 00 00 00 00 00 00 00 00 00 00 00 00 00
       0.0 0.0 0.0 0.0

bn1.running_var f4 [400]
000000 00 00 80 3f 00 00 80 3f 00 00 80 3f 00 00 80 3f
       1.0 1.0 1.0 1.0
000010 00 00 80 3f 00 00 80 3f 00 00 80 3f 00 00 80 3f
       1.0 1.0 1.0 1.0
000020 00 00 80 3f 00 00 80 3f 00 00 80 3f 00 00 80 3f
       1.0 1.0 1.0 1.0
000030 00 00 80 3f 00 00 80 3f 00 00 80 3f 00 00 80 3f
       1.0 1.0 1.0 1.0
000040 00 00 80 3f 00 00 80 3f 00 00 80 3f 00 00 80 3f
       1.0 1.0 1.0 1.0
000050 00 00 80 3f 00 00 80 3f 00 00 80 3f 00 00 80 3f
       1.0 1.0 1.0 1.0
000060 00 00 80 3f 00 00 80 3f 00 00 80 3f 00 00 80 3f
       1.0 1.0 1.0 1.0
000070 00 00 80 3f 00 00 80 3f 00 00 80 3f 00 00 80 3f
       1.0 1.0 1.0 1.0
000080 00 00 80 3f 00 00 80 3f 00 00 80 3f 00 00 80 3f
       1.0 1.0 1.0 1.0
000090 00 00 80 3f 00 00 80 3f 00 00 80 3f 00 00 80 3f
       1.0 1.0 1.0 1.0
0000a0 00 00 80 3f 00 00 80 3f 00 00 80 3f 00 00 80 3f
       1.0 1.0 1.0 1.0
0000b0 00 00 80 3f 00 00 80 3f 00 00 80 3f 00 00 80 3f
       1.0 1.0 1.0 1.0
0000c0 00 00 80 3f 00 00 80 3f 00 00 80 3f 00 00 80 3f
       1.0 1.0 1.0 1.0
0000d0 00 00 80 3f 00 00 80 3f 00 00 80 3f 00 00 80 3f
       1.0 1.0 1.0 1.0
0000e0 00 00 80 3f 00 00 80 3f 00 00 80 3f 00 00 80 3f
       1.0 1.0 1.0 1.0
0000f0 00 00 80 3f 00 00 80 3f 00 00 80 3f 00 00 80 3f
       1.0 1.0 1.0 1.0
000100 00 00 80 3f 00 00 80 3f 00 00 80 3f 00 00 80 3f
       1.0 1.0 1.0 1.0
000110 00 00 80 3f 00 00 80 3f 00 00 80 3f 00 00 80 3f
       1.0 1.0 1.0 1.0
000120 00 00 80 3f 00 00 80 3f 00 00 80 3f 00 00 80 3f
       1.0 1.0 1.0 1.0
000130 00 00 80 3f 00 00 80 3f 00 00 80 3f 00 00 80 3f
       1.0 1.0 1.0 1.0
000140 00 00 80 3f 00 00 80 3f 00 00 80 3f 00 00 80 3f
       1.0 1.0 1.0 1.0
000150 00 00 80 3f 00 00 80 3f 00 00 80 3f 00 00 80 3f
       1.0 1.0 1.0 1.0
000160 00 00 80 3f 00 00 80 3f 00 00 80 3f 00 00 80 3f
       1.0 1.0 1.0 1.0
000170 00 00 80 3f 00 00 80 3f 00 00 80 3f 00 00 80 3f
       1.0 1.0 1.0 1.0
000180 00 00 80 3f 00 00 80 3f 00 00 80 3f 00 00 80 3f
       1.0 1.0 1.0 1.0
000190 00 00 80 3f 00 00 80 3f 00 00 80 3f 00 00 80 3f
       1.0 1.0 1.0 1.0
0001a0 00 00 80 3f 00 00 80 3f 00 00 80 3f 00 00 80 3f
       1.0 1.0 1.0 1.0
0001b0 00 00 80 3f 00 00 80 3f 00 00 80 3f 00 00 80 3f
       1.0 1.0 1.0 1.0
0001c0 00 00 80 3f 00 00 80 3f 00 00 80 3f 00 00 80 3f
       1.0 1.0 1.0 1.0
0001d0 00 00 80 3f 00 00 80 3f 00 00 80 3f 00 00 80 3f
       1.0 1.0 1.0 1.0
0001e0 00 00 80 3f 00 00 80 3f 00 00 80 3f 00 00 80 3f
       1.0 1.0 1.0 1.0
0001f0 00 00 80 3f 00 00 80 3f 00 00 80 3f 00 00 80 3f
       1.0 1.0 1.0 1.0
000200 00 00 80 3f 00 00 80 3f 00 00 80 3f 00 00 80 3f
       1.0 1.0 1.0 1.0
000210 00 00 80 3f 00 00 80 3f 00 00 80 3f 00 00 80 3f
       1.0 1.0 1.0 1.0
000220 00 00 80 3f 00 00 80 3f 00 00 80 3f 00 00 80 3f
       1.0 1.0 1.0 1.0
000230 00 00 80 3f 00 00 80 3f 00 00 80 3f 00 00 80 3f
       1.0 1.0 1.0 1.0
000240 00 00 80 3f 00 00 80 3f 00 00 80 3f 00 00 80 3f
       1.0 1.0 1.0 1.0
000250 00 00 80 3f 00 00 80 3f 00 00 80 3f 00 00 80 3f
       1.0 1.0 1.0 1.0
000260 00 00 80 3f 00 00 80 3f 00 00 80 3f 00 00 80 3f
       1.0 1.0 1.0 1.0
000270 00 00 80 3f 00 00 80 3f 00 00 80 3f 00 00 80 3f
       1.0 1.0 1.0 1.0
000280 00 00 80 3f 00 00 80 3f 00 00 80 3f 00 00 80 3f
       1.0 1.0 1.0 1.0
000290 00 00 80 3f 00 00 80 3f 00 00 80 3f 00 00 80 3f
       1.0 1.0 1.0 1.0
0002a0 00 00 80 3f 00 00 80 3f 00 00 80 3f 00 00 80 3f
       1.0 1.0 1.0 1.0
0002b0 00 00 80 3f 00 00 80 3f 00 00 80 3f 00 00 80 3f
       1.0 1.0 1.0 1.0
0002c0 00 00 80 3f 00 00 80 3f 00 00 80 3f 00 00 80 3f
       1.0 1.0 1.0 1.0
0002d0 00 00 80 3f 00 00 80 3f 00 00 80 3f 00 00 80 3f
       1.0 1.0 1.0 1.0
0002e0 00 00 80 3f 00 00 80 3f 00 00 80 3f 00 00 80 3f
       1.0 1.0 1.0 1.0
0002f0 00 00 80 3f 00 00 80 3f 00 00 80 3f 00 00 80 3f
       1.0 1.0 1.0 1.0
000300 00 00 80 3f 00 00 80 3f 00 00 80 3f 00 00 80 3f
       1.0 1.0 1.0 1.0
000310 00 00 80 3f 00 00 80 3f 00 00 80 3f 00 00 80 3f
       1.0 1.0 1.0 1.0
000320 00 00 80 3f 00 00 80 3f 00 00 80 3f 00 00 80 3f
       1.0 1.0 1.0 1.0
000330 00 00 80 3f 00 00 80 3f 00 00 80 3f 00 00 80 3f
       1.0 1.0 1.0 1.0
000340 00 00 80 3f 00 00 80 3f 00 00 80 3f 00 00 80 3f
       1.0 1.0 1.0 1.0
000350 00 00 80 3f 00 00 80 3f 00 00 80 3f 00 00 80 3f
       1.0 1.0 1.0 1.0
000360 00 00 80 3f 00 00 80 3f 00 00 80 3f 00 00 80 3f
       1.0 1.0 1.0 1.0
000370 00 00 80 3f 00 00 80 3f 00 00 80 3f 00 00 80 3f
       1.0 1.0 1.0 1.0
000380 00 00 80 3f 00 00 80 3f 00 00 80 3f 00 00 80 3f
       1.0 1.0 1.0 1.0
000390 00 00 80 3f 00 00 80 3f 00 00 80 3f 00 00 80 3f
       1.0 1.0 1.0 1.0
0003a0 00 00 80 3f 00 00 80 3f 00 00 80 3f 00 00 80 3f
       1.0 1.0 1.0 1.0
0003b0 00 00 80 3f 00 00 80 3f 00 00 80 3f 00 00 80 3f
       1.0 1.0 1.0 1.0
0003c0 00 00 80 3f 00 00 80 3f 00 00 80 3f 00 00 80 3f
       1.0 1.0 1.0 1.0
0003d0 00 00 80 3f 00 00 80 3f 00 00 80 3f 00 00 80 3f
       1.0 1.0 1.0 1.0
0003e0 00 00 80 3f 00 00 80 3f 00 00 80 3f 00 00 80 3f
       1.0 1.0 1.0 1.0
0003f0 00 00 80 3f 00 00 80 3f 00 00 80 3f 00 00 80 3f
       1.0 1.0 1.0 1.0

fc2.weight f4 [300, 400]
000000 62 f8 88 3d c8 c4 55 bd 1f 10 8c 3d b0 47 2a bd
       0.06688 -0.05218962 0.06839012 -0.041572273
000010 8c c0 95 bc 7b 1f 9c 3d a4 73 05 bc 0b fa 90 3c
       -0.01828029 0.07623192 -0.008145247 0.017697355
000020 c9 e1 27 3d 71 08 0e 3d 87 53 5b 3d 8c f7 85 3c
       0.04098681 0.03467602 0.053546455 0.016353391
000030 c8 2a 38 bc 6a bd dd bc 4c 57 fb 3c 57 e6 ae 3c
       -0.011240669 -0.027067859 0.030681275 0.021350069
000040 3e 53 14 3d bb 33 f1 bb 3b 4f bb 3d e8 aa 11 bd
       0.0362122 -0.007360903 0.091459714 -0.03556338
000050 a4 08 25 bc 52 33 41 bd 0e 91 74 bd 32 84 62 bc
       -0.010072861 -0.047168083 -0.059708647 -0.013825463
000060 b0 b1 54 3c 93 14 52 3b 82 d0 4a 3d 34 ad df bc
       0.012981817 0.003205572 0.049515255 -0.02730427
000070 fc 82 27 bd 3a bc 6b 3c 24 41 24 3d fd 73 1a bd
       -0.0408964 0.014388138 0.040101185 -0.03770827
000080 4d c4 22 3d bb 54 6c bd 16 fb 61 bc 92 bf 94 3d
       0.03973799 -0.057697993 -0.013792774 0.07263102
000090 d6 a7 12 3d 5f cd e9 bc 2f 93 1e bd ac f9 30 bd
       0.035804592 -0.028540311 -0.038714584 -0.043206856
0000a0 7f d9 72 3d ab 03 1c 3d 56 4e f2 bc 77 ce 26 bb
       0.05928945 0.038089436 -0.02957837 -0.0025452652
0000b0 63 68 fe bc 12 85 c3 3c 46 34 89 3d 5f fe 8a 3d
       -0.031055635 0.023867164 0.066994235 0.06786799
0000c0 0a 94 3c bc 80 33 46 bd 6a 0a 18 3d 42 54 3b bb
       -0.011509905 -0.048388958 0.037119307 -0.0028584157
0000d0 f7 38 1c bd 16 27 65 3d fb 07 4d bd a0 17 48 bd
       -0.038140263 0.05594548 -0.05005644 -0.048850656
0000e0 86 50 22 3d a4 a6 65 bc 5a 31 66 3c 16 c7 67 3d
       0.039627574 -0.014016781 0.014049852 0.056586348
0000f0 ba 61 dc 3c 0e 05 d9 ba 4d da b5 b9 a3 01 75 3d
       0.026902068 -0.0016557293 -0.00034685657 0.059816014
000100 23 dc 49 3d 49 07 8a 3d ce df 50 3d a9 2b 0d 3a
       0.049282204 0.06739671 0.050994687 0.0005385229
000110 85 fc 45 3b 9b 4b d6 3c 0f 01 4b 3d 0d 3b 81 3c
       0.0030210328 0.026159098 0.049561556 0.015775228
000120 d8 a2 15 3c 13 8f 8c 3d 11 65 17 3d b9 02 1a 3d
       0.009133063 0.06863227 0.03696162 0.037600253
000130 72 7c e7 bc 91 1f 83 3d 72 1d 62 3c 4b 54 b0 3c
       -0.028257582 0.06402505 0.013800966 0.021524569
000140 d2 96 ff bc 8e 48 17 bd 10 9b 34 3d 76 d3 16 3d
       -0.031199846 -0.036934428 0.04409319 0.03682276
000150 bb 97 ac bb 59 c2 2b 3d 01 ed 39 3d 74 06 4a bc
       -0.005267111 0.04193339 0.04539204 -0.01233064
000160 50 06 81 3d e7 f1 b5 bc 91 fc 89 bb 25 f6 33 3d
       0.06300032 -0.022210075 -0.0042110165 0.043935914
000170 08 9d ae bc 64 76 09 3c 6d c6 25 bd ef c0 1b bd
       -0.021315113 0.008390043 -0.040472437 -0.038025793
000180 4c a2 a9 bc a0 62 51 3d 95 cb f0 3c 10 34 61 3d
       -0.020707272 0.051119447 0.02939395 0.05498129
000190 bb 3b 94 bc 37 1e be 3c b1 8c 56 3d 46 f3 2f 3d
       -0.018094888 0.023207767 0.052380268 0.042956613
0001a0 a4 b9 38 bd f6 3c 3e 3d 43 1a 25 3c c7 b6 f9 3c
       -0.045098916 0.046444856 0.010077062 0.030482663
0001b0 2a 21 73 bb c3 99 24 3d 3d dc 6e bc 1e de 8b bc
       -0.0037098625 0.0401857 -0.014578876 -0.017073687
0001c0 4c 44 66 bc 3a 09 4e bd 98 94 5b bd c5 bc 42 3d
       -0.014054369 -0.050301768 -0.053608507 0.047543306
0001d0 e9 25 8a 3c 5c 1c 82 bc 38 a3 bc 3c da ad a2 bc
       0.01686378 -0.015882663 0.023027048 -0.01985829
0001e0 26 d9 91 bd b1 ce 6d bc a0 de 36 3c a9 c2 c3 3c
       -0.07121496 -0.014514611 0.011161476 0.023896532
0001f0 9c 9e ba bc 66 60 a7 3c 8b de 33 3d 25 f7 42 3d
       -0.022780709 0.020431709 0.043913405 0.047598977
000200 5f 39 56 bc ac 9e 25 3c be c3 08 bd 7d 87 96 3c
       -0.013075202 0.010108631 -0.0333898 0.018375153
000210 76 91 66 bc 8f 15 a5 ba d5 f3 f5 3c 3f 04 a0 3c
       -0.0140727665 -0.0012594926 0.030023495 0.019533275
000220 10 b7 93 3c 0f 1a 7c ba 00 f0 2f 3c 1f e8 ab 3a
       0.018031627 -0.000961692 0.010738373 0.0013115442
000230 cb cb 37 ba 08 05 d8 bc 87 c6 9f 3c 05 ee 9a bc
       -0.00070112635 -0.026369587 0.019503845 -0.018912325
000240 fb ab d2 bb 2f d1 c5 b9 89 f1 8e 3d a4 a7 51 3d
       -0.006429193 -0.00037730622 0.06979663 0.051185265
000250 e3 fe 07 3d c2 ae 71 3c 68 a0 89 bb a4 f3 0d 3d
       0.033202063 0.014751138 -0.00420003 0.034656182
000260 5e 1e 3d bd 2a 38 23 3d 17 1e 51 bb 49 b5 80 3d
       -0.04617154 0.039848484 -0.0031908804 0.062845774
000270 45 72 72 bd 72 ad 6e 3d 34 5c 8e 3d b9 4e 73 3c
       -0.059191007 0.05827088 0.0695118 0.014850312
000280 0c b0 88 3c 87 55 37 3c 88 7b 68 3d 87 c1 04 3d
       0.016685508 0.011189825 0.056758434 0.032411125
000290 37 4c 86 3d f6 56 4d ba 19 28 e7 bb b6 b8 ff 3c
       0.065575056 -0.00078330876 -0.0070543406 0.031216007
0002a0 49 8a 9c 3b 79 0e 4e 3d bd b8 97 3b fd 81 4f 3d
       0.004777227 0.05030677 0.004630177 0.050661076
0002b0 bd f6 92 bd ea 42 8c bc b1 31 1c bd 86 fc d9 bc
       -0.07175968 -0.01712175 -0.038133327 -0.02660967
0002c0 f8 3f e6 3c 0e ee 9c 3c 94 b8 2d 3d 59 96 d1 3c
       0.028106675 0.019156482 0.042412356 0.025584387
0002d0 55 d6 ca 3b 21 18 98 3c 8f 03 44 39 ac 3a 41 3d
       0.006190101 0.018566193 0.00018693342 0.047175094
0002e0 ae 9b 54 bd ee c0 17 3d 83 e2 16 3d 3a 2d a4 3c
       -0.05190628 0.037049226 0.036837112 0.020041097
0002f0 52 ec 8b 3c 47 1e 85 3a 99 5e 15 bd 6b e7 3f bc
       0.01708046 0.0010156118 -0.03646717 -0.011712889
000300 79 19 76 3c dd 43 c2 3b 8f 31 36 bd 0f bb 37 bd
       0.015020722 0.0059285 -0.044480857 -0.044856127
000310 8c 33 02 bd 07 12 aa 3c 54 77 88 3d 44 ac d0 bc
       -0.03178744 0.02076055 0.06663385 -0.025472768
000320 a4 29 2c bb 4f dc 44 3d 23 7f 13 bd ec f5 f4 3b
       -0.0026269937 0.048061665 -0.03600992 0.0074756052
000330 b1 43 35 3d 45 e2 6b bd f1 15 71 3c 7f 7d cc bb
       0.04425401 -0.057588834 0.014714704 -0.0062405462
000340 f0 1a 29 3d 90 db 01 bd a3 d3 84 bd ae b9 a7 3b
       0.041285455 -0.03170353 -0.06485679 0.0051185703
000350 5c 71 6b bc 86 97 73 bc 59 b4 fc bc a9 73 45 3b
       -0.014370289 -0.014867669 -0.030847715 0.0030128753
000360 57 79 49 3d 7d 2e 17 3d 0e 82 cd 3c e0 ec 76 3d
       0.049187984 0.03690957 0.025086429 0.060284495
000370 68 25 38 3d 09 50 98 bc 6a 0c 2f 3d 3b e1 6e 3d
       0.04495755 -0.018592851 0.04273645 0.058320265
000380 9a 2e f3 3c 74 a9 4b 3d da d2 44 bc ac b5 04 bc
       0.029685307 0.04972215 -0.012013162 -0.008099955
000390 fb f6 09 bd b0 34 85 bd cb be 31 bd 62 a5 49 bd
       -0.033682805 -0.0650419 -0.043394845 -0.049229987
0003a0 db 8d 1b 3d b6 6d 84 bb 25 ad 3e 3d 41 8b 47 3d
       0.03797708 -0.004041399 0.046551842 0.048716787
0003b0 d1 30 a8 bc d0 7e e9 bc df 44 71 bd e5 b6 14 3b
       -0.02053109 -0.028502852 -0.05890357 0.0022692021
0003c0 ca 7b e4 3b 08 4a 56 bd 98 e8 2a bd 4e 8a 16 bd
       0.0069727646 -0.052316695 -0.041725725 -0.03675299
0003d0 76 6e 87 3d 01 01 92 3d fa 04 be bc 0a bf f5 bc
       0.066128656 0.07129098 -0.023195732 -0.029998321
0003e0 9a 83 a6 bb ab ee 49 bd a2 92 54 3d 0f 21 c0 3c
       -0.005081606 -0.049299877 0.051897652 0.023453264
0003f0 98 5d b1 3b 78 2e 21 bd 94 93 cd bc 65 92 37 3d
       0.0054127686 -0.039350957 -0.025094785 0.044817347
